{
  "nodes": [
    {
      "op": "null", 
      "name": "data", 
      "attrs": {"__profiler_scope__": "<unk>:"}, 
      "inputs": []
    }, 
    {
      "op": "null", 
      "name": "cifarresnetv11_conv0_weight", 
      "attrs": {
        "__dtype__": "0", 
        "__lr_mult__": "1.0", 
        "__profiler_scope__": "cifarresnetv11:", 
        "__shape__": "(16, 3, 3, 3)", 
        "__storage_type__": "0", 
        "__wd_mult__": "1.0"
      }, 
      "inputs": []
    }, 
    {
      "op": "Convolution", 
      "name": "cifarresnetv11_conv0_fwd", 
      "attrs": {
        "__profiler_scope__": "cifarresnetv11:conv0:", 
        "dilate": "(1, 1)", 
        "kernel": "(3, 3)", 
        "layout": "NCHW", 
        "no_bias": "True", 
        "num_filter": "16", 
        "num_group": "1", 
        "pad": "(1, 1)", 
        "stride": "(1, 1)"
      }, 
      "inputs": [[0, 0, 0], [1, 0, 0]]
    }, 
    {
      "op": "null", 
      "name": "cifarresnetv11_batchnorm0_gamma", 
      "attrs": {
        "__dtype__": "0", 
        "__init__": "ones", 
        "__lr_mult__": "1.0", 
        "__profiler_scope__": "cifarresnetv11:", 
        "__shape__": "(16,)", 
        "__storage_type__": "0", 
        "__wd_mult__": "1.0"
      }, 
      "inputs": []
    }, 
    {
      "op": "null", 
      "name": "cifarresnetv11_batchnorm0_beta", 
      "attrs": {
        "__dtype__": "0", 
        "__init__": "zeros", 
        "__lr_mult__": "1.0", 
        "__profiler_scope__": "cifarresnetv11:", 
        "__shape__": "(16,)", 
        "__storage_type__": "0", 
        "__wd_mult__": "1.0"
      }, 
      "inputs": []
    }, 
    {
      "op": "null", 
      "name": "cifarresnetv11_batchnorm0_running_mean", 
      "attrs": {
        "__dtype__": "0", 
        "__init__": "zeros", 
        "__lr_mult__": "1.0", 
        "__profiler_scope__": "cifarresnetv11:", 
        "__shape__": "(16,)", 
        "__storage_type__": "0", 
        "__wd_mult__": "1.0"
      }, 
      "inputs": []
    }, 
    {
      "op": "null", 
      "name": "cifarresnetv11_batchnorm0_running_var", 
      "attrs": {
        "__dtype__": "0", 
        "__init__": "ones", 
        "__lr_mult__": "1.0", 
        "__profiler_scope__": "cifarresnetv11:", 
        "__shape__": "(16,)", 
        "__storage_type__": "0", 
        "__wd_mult__": "1.0"
      }, 
      "inputs": []
    }, 
    {
      "op": "BatchNorm", 
      "name": "cifarresnetv11_batchnorm0_fwd", 
      "attrs": {
        "__profiler_scope__": "cifarresnetv11:batchnorm0:", 
        "axis": "1", 
        "eps": "1e-05", 
        "fix_gamma": "False", 
        "momentum": "0.9", 
        "use_global_stats": "False"
      }, 
      "inputs": [[2, 0, 0], [3, 0, 0], [4, 0, 0], [5, 0, 1], [6, 0, 1]]
    }, 
    {
      "op": "null", 
      "name": "cifarresnetv11_stage1_conv0_weight", 
      "attrs": {
        "__dtype__": "0", 
        "__lr_mult__": "1.0", 
        "__profiler_scope__": "cifarresnetv11:stage1:", 
        "__shape__": "(16, 16, 3, 3)", 
        "__storage_type__": "0", 
        "__wd_mult__": "1.0"
      }, 
      "inputs": []
    }, 
    {
      "op": "Convolution", 
      "name": "cifarresnetv11_stage1_conv0_fwd", 
      "attrs": {
        "__profiler_scope__": "cifarresnetv11:stage1:conv0:", 
        "dilate": "(1, 1)", 
        "kernel": "(3, 3)", 
        "layout": "NCHW", 
        "no_bias": "True", 
        "num_filter": "16", 
        "num_group": "1", 
        "pad": "(1, 1)", 
        "stride": "(1, 1)"
      }, 
      "inputs": [[7, 0, 0], [8, 0, 0]]
    }, 
    {
      "op": "null", 
      "name": "cifarresnetv11_stage1_batchnorm0_gamma", 
      "attrs": {
        "__dtype__": "0", 
        "__init__": "ones", 
        "__lr_mult__": "1.0", 
        "__profiler_scope__": "cifarresnetv11:stage1:", 
        "__shape__": "(16,)", 
        "__storage_type__": "0", 
        "__wd_mult__": "1.0"
      }, 
      "inputs": []
    }, 
    {
      "op": "null", 
      "name": "cifarresnetv11_stage1_batchnorm0_beta", 
      "attrs": {
        "__dtype__": "0", 
        "__init__": "zeros", 
        "__lr_mult__": "1.0", 
        "__profiler_scope__": "cifarresnetv11:stage1:", 
        "__shape__": "(16,)", 
        "__storage_type__": "0", 
        "__wd_mult__": "1.0"
      }, 
      "inputs": []
    }, 
    {
      "op": "null", 
      "name": "cifarresnetv11_stage1_batchnorm0_running_mean", 
      "attrs": {
        "__dtype__": "0", 
        "__init__": "zeros", 
        "__lr_mult__": "1.0", 
        "__profiler_scope__": "cifarresnetv11:stage1:", 
        "__shape__": "(16,)", 
        "__storage_type__": "0", 
        "__wd_mult__": "1.0"
      }, 
      "inputs": []
    }, 
    {
      "op": "null", 
      "name": "cifarresnetv11_stage1_batchnorm0_running_var", 
      "attrs": {
        "__dtype__": "0", 
        "__init__": "ones", 
        "__lr_mult__": "1.0", 
        "__profiler_scope__": "cifarresnetv11:stage1:", 
        "__shape__": "(16,)", 
        "__storage_type__": "0", 
        "__wd_mult__": "1.0"
      }, 
      "inputs": []
    }, 
    {
      "op": "BatchNorm", 
      "name": "cifarresnetv11_stage1_batchnorm0_fwd", 
      "attrs": {
        "__profiler_scope__": "cifarresnetv11:stage1:batchnorm0:", 
        "axis": "1", 
        "eps": "1e-05", 
        "fix_gamma": "False", 
        "momentum": "0.9", 
        "use_global_stats": "False"
      }, 
      "inputs": [[9, 0, 0], [10, 0, 0], [11, 0, 0], [12, 0, 1], [13, 0, 1]]
    }, 
    {
      "op": "Activation", 
      "name": "cifarresnetv11_stage1_relu0_fwd", 
      "attrs": {
        "__profiler_scope__": "cifarresnetv11:stage1:relu0:", 
        "act_type": "relu"
      }, 
      "inputs": [[14, 0, 0]]
    }, 
    {
      "op": "null", 
      "name": "cifarresnetv11_stage1_conv1_weight", 
      "attrs": {
        "__dtype__": "0", 
        "__lr_mult__": "1.0", 
        "__profiler_scope__": "cifarresnetv11:stage1:", 
        "__shape__": "(16, 16, 3, 3)", 
        "__storage_type__": "0", 
        "__wd_mult__": "1.0"
      }, 
      "inputs": []
    }, 
    {
      "op": "Convolution", 
      "name": "cifarresnetv11_stage1_conv1_fwd", 
      "attrs": {
        "__profiler_scope__": "cifarresnetv11:stage1:conv1:", 
        "dilate": "(1, 1)", 
        "kernel": "(3, 3)", 
        "layout": "NCHW", 
        "no_bias": "True", 
        "num_filter": "16", 
        "num_group": "1", 
        "pad": "(1, 1)", 
        "stride": "(1, 1)"
      }, 
      "inputs": [[15, 0, 0], [16, 0, 0]]
    }, 
    {
      "op": "null", 
      "name": "cifarresnetv11_stage1_batchnorm1_gamma", 
      "attrs": {
        "__dtype__": "0", 
        "__init__": "ones", 
        "__lr_mult__": "1.0", 
        "__profiler_scope__": "cifarresnetv11:stage1:", 
        "__shape__": "(16,)", 
        "__storage_type__": "0", 
        "__wd_mult__": "1.0"
      }, 
      "inputs": []
    }, 
    {
      "op": "null", 
      "name": "cifarresnetv11_stage1_batchnorm1_beta", 
      "attrs": {
        "__dtype__": "0", 
        "__init__": "zeros", 
        "__lr_mult__": "1.0", 
        "__profiler_scope__": "cifarresnetv11:stage1:", 
        "__shape__": "(16,)", 
        "__storage_type__": "0", 
        "__wd_mult__": "1.0"
      }, 
      "inputs": []
    }, 
    {
      "op": "null", 
      "name": "cifarresnetv11_stage1_batchnorm1_running_mean", 
      "attrs": {
        "__dtype__": "0", 
        "__init__": "zeros", 
        "__lr_mult__": "1.0", 
        "__profiler_scope__": "cifarresnetv11:stage1:", 
        "__shape__": "(16,)", 
        "__storage_type__": "0", 
        "__wd_mult__": "1.0"
      }, 
      "inputs": []
    }, 
    {
      "op": "null", 
      "name": "cifarresnetv11_stage1_batchnorm1_running_var", 
      "attrs": {
        "__dtype__": "0", 
        "__init__": "ones", 
        "__lr_mult__": "1.0", 
        "__profiler_scope__": "cifarresnetv11:stage1:", 
        "__shape__": "(16,)", 
        "__storage_type__": "0", 
        "__wd_mult__": "1.0"
      }, 
      "inputs": []
    }, 
    {
      "op": "BatchNorm", 
      "name": "cifarresnetv11_stage1_batchnorm1_fwd", 
      "attrs": {
        "__profiler_scope__": "cifarresnetv11:stage1:batchnorm1:", 
        "axis": "1", 
        "eps": "1e-05", 
        "fix_gamma": "False", 
        "momentum": "0.9", 
        "use_global_stats": "False"
      }, 
      "inputs": [[17, 0, 0], [18, 0, 0], [19, 0, 0], [20, 0, 1], [21, 0, 1]]
    }, 
    {
      "op": "elemwise_add", 
      "name": "cifarresnetv11_stage1__plus0", 
      "attrs": {"__profiler_scope__": "cifarresnetv11:stage1:"}, 
      "inputs": [[7, 0, 0], [22, 0, 0]]
    }, 
    {
      "op": "Activation", 
      "name": "cifarresnetv11_stage1_activation0", 
      "attrs": {
        "__profiler_scope__": "cifarresnetv11:stage1:", 
        "act_type": "relu"
      }, 
      "inputs": [[23, 0, 0]]
    }, 
    {
      "op": "null", 
      "name": "cifarresnetv11_stage1_conv2_weight", 
      "attrs": {
        "__dtype__": "0", 
        "__lr_mult__": "1.0", 
        "__profiler_scope__": "cifarresnetv11:stage1:", 
        "__shape__": "(16, 16, 3, 3)", 
        "__storage_type__": "0", 
        "__wd_mult__": "1.0"
      }, 
      "inputs": []
    }, 
    {
      "op": "Convolution", 
      "name": "cifarresnetv11_stage1_conv2_fwd", 
      "attrs": {
        "__profiler_scope__": "cifarresnetv11:stage1:conv2:", 
        "dilate": "(1, 1)", 
        "kernel": "(3, 3)", 
        "layout": "NCHW", 
        "no_bias": "True", 
        "num_filter": "16", 
        "num_group": "1", 
        "pad": "(1, 1)", 
        "stride": "(1, 1)"
      }, 
      "inputs": [[24, 0, 0], [25, 0, 0]]
    }, 
    {
      "op": "null", 
      "name": "cifarresnetv11_stage1_batchnorm2_gamma", 
      "attrs": {
        "__dtype__": "0", 
        "__init__": "ones", 
        "__lr_mult__": "1.0", 
        "__profiler_scope__": "cifarresnetv11:stage1:", 
        "__shape__": "(16,)", 
        "__storage_type__": "0", 
        "__wd_mult__": "1.0"
      }, 
      "inputs": []
    }, 
    {
      "op": "null", 
      "name": "cifarresnetv11_stage1_batchnorm2_beta", 
      "attrs": {
        "__dtype__": "0", 
        "__init__": "zeros", 
        "__lr_mult__": "1.0", 
        "__profiler_scope__": "cifarresnetv11:stage1:", 
        "__shape__": "(16,)", 
        "__storage_type__": "0", 
        "__wd_mult__": "1.0"
      }, 
      "inputs": []
    }, 
    {
      "op": "null", 
      "name": "cifarresnetv11_stage1_batchnorm2_running_mean", 
      "attrs": {
        "__dtype__": "0", 
        "__init__": "zeros", 
        "__lr_mult__": "1.0", 
        "__profiler_scope__": "cifarresnetv11:stage1:", 
        "__shape__": "(16,)", 
        "__storage_type__": "0", 
        "__wd_mult__": "1.0"
      }, 
      "inputs": []
    }, 
    {
      "op": "null", 
      "name": "cifarresnetv11_stage1_batchnorm2_running_var", 
      "attrs": {
        "__dtype__": "0", 
        "__init__": "ones", 
        "__lr_mult__": "1.0", 
        "__profiler_scope__": "cifarresnetv11:stage1:", 
        "__shape__": "(16,)", 
        "__storage_type__": "0", 
        "__wd_mult__": "1.0"
      }, 
      "inputs": []
    }, 
    {
      "op": "BatchNorm", 
      "name": "cifarresnetv11_stage1_batchnorm2_fwd", 
      "attrs": {
        "__profiler_scope__": "cifarresnetv11:stage1:batchnorm2:", 
        "axis": "1", 
        "eps": "1e-05", 
        "fix_gamma": "False", 
        "momentum": "0.9", 
        "use_global_stats": "False"
      }, 
      "inputs": [[26, 0, 0], [27, 0, 0], [28, 0, 0], [29, 0, 1], [30, 0, 1]]
    }, 
    {
      "op": "Activation", 
      "name": "cifarresnetv11_stage1_relu1_fwd", 
      "attrs": {
        "__profiler_scope__": "cifarresnetv11:stage1:relu1:", 
        "act_type": "relu"
      }, 
      "inputs": [[31, 0, 0]]
    }, 
    {
      "op": "null", 
      "name": "cifarresnetv11_stage1_conv3_weight", 
      "attrs": {
        "__dtype__": "0", 
        "__lr_mult__": "1.0", 
        "__profiler_scope__": "cifarresnetv11:stage1:", 
        "__shape__": "(16, 16, 3, 3)", 
        "__storage_type__": "0", 
        "__wd_mult__": "1.0"
      }, 
      "inputs": []
    }, 
    {
      "op": "Convolution", 
      "name": "cifarresnetv11_stage1_conv3_fwd", 
      "attrs": {
        "__profiler_scope__": "cifarresnetv11:stage1:conv3:", 
        "dilate": "(1, 1)", 
        "kernel": "(3, 3)", 
        "layout": "NCHW", 
        "no_bias": "True", 
        "num_filter": "16", 
        "num_group": "1", 
        "pad": "(1, 1)", 
        "stride": "(1, 1)"
      }, 
      "inputs": [[32, 0, 0], [33, 0, 0]]
    }, 
    {
      "op": "null", 
      "name": "cifarresnetv11_stage1_batchnorm3_gamma", 
      "attrs": {
        "__dtype__": "0", 
        "__init__": "ones", 
        "__lr_mult__": "1.0", 
        "__profiler_scope__": "cifarresnetv11:stage1:", 
        "__shape__": "(16,)", 
        "__storage_type__": "0", 
        "__wd_mult__": "1.0"
      }, 
      "inputs": []
    }, 
    {
      "op": "null", 
      "name": "cifarresnetv11_stage1_batchnorm3_beta", 
      "attrs": {
        "__dtype__": "0", 
        "__init__": "zeros", 
        "__lr_mult__": "1.0", 
        "__profiler_scope__": "cifarresnetv11:stage1:", 
        "__shape__": "(16,)", 
        "__storage_type__": "0", 
        "__wd_mult__": "1.0"
      }, 
      "inputs": []
    }, 
    {
      "op": "null", 
      "name": "cifarresnetv11_stage1_batchnorm3_running_mean", 
      "attrs": {
        "__dtype__": "0", 
        "__init__": "zeros", 
        "__lr_mult__": "1.0", 
        "__profiler_scope__": "cifarresnetv11:stage1:", 
        "__shape__": "(16,)", 
        "__storage_type__": "0", 
        "__wd_mult__": "1.0"
      }, 
      "inputs": []
    }, 
    {
      "op": "null", 
      "name": "cifarresnetv11_stage1_batchnorm3_running_var", 
      "attrs": {
        "__dtype__": "0", 
        "__init__": "ones", 
        "__lr_mult__": "1.0", 
        "__profiler_scope__": "cifarresnetv11:stage1:", 
        "__shape__": "(16,)", 
        "__storage_type__": "0", 
        "__wd_mult__": "1.0"
      }, 
      "inputs": []
    }, 
    {
      "op": "BatchNorm", 
      "name": "cifarresnetv11_stage1_batchnorm3_fwd", 
      "attrs": {
        "__profiler_scope__": "cifarresnetv11:stage1:batchnorm3:", 
        "axis": "1", 
        "eps": "1e-05", 
        "fix_gamma": "False", 
        "momentum": "0.9", 
        "use_global_stats": "False"
      }, 
      "inputs": [[34, 0, 0], [35, 0, 0], [36, 0, 0], [37, 0, 1], [38, 0, 1]]
    }, 
    {
      "op": "elemwise_add", 
      "name": "cifarresnetv11_stage1__plus1", 
      "attrs": {"__profiler_scope__": "cifarresnetv11:stage1:"}, 
      "inputs": [[24, 0, 0], [39, 0, 0]]
    }, 
    {
      "op": "Activation", 
      "name": "cifarresnetv11_stage1_activation1", 
      "attrs": {
        "__profiler_scope__": "cifarresnetv11:stage1:", 
        "act_type": "relu"
      }, 
      "inputs": [[40, 0, 0]]
    }, 
    {
      "op": "null", 
      "name": "cifarresnetv11_stage1_conv4_weight", 
      "attrs": {
        "__dtype__": "0", 
        "__lr_mult__": "1.0", 
        "__profiler_scope__": "cifarresnetv11:stage1:", 
        "__shape__": "(16, 16, 3, 3)", 
        "__storage_type__": "0", 
        "__wd_mult__": "1.0"
      }, 
      "inputs": []
    }, 
    {
      "op": "Convolution", 
      "name": "cifarresnetv11_stage1_conv4_fwd", 
      "attrs": {
        "__profiler_scope__": "cifarresnetv11:stage1:conv4:", 
        "dilate": "(1, 1)", 
        "kernel": "(3, 3)", 
        "layout": "NCHW", 
        "no_bias": "True", 
        "num_filter": "16", 
        "num_group": "1", 
        "pad": "(1, 1)", 
        "stride": "(1, 1)"
      }, 
      "inputs": [[41, 0, 0], [42, 0, 0]]
    }, 
    {
      "op": "null", 
      "name": "cifarresnetv11_stage1_batchnorm4_gamma", 
      "attrs": {
        "__dtype__": "0", 
        "__init__": "ones", 
        "__lr_mult__": "1.0", 
        "__profiler_scope__": "cifarresnetv11:stage1:", 
        "__shape__": "(16,)", 
        "__storage_type__": "0", 
        "__wd_mult__": "1.0"
      }, 
      "inputs": []
    }, 
    {
      "op": "null", 
      "name": "cifarresnetv11_stage1_batchnorm4_beta", 
      "attrs": {
        "__dtype__": "0", 
        "__init__": "zeros", 
        "__lr_mult__": "1.0", 
        "__profiler_scope__": "cifarresnetv11:stage1:", 
        "__shape__": "(16,)", 
        "__storage_type__": "0", 
        "__wd_mult__": "1.0"
      }, 
      "inputs": []
    }, 
    {
      "op": "null", 
      "name": "cifarresnetv11_stage1_batchnorm4_running_mean", 
      "attrs": {
        "__dtype__": "0", 
        "__init__": "zeros", 
        "__lr_mult__": "1.0", 
        "__profiler_scope__": "cifarresnetv11:stage1:", 
        "__shape__": "(16,)", 
        "__storage_type__": "0", 
        "__wd_mult__": "1.0"
      }, 
      "inputs": []
    }, 
    {
      "op": "null", 
      "name": "cifarresnetv11_stage1_batchnorm4_running_var", 
      "attrs": {
        "__dtype__": "0", 
        "__init__": "ones", 
        "__lr_mult__": "1.0", 
        "__profiler_scope__": "cifarresnetv11:stage1:", 
        "__shape__": "(16,)", 
        "__storage_type__": "0", 
        "__wd_mult__": "1.0"
      }, 
      "inputs": []
    }, 
    {
      "op": "BatchNorm", 
      "name": "cifarresnetv11_stage1_batchnorm4_fwd", 
      "attrs": {
        "__profiler_scope__": "cifarresnetv11:stage1:batchnorm4:", 
        "axis": "1", 
        "eps": "1e-05", 
        "fix_gamma": "False", 
        "momentum": "0.9", 
        "use_global_stats": "False"
      }, 
      "inputs": [[43, 0, 0], [44, 0, 0], [45, 0, 0], [46, 0, 1], [47, 0, 1]]
    }, 
    {
      "op": "Activation", 
      "name": "cifarresnetv11_stage1_relu2_fwd", 
      "attrs": {
        "__profiler_scope__": "cifarresnetv11:stage1:relu2:", 
        "act_type": "relu"
      }, 
      "inputs": [[48, 0, 0]]
    }, 
    {
      "op": "null", 
      "name": "cifarresnetv11_stage1_conv5_weight", 
      "attrs": {
        "__dtype__": "0", 
        "__lr_mult__": "1.0", 
        "__profiler_scope__": "cifarresnetv11:stage1:", 
        "__shape__": "(16, 16, 3, 3)", 
        "__storage_type__": "0", 
        "__wd_mult__": "1.0"
      }, 
      "inputs": []
    }, 
    {
      "op": "Convolution", 
      "name": "cifarresnetv11_stage1_conv5_fwd", 
      "attrs": {
        "__profiler_scope__": "cifarresnetv11:stage1:conv5:", 
        "dilate": "(1, 1)", 
        "kernel": "(3, 3)", 
        "layout": "NCHW", 
        "no_bias": "True", 
        "num_filter": "16", 
        "num_group": "1", 
        "pad": "(1, 1)", 
        "stride": "(1, 1)"
      }, 
      "inputs": [[49, 0, 0], [50, 0, 0]]
    }, 
    {
      "op": "null", 
      "name": "cifarresnetv11_stage1_batchnorm5_gamma", 
      "attrs": {
        "__dtype__": "0", 
        "__init__": "ones", 
        "__lr_mult__": "1.0", 
        "__profiler_scope__": "cifarresnetv11:stage1:", 
        "__shape__": "(16,)", 
        "__storage_type__": "0", 
        "__wd_mult__": "1.0"
      }, 
      "inputs": []
    }, 
    {
      "op": "null", 
      "name": "cifarresnetv11_stage1_batchnorm5_beta", 
      "attrs": {
        "__dtype__": "0", 
        "__init__": "zeros", 
        "__lr_mult__": "1.0", 
        "__profiler_scope__": "cifarresnetv11:stage1:", 
        "__shape__": "(16,)", 
        "__storage_type__": "0", 
        "__wd_mult__": "1.0"
      }, 
      "inputs": []
    }, 
    {
      "op": "null", 
      "name": "cifarresnetv11_stage1_batchnorm5_running_mean", 
      "attrs": {
        "__dtype__": "0", 
        "__init__": "zeros", 
        "__lr_mult__": "1.0", 
        "__profiler_scope__": "cifarresnetv11:stage1:", 
        "__shape__": "(16,)", 
        "__storage_type__": "0", 
        "__wd_mult__": "1.0"
      }, 
      "inputs": []
    }, 
    {
      "op": "null", 
      "name": "cifarresnetv11_stage1_batchnorm5_running_var", 
      "attrs": {
        "__dtype__": "0", 
        "__init__": "ones", 
        "__lr_mult__": "1.0", 
        "__profiler_scope__": "cifarresnetv11:stage1:", 
        "__shape__": "(16,)", 
        "__storage_type__": "0", 
        "__wd_mult__": "1.0"
      }, 
      "inputs": []
    }, 
    {
      "op": "BatchNorm", 
      "name": "cifarresnetv11_stage1_batchnorm5_fwd", 
      "attrs": {
        "__profiler_scope__": "cifarresnetv11:stage1:batchnorm5:", 
        "axis": "1", 
        "eps": "1e-05", 
        "fix_gamma": "False", 
        "momentum": "0.9", 
        "use_global_stats": "False"
      }, 
      "inputs": [[51, 0, 0], [52, 0, 0], [53, 0, 0], [54, 0, 1], [55, 0, 1]]
    }, 
    {
      "op": "elemwise_add", 
      "name": "cifarresnetv11_stage1__plus2", 
      "attrs": {"__profiler_scope__": "cifarresnetv11:stage1:"}, 
      "inputs": [[41, 0, 0], [56, 0, 0]]
    }, 
    {
      "op": "Activation", 
      "name": "cifarresnetv11_stage1_activation2", 
      "attrs": {
        "__profiler_scope__": "cifarresnetv11:stage1:", 
        "act_type": "relu"
      }, 
      "inputs": [[57, 0, 0]]
    }, 
    {
      "op": "null", 
      "name": "cifarresnetv11_stage1_conv6_weight", 
      "attrs": {
        "__dtype__": "0", 
        "__lr_mult__": "1.0", 
        "__profiler_scope__": "cifarresnetv11:stage1:", 
        "__shape__": "(16, 16, 3, 3)", 
        "__storage_type__": "0", 
        "__wd_mult__": "1.0"
      }, 
      "inputs": []
    }, 
    {
      "op": "Convolution", 
      "name": "cifarresnetv11_stage1_conv6_fwd", 
      "attrs": {
        "__profiler_scope__": "cifarresnetv11:stage1:conv6:", 
        "dilate": "(1, 1)", 
        "kernel": "(3, 3)", 
        "layout": "NCHW", 
        "no_bias": "True", 
        "num_filter": "16", 
        "num_group": "1", 
        "pad": "(1, 1)", 
        "stride": "(1, 1)"
      }, 
      "inputs": [[58, 0, 0], [59, 0, 0]]
    }, 
    {
      "op": "null", 
      "name": "cifarresnetv11_stage1_batchnorm6_gamma", 
      "attrs": {
        "__dtype__": "0", 
        "__init__": "ones", 
        "__lr_mult__": "1.0", 
        "__profiler_scope__": "cifarresnetv11:stage1:", 
        "__shape__": "(16,)", 
        "__storage_type__": "0", 
        "__wd_mult__": "1.0"
      }, 
      "inputs": []
    }, 
    {
      "op": "null", 
      "name": "cifarresnetv11_stage1_batchnorm6_beta", 
      "attrs": {
        "__dtype__": "0", 
        "__init__": "zeros", 
        "__lr_mult__": "1.0", 
        "__profiler_scope__": "cifarresnetv11:stage1:", 
        "__shape__": "(16,)", 
        "__storage_type__": "0", 
        "__wd_mult__": "1.0"
      }, 
      "inputs": []
    }, 
    {
      "op": "null", 
      "name": "cifarresnetv11_stage1_batchnorm6_running_mean", 
      "attrs": {
        "__dtype__": "0", 
        "__init__": "zeros", 
        "__lr_mult__": "1.0", 
        "__profiler_scope__": "cifarresnetv11:stage1:", 
        "__shape__": "(16,)", 
        "__storage_type__": "0", 
        "__wd_mult__": "1.0"
      }, 
      "inputs": []
    }, 
    {
      "op": "null", 
      "name": "cifarresnetv11_stage1_batchnorm6_running_var", 
      "attrs": {
        "__dtype__": "0", 
        "__init__": "ones", 
        "__lr_mult__": "1.0", 
        "__profiler_scope__": "cifarresnetv11:stage1:", 
        "__shape__": "(16,)", 
        "__storage_type__": "0", 
        "__wd_mult__": "1.0"
      }, 
      "inputs": []
    }, 
    {
      "op": "BatchNorm", 
      "name": "cifarresnetv11_stage1_batchnorm6_fwd", 
      "attrs": {
        "__profiler_scope__": "cifarresnetv11:stage1:batchnorm6:", 
        "axis": "1", 
        "eps": "1e-05", 
        "fix_gamma": "False", 
        "momentum": "0.9", 
        "use_global_stats": "False"
      }, 
      "inputs": [[60, 0, 0], [61, 0, 0], [62, 0, 0], [63, 0, 1], [64, 0, 1]]
    }, 
    {
      "op": "Activation", 
      "name": "cifarresnetv11_stage1_relu3_fwd", 
      "attrs": {
        "__profiler_scope__": "cifarresnetv11:stage1:relu3:", 
        "act_type": "relu"
      }, 
      "inputs": [[65, 0, 0]]
    }, 
    {
      "op": "null", 
      "name": "cifarresnetv11_stage1_conv7_weight", 
      "attrs": {
        "__dtype__": "0", 
        "__lr_mult__": "1.0", 
        "__profiler_scope__": "cifarresnetv11:stage1:", 
        "__shape__": "(16, 16, 3, 3)", 
        "__storage_type__": "0", 
        "__wd_mult__": "1.0"
      }, 
      "inputs": []
    }, 
    {
      "op": "Convolution", 
      "name": "cifarresnetv11_stage1_conv7_fwd", 
      "attrs": {
        "__profiler_scope__": "cifarresnetv11:stage1:conv7:", 
        "dilate": "(1, 1)", 
        "kernel": "(3, 3)", 
        "layout": "NCHW", 
        "no_bias": "True", 
        "num_filter": "16", 
        "num_group": "1", 
        "pad": "(1, 1)", 
        "stride": "(1, 1)"
      }, 
      "inputs": [[66, 0, 0], [67, 0, 0]]
    }, 
    {
      "op": "null", 
      "name": "cifarresnetv11_stage1_batchnorm7_gamma", 
      "attrs": {
        "__dtype__": "0", 
        "__init__": "ones", 
        "__lr_mult__": "1.0", 
        "__profiler_scope__": "cifarresnetv11:stage1:", 
        "__shape__": "(16,)", 
        "__storage_type__": "0", 
        "__wd_mult__": "1.0"
      }, 
      "inputs": []
    }, 
    {
      "op": "null", 
      "name": "cifarresnetv11_stage1_batchnorm7_beta", 
      "attrs": {
        "__dtype__": "0", 
        "__init__": "zeros", 
        "__lr_mult__": "1.0", 
        "__profiler_scope__": "cifarresnetv11:stage1:", 
        "__shape__": "(16,)", 
        "__storage_type__": "0", 
        "__wd_mult__": "1.0"
      }, 
      "inputs": []
    }, 
    {
      "op": "null", 
      "name": "cifarresnetv11_stage1_batchnorm7_running_mean", 
      "attrs": {
        "__dtype__": "0", 
        "__init__": "zeros", 
        "__lr_mult__": "1.0", 
        "__profiler_scope__": "cifarresnetv11:stage1:", 
        "__shape__": "(16,)", 
        "__storage_type__": "0", 
        "__wd_mult__": "1.0"
      }, 
      "inputs": []
    }, 
    {
      "op": "null", 
      "name": "cifarresnetv11_stage1_batchnorm7_running_var", 
      "attrs": {
        "__dtype__": "0", 
        "__init__": "ones", 
        "__lr_mult__": "1.0", 
        "__profiler_scope__": "cifarresnetv11:stage1:", 
        "__shape__": "(16,)", 
        "__storage_type__": "0", 
        "__wd_mult__": "1.0"
      }, 
      "inputs": []
    }, 
    {
      "op": "BatchNorm", 
      "name": "cifarresnetv11_stage1_batchnorm7_fwd", 
      "attrs": {
        "__profiler_scope__": "cifarresnetv11:stage1:batchnorm7:", 
        "axis": "1", 
        "eps": "1e-05", 
        "fix_gamma": "False", 
        "momentum": "0.9", 
        "use_global_stats": "False"
      }, 
      "inputs": [[68, 0, 0], [69, 0, 0], [70, 0, 0], [71, 0, 1], [72, 0, 1]]
    }, 
    {
      "op": "elemwise_add", 
      "name": "cifarresnetv11_stage1__plus3", 
      "attrs": {"__profiler_scope__": "cifarresnetv11:stage1:"}, 
      "inputs": [[58, 0, 0], [73, 0, 0]]
    }, 
    {
      "op": "Activation", 
      "name": "cifarresnetv11_stage1_activation3", 
      "attrs": {
        "__profiler_scope__": "cifarresnetv11:stage1:", 
        "act_type": "relu"
      }, 
      "inputs": [[74, 0, 0]]
    }, 
    {
      "op": "null", 
      "name": "cifarresnetv11_stage1_conv8_weight", 
      "attrs": {
        "__dtype__": "0", 
        "__lr_mult__": "1.0", 
        "__profiler_scope__": "cifarresnetv11:stage1:", 
        "__shape__": "(16, 16, 3, 3)", 
        "__storage_type__": "0", 
        "__wd_mult__": "1.0"
      }, 
      "inputs": []
    }, 
    {
      "op": "Convolution", 
      "name": "cifarresnetv11_stage1_conv8_fwd", 
      "attrs": {
        "__profiler_scope__": "cifarresnetv11:stage1:conv8:", 
        "dilate": "(1, 1)", 
        "kernel": "(3, 3)", 
        "layout": "NCHW", 
        "no_bias": "True", 
        "num_filter": "16", 
        "num_group": "1", 
        "pad": "(1, 1)", 
        "stride": "(1, 1)"
      }, 
      "inputs": [[75, 0, 0], [76, 0, 0]]
    }, 
    {
      "op": "null", 
      "name": "cifarresnetv11_stage1_batchnorm8_gamma", 
      "attrs": {
        "__dtype__": "0", 
        "__init__": "ones", 
        "__lr_mult__": "1.0", 
        "__profiler_scope__": "cifarresnetv11:stage1:", 
        "__shape__": "(16,)", 
        "__storage_type__": "0", 
        "__wd_mult__": "1.0"
      }, 
      "inputs": []
    }, 
    {
      "op": "null", 
      "name": "cifarresnetv11_stage1_batchnorm8_beta", 
      "attrs": {
        "__dtype__": "0", 
        "__init__": "zeros", 
        "__lr_mult__": "1.0", 
        "__profiler_scope__": "cifarresnetv11:stage1:", 
        "__shape__": "(16,)", 
        "__storage_type__": "0", 
        "__wd_mult__": "1.0"
      }, 
      "inputs": []
    }, 
    {
      "op": "null", 
      "name": "cifarresnetv11_stage1_batchnorm8_running_mean", 
      "attrs": {
        "__dtype__": "0", 
        "__init__": "zeros", 
        "__lr_mult__": "1.0", 
        "__profiler_scope__": "cifarresnetv11:stage1:", 
        "__shape__": "(16,)", 
        "__storage_type__": "0", 
        "__wd_mult__": "1.0"
      }, 
      "inputs": []
    }, 
    {
      "op": "null", 
      "name": "cifarresnetv11_stage1_batchnorm8_running_var", 
      "attrs": {
        "__dtype__": "0", 
        "__init__": "ones", 
        "__lr_mult__": "1.0", 
        "__profiler_scope__": "cifarresnetv11:stage1:", 
        "__shape__": "(16,)", 
        "__storage_type__": "0", 
        "__wd_mult__": "1.0"
      }, 
      "inputs": []
    }, 
    {
      "op": "BatchNorm", 
      "name": "cifarresnetv11_stage1_batchnorm8_fwd", 
      "attrs": {
        "__profiler_scope__": "cifarresnetv11:stage1:batchnorm8:", 
        "axis": "1", 
        "eps": "1e-05", 
        "fix_gamma": "False", 
        "momentum": "0.9", 
        "use_global_stats": "False"
      }, 
      "inputs": [[77, 0, 0], [78, 0, 0], [79, 0, 0], [80, 0, 1], [81, 0, 1]]
    }, 
    {
      "op": "Activation", 
      "name": "cifarresnetv11_stage1_relu4_fwd", 
      "attrs": {
        "__profiler_scope__": "cifarresnetv11:stage1:relu4:", 
        "act_type": "relu"
      }, 
      "inputs": [[82, 0, 0]]
    }, 
    {
      "op": "null", 
      "name": "cifarresnetv11_stage1_conv9_weight", 
      "attrs": {
        "__dtype__": "0", 
        "__lr_mult__": "1.0", 
        "__profiler_scope__": "cifarresnetv11:stage1:", 
        "__shape__": "(16, 16, 3, 3)", 
        "__storage_type__": "0", 
        "__wd_mult__": "1.0"
      }, 
      "inputs": []
    }, 
    {
      "op": "Convolution", 
      "name": "cifarresnetv11_stage1_conv9_fwd", 
      "attrs": {
        "__profiler_scope__": "cifarresnetv11:stage1:conv9:", 
        "dilate": "(1, 1)", 
        "kernel": "(3, 3)", 
        "layout": "NCHW", 
        "no_bias": "True", 
        "num_filter": "16", 
        "num_group": "1", 
        "pad": "(1, 1)", 
        "stride": "(1, 1)"
      }, 
      "inputs": [[83, 0, 0], [84, 0, 0]]
    }, 
    {
      "op": "null", 
      "name": "cifarresnetv11_stage1_batchnorm9_gamma", 
      "attrs": {
        "__dtype__": "0", 
        "__init__": "ones", 
        "__lr_mult__": "1.0", 
        "__profiler_scope__": "cifarresnetv11:stage1:", 
        "__shape__": "(16,)", 
        "__storage_type__": "0", 
        "__wd_mult__": "1.0"
      }, 
      "inputs": []
    }, 
    {
      "op": "null", 
      "name": "cifarresnetv11_stage1_batchnorm9_beta", 
      "attrs": {
        "__dtype__": "0", 
        "__init__": "zeros", 
        "__lr_mult__": "1.0", 
        "__profiler_scope__": "cifarresnetv11:stage1:", 
        "__shape__": "(16,)", 
        "__storage_type__": "0", 
        "__wd_mult__": "1.0"
      }, 
      "inputs": []
    }, 
    {
      "op": "null", 
      "name": "cifarresnetv11_stage1_batchnorm9_running_mean", 
      "attrs": {
        "__dtype__": "0", 
        "__init__": "zeros", 
        "__lr_mult__": "1.0", 
        "__profiler_scope__": "cifarresnetv11:stage1:", 
        "__shape__": "(16,)", 
        "__storage_type__": "0", 
        "__wd_mult__": "1.0"
      }, 
      "inputs": []
    }, 
    {
      "op": "null", 
      "name": "cifarresnetv11_stage1_batchnorm9_running_var", 
      "attrs": {
        "__dtype__": "0", 
        "__init__": "ones", 
        "__lr_mult__": "1.0", 
        "__profiler_scope__": "cifarresnetv11:stage1:", 
        "__shape__": "(16,)", 
        "__storage_type__": "0", 
        "__wd_mult__": "1.0"
      }, 
      "inputs": []
    }, 
    {
      "op": "BatchNorm", 
      "name": "cifarresnetv11_stage1_batchnorm9_fwd", 
      "attrs": {
        "__profiler_scope__": "cifarresnetv11:stage1:batchnorm9:", 
        "axis": "1", 
        "eps": "1e-05", 
        "fix_gamma": "False", 
        "momentum": "0.9", 
        "use_global_stats": "False"
      }, 
      "inputs": [[85, 0, 0], [86, 0, 0], [87, 0, 0], [88, 0, 1], [89, 0, 1]]
    }, 
    {
      "op": "elemwise_add", 
      "name": "cifarresnetv11_stage1__plus4", 
      "attrs": {"__profiler_scope__": "cifarresnetv11:stage1:"}, 
      "inputs": [[75, 0, 0], [90, 0, 0]]
    }, 
    {
      "op": "Activation", 
      "name": "cifarresnetv11_stage1_activation4", 
      "attrs": {
        "__profiler_scope__": "cifarresnetv11:stage1:", 
        "act_type": "relu"
      }, 
      "inputs": [[91, 0, 0]]
    }, 
    {
      "op": "null", 
      "name": "cifarresnetv11_stage1_conv10_weight", 
      "attrs": {
        "__dtype__": "0", 
        "__lr_mult__": "1.0", 
        "__profiler_scope__": "cifarresnetv11:stage1:", 
        "__shape__": "(16, 16, 3, 3)", 
        "__storage_type__": "0", 
        "__wd_mult__": "1.0"
      }, 
      "inputs": []
    }, 
    {
      "op": "Convolution", 
      "name": "cifarresnetv11_stage1_conv10_fwd", 
      "attrs": {
        "__profiler_scope__": "cifarresnetv11:stage1:conv10:", 
        "dilate": "(1, 1)", 
        "kernel": "(3, 3)", 
        "layout": "NCHW", 
        "no_bias": "True", 
        "num_filter": "16", 
        "num_group": "1", 
        "pad": "(1, 1)", 
        "stride": "(1, 1)"
      }, 
      "inputs": [[92, 0, 0], [93, 0, 0]]
    }, 
    {
      "op": "null", 
      "name": "cifarresnetv11_stage1_batchnorm10_gamma", 
      "attrs": {
        "__dtype__": "0", 
        "__init__": "ones", 
        "__lr_mult__": "1.0", 
        "__profiler_scope__": "cifarresnetv11:stage1:", 
        "__shape__": "(16,)", 
        "__storage_type__": "0", 
        "__wd_mult__": "1.0"
      }, 
      "inputs": []
    }, 
    {
      "op": "null", 
      "name": "cifarresnetv11_stage1_batchnorm10_beta", 
      "attrs": {
        "__dtype__": "0", 
        "__init__": "zeros", 
        "__lr_mult__": "1.0", 
        "__profiler_scope__": "cifarresnetv11:stage1:", 
        "__shape__": "(16,)", 
        "__storage_type__": "0", 
        "__wd_mult__": "1.0"
      }, 
      "inputs": []
    }, 
    {
      "op": "null", 
      "name": "cifarresnetv11_stage1_batchnorm10_running_mean", 
      "attrs": {
        "__dtype__": "0", 
        "__init__": "zeros", 
        "__lr_mult__": "1.0", 
        "__profiler_scope__": "cifarresnetv11:stage1:", 
        "__shape__": "(16,)", 
        "__storage_type__": "0", 
        "__wd_mult__": "1.0"
      }, 
      "inputs": []
    }, 
    {
      "op": "null", 
      "name": "cifarresnetv11_stage1_batchnorm10_running_var", 
      "attrs": {
        "__dtype__": "0", 
        "__init__": "ones", 
        "__lr_mult__": "1.0", 
        "__profiler_scope__": "cifarresnetv11:stage1:", 
        "__shape__": "(16,)", 
        "__storage_type__": "0", 
        "__wd_mult__": "1.0"
      }, 
      "inputs": []
    }, 
    {
      "op": "BatchNorm", 
      "name": "cifarresnetv11_stage1_batchnorm10_fwd", 
      "attrs": {
        "__profiler_scope__": "cifarresnetv11:stage1:batchnorm10:", 
        "axis": "1", 
        "eps": "1e-05", 
        "fix_gamma": "False", 
        "momentum": "0.9", 
        "use_global_stats": "False"
      }, 
      "inputs": [[94, 0, 0], [95, 0, 0], [96, 0, 0], [97, 0, 1], [98, 0, 1]]
    }, 
    {
      "op": "Activation", 
      "name": "cifarresnetv11_stage1_relu5_fwd", 
      "attrs": {
        "__profiler_scope__": "cifarresnetv11:stage1:relu5:", 
        "act_type": "relu"
      }, 
      "inputs": [[99, 0, 0]]
    }, 
    {
      "op": "null", 
      "name": "cifarresnetv11_stage1_conv11_weight", 
      "attrs": {
        "__dtype__": "0", 
        "__lr_mult__": "1.0", 
        "__profiler_scope__": "cifarresnetv11:stage1:", 
        "__shape__": "(16, 16, 3, 3)", 
        "__storage_type__": "0", 
        "__wd_mult__": "1.0"
      }, 
      "inputs": []
    }, 
    {
      "op": "Convolution", 
      "name": "cifarresnetv11_stage1_conv11_fwd", 
      "attrs": {
        "__profiler_scope__": "cifarresnetv11:stage1:conv11:", 
        "dilate": "(1, 1)", 
        "kernel": "(3, 3)", 
        "layout": "NCHW", 
        "no_bias": "True", 
        "num_filter": "16", 
        "num_group": "1", 
        "pad": "(1, 1)", 
        "stride": "(1, 1)"
      }, 
      "inputs": [[100, 0, 0], [101, 0, 0]]
    }, 
    {
      "op": "null", 
      "name": "cifarresnetv11_stage1_batchnorm11_gamma", 
      "attrs": {
        "__dtype__": "0", 
        "__init__": "ones", 
        "__lr_mult__": "1.0", 
        "__profiler_scope__": "cifarresnetv11:stage1:", 
        "__shape__": "(16,)", 
        "__storage_type__": "0", 
        "__wd_mult__": "1.0"
      }, 
      "inputs": []
    }, 
    {
      "op": "null", 
      "name": "cifarresnetv11_stage1_batchnorm11_beta", 
      "attrs": {
        "__dtype__": "0", 
        "__init__": "zeros", 
        "__lr_mult__": "1.0", 
        "__profiler_scope__": "cifarresnetv11:stage1:", 
        "__shape__": "(16,)", 
        "__storage_type__": "0", 
        "__wd_mult__": "1.0"
      }, 
      "inputs": []
    }, 
    {
      "op": "null", 
      "name": "cifarresnetv11_stage1_batchnorm11_running_mean", 
      "attrs": {
        "__dtype__": "0", 
        "__init__": "zeros", 
        "__lr_mult__": "1.0", 
        "__profiler_scope__": "cifarresnetv11:stage1:", 
        "__shape__": "(16,)", 
        "__storage_type__": "0", 
        "__wd_mult__": "1.0"
      }, 
      "inputs": []
    }, 
    {
      "op": "null", 
      "name": "cifarresnetv11_stage1_batchnorm11_running_var", 
      "attrs": {
        "__dtype__": "0", 
        "__init__": "ones", 
        "__lr_mult__": "1.0", 
        "__profiler_scope__": "cifarresnetv11:stage1:", 
        "__shape__": "(16,)", 
        "__storage_type__": "0", 
        "__wd_mult__": "1.0"
      }, 
      "inputs": []
    }, 
    {
      "op": "BatchNorm", 
      "name": "cifarresnetv11_stage1_batchnorm11_fwd", 
      "attrs": {
        "__profiler_scope__": "cifarresnetv11:stage1:batchnorm11:", 
        "axis": "1", 
        "eps": "1e-05", 
        "fix_gamma": "False", 
        "momentum": "0.9", 
        "use_global_stats": "False"
      }, 
      "inputs": [[102, 0, 0], [103, 0, 0], [104, 0, 0], [105, 0, 1], [106, 0, 1]]
    }, 
    {
      "op": "elemwise_add", 
      "name": "cifarresnetv11_stage1__plus5", 
      "attrs": {"__profiler_scope__": "cifarresnetv11:stage1:"}, 
      "inputs": [[92, 0, 0], [107, 0, 0]]
    }, 
    {
      "op": "Activation", 
      "name": "cifarresnetv11_stage1_activation5", 
      "attrs": {
        "__profiler_scope__": "cifarresnetv11:stage1:", 
        "act_type": "relu"
      }, 
      "inputs": [[108, 0, 0]]
    }, 
    {
      "op": "null", 
      "name": "cifarresnetv11_stage1_conv12_weight", 
      "attrs": {
        "__dtype__": "0", 
        "__lr_mult__": "1.0", 
        "__profiler_scope__": "cifarresnetv11:stage1:", 
        "__shape__": "(16, 16, 3, 3)", 
        "__storage_type__": "0", 
        "__wd_mult__": "1.0"
      }, 
      "inputs": []
    }, 
    {
      "op": "Convolution", 
      "name": "cifarresnetv11_stage1_conv12_fwd", 
      "attrs": {
        "__profiler_scope__": "cifarresnetv11:stage1:conv12:", 
        "dilate": "(1, 1)", 
        "kernel": "(3, 3)", 
        "layout": "NCHW", 
        "no_bias": "True", 
        "num_filter": "16", 
        "num_group": "1", 
        "pad": "(1, 1)", 
        "stride": "(1, 1)"
      }, 
      "inputs": [[109, 0, 0], [110, 0, 0]]
    }, 
    {
      "op": "null", 
      "name": "cifarresnetv11_stage1_batchnorm12_gamma", 
      "attrs": {
        "__dtype__": "0", 
        "__init__": "ones", 
        "__lr_mult__": "1.0", 
        "__profiler_scope__": "cifarresnetv11:stage1:", 
        "__shape__": "(16,)", 
        "__storage_type__": "0", 
        "__wd_mult__": "1.0"
      }, 
      "inputs": []
    }, 
    {
      "op": "null", 
      "name": "cifarresnetv11_stage1_batchnorm12_beta", 
      "attrs": {
        "__dtype__": "0", 
        "__init__": "zeros", 
        "__lr_mult__": "1.0", 
        "__profiler_scope__": "cifarresnetv11:stage1:", 
        "__shape__": "(16,)", 
        "__storage_type__": "0", 
        "__wd_mult__": "1.0"
      }, 
      "inputs": []
    }, 
    {
      "op": "null", 
      "name": "cifarresnetv11_stage1_batchnorm12_running_mean", 
      "attrs": {
        "__dtype__": "0", 
        "__init__": "zeros", 
        "__lr_mult__": "1.0", 
        "__profiler_scope__": "cifarresnetv11:stage1:", 
        "__shape__": "(16,)", 
        "__storage_type__": "0", 
        "__wd_mult__": "1.0"
      }, 
      "inputs": []
    }, 
    {
      "op": "null", 
      "name": "cifarresnetv11_stage1_batchnorm12_running_var", 
      "attrs": {
        "__dtype__": "0", 
        "__init__": "ones", 
        "__lr_mult__": "1.0", 
        "__profiler_scope__": "cifarresnetv11:stage1:", 
        "__shape__": "(16,)", 
        "__storage_type__": "0", 
        "__wd_mult__": "1.0"
      }, 
      "inputs": []
    }, 
    {
      "op": "BatchNorm", 
      "name": "cifarresnetv11_stage1_batchnorm12_fwd", 
      "attrs": {
        "__profiler_scope__": "cifarresnetv11:stage1:batchnorm12:", 
        "axis": "1", 
        "eps": "1e-05", 
        "fix_gamma": "False", 
        "momentum": "0.9", 
        "use_global_stats": "False"
      }, 
      "inputs": [[111, 0, 0], [112, 0, 0], [113, 0, 0], [114, 0, 1], [115, 0, 1]]
    }, 
    {
      "op": "Activation", 
      "name": "cifarresnetv11_stage1_relu6_fwd", 
      "attrs": {
        "__profiler_scope__": "cifarresnetv11:stage1:relu6:", 
        "act_type": "relu"
      }, 
      "inputs": [[116, 0, 0]]
    }, 
    {
      "op": "null", 
      "name": "cifarresnetv11_stage1_conv13_weight", 
      "attrs": {
        "__dtype__": "0", 
        "__lr_mult__": "1.0", 
        "__profiler_scope__": "cifarresnetv11:stage1:", 
        "__shape__": "(16, 16, 3, 3)", 
        "__storage_type__": "0", 
        "__wd_mult__": "1.0"
      }, 
      "inputs": []
    }, 
    {
      "op": "Convolution", 
      "name": "cifarresnetv11_stage1_conv13_fwd", 
      "attrs": {
        "__profiler_scope__": "cifarresnetv11:stage1:conv13:", 
        "dilate": "(1, 1)", 
        "kernel": "(3, 3)", 
        "layout": "NCHW", 
        "no_bias": "True", 
        "num_filter": "16", 
        "num_group": "1", 
        "pad": "(1, 1)", 
        "stride": "(1, 1)"
      }, 
      "inputs": [[117, 0, 0], [118, 0, 0]]
    }, 
    {
      "op": "null", 
      "name": "cifarresnetv11_stage1_batchnorm13_gamma", 
      "attrs": {
        "__dtype__": "0", 
        "__init__": "ones", 
        "__lr_mult__": "1.0", 
        "__profiler_scope__": "cifarresnetv11:stage1:", 
        "__shape__": "(16,)", 
        "__storage_type__": "0", 
        "__wd_mult__": "1.0"
      }, 
      "inputs": []
    }, 
    {
      "op": "null", 
      "name": "cifarresnetv11_stage1_batchnorm13_beta", 
      "attrs": {
        "__dtype__": "0", 
        "__init__": "zeros", 
        "__lr_mult__": "1.0", 
        "__profiler_scope__": "cifarresnetv11:stage1:", 
        "__shape__": "(16,)", 
        "__storage_type__": "0", 
        "__wd_mult__": "1.0"
      }, 
      "inputs": []
    }, 
    {
      "op": "null", 
      "name": "cifarresnetv11_stage1_batchnorm13_running_mean", 
      "attrs": {
        "__dtype__": "0", 
        "__init__": "zeros", 
        "__lr_mult__": "1.0", 
        "__profiler_scope__": "cifarresnetv11:stage1:", 
        "__shape__": "(16,)", 
        "__storage_type__": "0", 
        "__wd_mult__": "1.0"
      }, 
      "inputs": []
    }, 
    {
      "op": "null", 
      "name": "cifarresnetv11_stage1_batchnorm13_running_var", 
      "attrs": {
        "__dtype__": "0", 
        "__init__": "ones", 
        "__lr_mult__": "1.0", 
        "__profiler_scope__": "cifarresnetv11:stage1:", 
        "__shape__": "(16,)", 
        "__storage_type__": "0", 
        "__wd_mult__": "1.0"
      }, 
      "inputs": []
    }, 
    {
      "op": "BatchNorm", 
      "name": "cifarresnetv11_stage1_batchnorm13_fwd", 
      "attrs": {
        "__profiler_scope__": "cifarresnetv11:stage1:batchnorm13:", 
        "axis": "1", 
        "eps": "1e-05", 
        "fix_gamma": "False", 
        "momentum": "0.9", 
        "use_global_stats": "False"
      }, 
      "inputs": [[119, 0, 0], [120, 0, 0], [121, 0, 0], [122, 0, 1], [123, 0, 1]]
    }, 
    {
      "op": "elemwise_add", 
      "name": "cifarresnetv11_stage1__plus6", 
      "attrs": {"__profiler_scope__": "cifarresnetv11:stage1:"}, 
      "inputs": [[109, 0, 0], [124, 0, 0]]
    }, 
    {
      "op": "Activation", 
      "name": "cifarresnetv11_stage1_activation6", 
      "attrs": {
        "__profiler_scope__": "cifarresnetv11:stage1:", 
        "act_type": "relu"
      }, 
      "inputs": [[125, 0, 0]]
    }, 
    {
      "op": "null", 
      "name": "cifarresnetv11_stage1_conv14_weight", 
      "attrs": {
        "__dtype__": "0", 
        "__lr_mult__": "1.0", 
        "__profiler_scope__": "cifarresnetv11:stage1:", 
        "__shape__": "(16, 16, 3, 3)", 
        "__storage_type__": "0", 
        "__wd_mult__": "1.0"
      }, 
      "inputs": []
    }, 
    {
      "op": "Convolution", 
      "name": "cifarresnetv11_stage1_conv14_fwd", 
      "attrs": {
        "__profiler_scope__": "cifarresnetv11:stage1:conv14:", 
        "dilate": "(1, 1)", 
        "kernel": "(3, 3)", 
        "layout": "NCHW", 
        "no_bias": "True", 
        "num_filter": "16", 
        "num_group": "1", 
        "pad": "(1, 1)", 
        "stride": "(1, 1)"
      }, 
      "inputs": [[126, 0, 0], [127, 0, 0]]
    }, 
    {
      "op": "null", 
      "name": "cifarresnetv11_stage1_batchnorm14_gamma", 
      "attrs": {
        "__dtype__": "0", 
        "__init__": "ones", 
        "__lr_mult__": "1.0", 
        "__profiler_scope__": "cifarresnetv11:stage1:", 
        "__shape__": "(16,)", 
        "__storage_type__": "0", 
        "__wd_mult__": "1.0"
      }, 
      "inputs": []
    }, 
    {
      "op": "null", 
      "name": "cifarresnetv11_stage1_batchnorm14_beta", 
      "attrs": {
        "__dtype__": "0", 
        "__init__": "zeros", 
        "__lr_mult__": "1.0", 
        "__profiler_scope__": "cifarresnetv11:stage1:", 
        "__shape__": "(16,)", 
        "__storage_type__": "0", 
        "__wd_mult__": "1.0"
      }, 
      "inputs": []
    }, 
    {
      "op": "null", 
      "name": "cifarresnetv11_stage1_batchnorm14_running_mean", 
      "attrs": {
        "__dtype__": "0", 
        "__init__": "zeros", 
        "__lr_mult__": "1.0", 
        "__profiler_scope__": "cifarresnetv11:stage1:", 
        "__shape__": "(16,)", 
        "__storage_type__": "0", 
        "__wd_mult__": "1.0"
      }, 
      "inputs": []
    }, 
    {
      "op": "null", 
      "name": "cifarresnetv11_stage1_batchnorm14_running_var", 
      "attrs": {
        "__dtype__": "0", 
        "__init__": "ones", 
        "__lr_mult__": "1.0", 
        "__profiler_scope__": "cifarresnetv11:stage1:", 
        "__shape__": "(16,)", 
        "__storage_type__": "0", 
        "__wd_mult__": "1.0"
      }, 
      "inputs": []
    }, 
    {
      "op": "BatchNorm", 
      "name": "cifarresnetv11_stage1_batchnorm14_fwd", 
      "attrs": {
        "__profiler_scope__": "cifarresnetv11:stage1:batchnorm14:", 
        "axis": "1", 
        "eps": "1e-05", 
        "fix_gamma": "False", 
        "momentum": "0.9", 
        "use_global_stats": "False"
      }, 
      "inputs": [[128, 0, 0], [129, 0, 0], [130, 0, 0], [131, 0, 1], [132, 0, 1]]
    }, 
    {
      "op": "Activation", 
      "name": "cifarresnetv11_stage1_relu7_fwd", 
      "attrs": {
        "__profiler_scope__": "cifarresnetv11:stage1:relu7:", 
        "act_type": "relu"
      }, 
      "inputs": [[133, 0, 0]]
    }, 
    {
      "op": "null", 
      "name": "cifarresnetv11_stage1_conv15_weight", 
      "attrs": {
        "__dtype__": "0", 
        "__lr_mult__": "1.0", 
        "__profiler_scope__": "cifarresnetv11:stage1:", 
        "__shape__": "(16, 16, 3, 3)", 
        "__storage_type__": "0", 
        "__wd_mult__": "1.0"
      }, 
      "inputs": []
    }, 
    {
      "op": "Convolution", 
      "name": "cifarresnetv11_stage1_conv15_fwd", 
      "attrs": {
        "__profiler_scope__": "cifarresnetv11:stage1:conv15:", 
        "dilate": "(1, 1)", 
        "kernel": "(3, 3)", 
        "layout": "NCHW", 
        "no_bias": "True", 
        "num_filter": "16", 
        "num_group": "1", 
        "pad": "(1, 1)", 
        "stride": "(1, 1)"
      }, 
      "inputs": [[134, 0, 0], [135, 0, 0]]
    }, 
    {
      "op": "null", 
      "name": "cifarresnetv11_stage1_batchnorm15_gamma", 
      "attrs": {
        "__dtype__": "0", 
        "__init__": "ones", 
        "__lr_mult__": "1.0", 
        "__profiler_scope__": "cifarresnetv11:stage1:", 
        "__shape__": "(16,)", 
        "__storage_type__": "0", 
        "__wd_mult__": "1.0"
      }, 
      "inputs": []
    }, 
    {
      "op": "null", 
      "name": "cifarresnetv11_stage1_batchnorm15_beta", 
      "attrs": {
        "__dtype__": "0", 
        "__init__": "zeros", 
        "__lr_mult__": "1.0", 
        "__profiler_scope__": "cifarresnetv11:stage1:", 
        "__shape__": "(16,)", 
        "__storage_type__": "0", 
        "__wd_mult__": "1.0"
      }, 
      "inputs": []
    }, 
    {
      "op": "null", 
      "name": "cifarresnetv11_stage1_batchnorm15_running_mean", 
      "attrs": {
        "__dtype__": "0", 
        "__init__": "zeros", 
        "__lr_mult__": "1.0", 
        "__profiler_scope__": "cifarresnetv11:stage1:", 
        "__shape__": "(16,)", 
        "__storage_type__": "0", 
        "__wd_mult__": "1.0"
      }, 
      "inputs": []
    }, 
    {
      "op": "null", 
      "name": "cifarresnetv11_stage1_batchnorm15_running_var", 
      "attrs": {
        "__dtype__": "0", 
        "__init__": "ones", 
        "__lr_mult__": "1.0", 
        "__profiler_scope__": "cifarresnetv11:stage1:", 
        "__shape__": "(16,)", 
        "__storage_type__": "0", 
        "__wd_mult__": "1.0"
      }, 
      "inputs": []
    }, 
    {
      "op": "BatchNorm", 
      "name": "cifarresnetv11_stage1_batchnorm15_fwd", 
      "attrs": {
        "__profiler_scope__": "cifarresnetv11:stage1:batchnorm15:", 
        "axis": "1", 
        "eps": "1e-05", 
        "fix_gamma": "False", 
        "momentum": "0.9", 
        "use_global_stats": "False"
      }, 
      "inputs": [[136, 0, 0], [137, 0, 0], [138, 0, 0], [139, 0, 1], [140, 0, 1]]
    }, 
    {
      "op": "elemwise_add", 
      "name": "cifarresnetv11_stage1__plus7", 
      "attrs": {"__profiler_scope__": "cifarresnetv11:stage1:"}, 
      "inputs": [[126, 0, 0], [141, 0, 0]]
    }, 
    {
      "op": "Activation", 
      "name": "cifarresnetv11_stage1_activation7", 
      "attrs": {
        "__profiler_scope__": "cifarresnetv11:stage1:", 
        "act_type": "relu"
      }, 
      "inputs": [[142, 0, 0]]
    }, 
    {
      "op": "null", 
      "name": "cifarresnetv11_stage1_conv16_weight", 
      "attrs": {
        "__dtype__": "0", 
        "__lr_mult__": "1.0", 
        "__profiler_scope__": "cifarresnetv11:stage1:", 
        "__shape__": "(16, 16, 3, 3)", 
        "__storage_type__": "0", 
        "__wd_mult__": "1.0"
      }, 
      "inputs": []
    }, 
    {
      "op": "Convolution", 
      "name": "cifarresnetv11_stage1_conv16_fwd", 
      "attrs": {
        "__profiler_scope__": "cifarresnetv11:stage1:conv16:", 
        "dilate": "(1, 1)", 
        "kernel": "(3, 3)", 
        "layout": "NCHW", 
        "no_bias": "True", 
        "num_filter": "16", 
        "num_group": "1", 
        "pad": "(1, 1)", 
        "stride": "(1, 1)"
      }, 
      "inputs": [[143, 0, 0], [144, 0, 0]]
    }, 
    {
      "op": "null", 
      "name": "cifarresnetv11_stage1_batchnorm16_gamma", 
      "attrs": {
        "__dtype__": "0", 
        "__init__": "ones", 
        "__lr_mult__": "1.0", 
        "__profiler_scope__": "cifarresnetv11:stage1:", 
        "__shape__": "(16,)", 
        "__storage_type__": "0", 
        "__wd_mult__": "1.0"
      }, 
      "inputs": []
    }, 
    {
      "op": "null", 
      "name": "cifarresnetv11_stage1_batchnorm16_beta", 
      "attrs": {
        "__dtype__": "0", 
        "__init__": "zeros", 
        "__lr_mult__": "1.0", 
        "__profiler_scope__": "cifarresnetv11:stage1:", 
        "__shape__": "(16,)", 
        "__storage_type__": "0", 
        "__wd_mult__": "1.0"
      }, 
      "inputs": []
    }, 
    {
      "op": "null", 
      "name": "cifarresnetv11_stage1_batchnorm16_running_mean", 
      "attrs": {
        "__dtype__": "0", 
        "__init__": "zeros", 
        "__lr_mult__": "1.0", 
        "__profiler_scope__": "cifarresnetv11:stage1:", 
        "__shape__": "(16,)", 
        "__storage_type__": "0", 
        "__wd_mult__": "1.0"
      }, 
      "inputs": []
    }, 
    {
      "op": "null", 
      "name": "cifarresnetv11_stage1_batchnorm16_running_var", 
      "attrs": {
        "__dtype__": "0", 
        "__init__": "ones", 
        "__lr_mult__": "1.0", 
        "__profiler_scope__": "cifarresnetv11:stage1:", 
        "__shape__": "(16,)", 
        "__storage_type__": "0", 
        "__wd_mult__": "1.0"
      }, 
      "inputs": []
    }, 
    {
      "op": "BatchNorm", 
      "name": "cifarresnetv11_stage1_batchnorm16_fwd", 
      "attrs": {
        "__profiler_scope__": "cifarresnetv11:stage1:batchnorm16:", 
        "axis": "1", 
        "eps": "1e-05", 
        "fix_gamma": "False", 
        "momentum": "0.9", 
        "use_global_stats": "False"
      }, 
      "inputs": [[145, 0, 0], [146, 0, 0], [147, 0, 0], [148, 0, 1], [149, 0, 1]]
    }, 
    {
      "op": "Activation", 
      "name": "cifarresnetv11_stage1_relu8_fwd", 
      "attrs": {
        "__profiler_scope__": "cifarresnetv11:stage1:relu8:", 
        "act_type": "relu"
      }, 
      "inputs": [[150, 0, 0]]
    }, 
    {
      "op": "null", 
      "name": "cifarresnetv11_stage1_conv17_weight", 
      "attrs": {
        "__dtype__": "0", 
        "__lr_mult__": "1.0", 
        "__profiler_scope__": "cifarresnetv11:stage1:", 
        "__shape__": "(16, 16, 3, 3)", 
        "__storage_type__": "0", 
        "__wd_mult__": "1.0"
      }, 
      "inputs": []
    }, 
    {
      "op": "Convolution", 
      "name": "cifarresnetv11_stage1_conv17_fwd", 
      "attrs": {
        "__profiler_scope__": "cifarresnetv11:stage1:conv17:", 
        "dilate": "(1, 1)", 
        "kernel": "(3, 3)", 
        "layout": "NCHW", 
        "no_bias": "True", 
        "num_filter": "16", 
        "num_group": "1", 
        "pad": "(1, 1)", 
        "stride": "(1, 1)"
      }, 
      "inputs": [[151, 0, 0], [152, 0, 0]]
    }, 
    {
      "op": "null", 
      "name": "cifarresnetv11_stage1_batchnorm17_gamma", 
      "attrs": {
        "__dtype__": "0", 
        "__init__": "ones", 
        "__lr_mult__": "1.0", 
        "__profiler_scope__": "cifarresnetv11:stage1:", 
        "__shape__": "(16,)", 
        "__storage_type__": "0", 
        "__wd_mult__": "1.0"
      }, 
      "inputs": []
    }, 
    {
      "op": "null", 
      "name": "cifarresnetv11_stage1_batchnorm17_beta", 
      "attrs": {
        "__dtype__": "0", 
        "__init__": "zeros", 
        "__lr_mult__": "1.0", 
        "__profiler_scope__": "cifarresnetv11:stage1:", 
        "__shape__": "(16,)", 
        "__storage_type__": "0", 
        "__wd_mult__": "1.0"
      }, 
      "inputs": []
    }, 
    {
      "op": "null", 
      "name": "cifarresnetv11_stage1_batchnorm17_running_mean", 
      "attrs": {
        "__dtype__": "0", 
        "__init__": "zeros", 
        "__lr_mult__": "1.0", 
        "__profiler_scope__": "cifarresnetv11:stage1:", 
        "__shape__": "(16,)", 
        "__storage_type__": "0", 
        "__wd_mult__": "1.0"
      }, 
      "inputs": []
    }, 
    {
      "op": "null", 
      "name": "cifarresnetv11_stage1_batchnorm17_running_var", 
      "attrs": {
        "__dtype__": "0", 
        "__init__": "ones", 
        "__lr_mult__": "1.0", 
        "__profiler_scope__": "cifarresnetv11:stage1:", 
        "__shape__": "(16,)", 
        "__storage_type__": "0", 
        "__wd_mult__": "1.0"
      }, 
      "inputs": []
    }, 
    {
      "op": "BatchNorm", 
      "name": "cifarresnetv11_stage1_batchnorm17_fwd", 
      "attrs": {
        "__profiler_scope__": "cifarresnetv11:stage1:batchnorm17:", 
        "axis": "1", 
        "eps": "1e-05", 
        "fix_gamma": "False", 
        "momentum": "0.9", 
        "use_global_stats": "False"
      }, 
      "inputs": [[153, 0, 0], [154, 0, 0], [155, 0, 0], [156, 0, 1], [157, 0, 1]]
    }, 
    {
      "op": "elemwise_add", 
      "name": "cifarresnetv11_stage1__plus8", 
      "attrs": {"__profiler_scope__": "cifarresnetv11:stage1:"}, 
      "inputs": [[143, 0, 0], [158, 0, 0]]
    }, 
    {
      "op": "Activation", 
      "name": "cifarresnetv11_stage1_activation8", 
      "attrs": {
        "__profiler_scope__": "cifarresnetv11:stage1:", 
        "act_type": "relu"
      }, 
      "inputs": [[159, 0, 0]]
    }, 
    {
      "op": "null", 
      "name": "cifarresnetv11_stage2_conv2_weight", 
      "attrs": {
        "__dtype__": "0", 
        "__lr_mult__": "1.0", 
        "__profiler_scope__": "cifarresnetv11:stage2:", 
        "__shape__": "(32, 16, 1, 1)", 
        "__storage_type__": "0", 
        "__wd_mult__": "1.0"
      }, 
      "inputs": []
    }, 
    {
      "op": "Convolution", 
      "name": "cifarresnetv11_stage2_conv2_fwd", 
      "attrs": {
        "__profiler_scope__": "cifarresnetv11:stage2:conv2:", 
        "dilate": "(1, 1)", 
        "kernel": "(1, 1)", 
        "layout": "NCHW", 
        "no_bias": "True", 
        "num_filter": "32", 
        "num_group": "1", 
        "pad": "(0, 0)", 
        "stride": "(2, 2)"
      }, 
      "inputs": [[160, 0, 0], [161, 0, 0]]
    }, 
    {
      "op": "null", 
      "name": "cifarresnetv11_stage2_batchnorm2_gamma", 
      "attrs": {
        "__dtype__": "0", 
        "__init__": "ones", 
        "__lr_mult__": "1.0", 
        "__profiler_scope__": "cifarresnetv11:stage2:", 
        "__shape__": "(32,)", 
        "__storage_type__": "0", 
        "__wd_mult__": "1.0"
      }, 
      "inputs": []
    }, 
    {
      "op": "null", 
      "name": "cifarresnetv11_stage2_batchnorm2_beta", 
      "attrs": {
        "__dtype__": "0", 
        "__init__": "zeros", 
        "__lr_mult__": "1.0", 
        "__profiler_scope__": "cifarresnetv11:stage2:", 
        "__shape__": "(32,)", 
        "__storage_type__": "0", 
        "__wd_mult__": "1.0"
      }, 
      "inputs": []
    }, 
    {
      "op": "null", 
      "name": "cifarresnetv11_stage2_batchnorm2_running_mean", 
      "attrs": {
        "__dtype__": "0", 
        "__init__": "zeros", 
        "__lr_mult__": "1.0", 
        "__profiler_scope__": "cifarresnetv11:stage2:", 
        "__shape__": "(32,)", 
        "__storage_type__": "0", 
        "__wd_mult__": "1.0"
      }, 
      "inputs": []
    }, 
    {
      "op": "null", 
      "name": "cifarresnetv11_stage2_batchnorm2_running_var", 
      "attrs": {
        "__dtype__": "0", 
        "__init__": "ones", 
        "__lr_mult__": "1.0", 
        "__profiler_scope__": "cifarresnetv11:stage2:", 
        "__shape__": "(32,)", 
        "__storage_type__": "0", 
        "__wd_mult__": "1.0"
      }, 
      "inputs": []
    }, 
    {
      "op": "BatchNorm", 
      "name": "cifarresnetv11_stage2_batchnorm2_fwd", 
      "attrs": {
        "__profiler_scope__": "cifarresnetv11:stage2:batchnorm2:", 
        "axis": "1", 
        "eps": "1e-05", 
        "fix_gamma": "False", 
        "momentum": "0.9", 
        "use_global_stats": "False"
      }, 
      "inputs": [[162, 0, 0], [163, 0, 0], [164, 0, 0], [165, 0, 1], [166, 0, 1]]
    }, 
    {
      "op": "null", 
      "name": "cifarresnetv11_stage2_conv0_weight", 
      "attrs": {
        "__dtype__": "0", 
        "__lr_mult__": "1.0", 
        "__profiler_scope__": "cifarresnetv11:stage2:", 
        "__shape__": "(32, 16, 3, 3)", 
        "__storage_type__": "0", 
        "__wd_mult__": "1.0"
      }, 
      "inputs": []
    }, 
    {
      "op": "Convolution", 
      "name": "cifarresnetv11_stage2_conv0_fwd", 
      "attrs": {
        "__profiler_scope__": "cifarresnetv11:stage2:conv0:", 
        "dilate": "(1, 1)", 
        "kernel": "(3, 3)", 
        "layout": "NCHW", 
        "no_bias": "True", 
        "num_filter": "32", 
        "num_group": "1", 
        "pad": "(1, 1)", 
        "stride": "(2, 2)"
      }, 
      "inputs": [[160, 0, 0], [168, 0, 0]]
    }, 
    {
      "op": "null", 
      "name": "cifarresnetv11_stage2_batchnorm0_gamma", 
      "attrs": {
        "__dtype__": "0", 
        "__init__": "ones", 
        "__lr_mult__": "1.0", 
        "__profiler_scope__": "cifarresnetv11:stage2:", 
        "__shape__": "(32,)", 
        "__storage_type__": "0", 
        "__wd_mult__": "1.0"
      }, 
      "inputs": []
    }, 
    {
      "op": "null", 
      "name": "cifarresnetv11_stage2_batchnorm0_beta", 
      "attrs": {
        "__dtype__": "0", 
        "__init__": "zeros", 
        "__lr_mult__": "1.0", 
        "__profiler_scope__": "cifarresnetv11:stage2:", 
        "__shape__": "(32,)", 
        "__storage_type__": "0", 
        "__wd_mult__": "1.0"
      }, 
      "inputs": []
    }, 
    {
      "op": "null", 
      "name": "cifarresnetv11_stage2_batchnorm0_running_mean", 
      "attrs": {
        "__dtype__": "0", 
        "__init__": "zeros", 
        "__lr_mult__": "1.0", 
        "__profiler_scope__": "cifarresnetv11:stage2:", 
        "__shape__": "(32,)", 
        "__storage_type__": "0", 
        "__wd_mult__": "1.0"
      }, 
      "inputs": []
    }, 
    {
      "op": "null", 
      "name": "cifarresnetv11_stage2_batchnorm0_running_var", 
      "attrs": {
        "__dtype__": "0", 
        "__init__": "ones", 
        "__lr_mult__": "1.0", 
        "__profiler_scope__": "cifarresnetv11:stage2:", 
        "__shape__": "(32,)", 
        "__storage_type__": "0", 
        "__wd_mult__": "1.0"
      }, 
      "inputs": []
    }, 
    {
      "op": "BatchNorm", 
      "name": "cifarresnetv11_stage2_batchnorm0_fwd", 
      "attrs": {
        "__profiler_scope__": "cifarresnetv11:stage2:batchnorm0:", 
        "axis": "1", 
        "eps": "1e-05", 
        "fix_gamma": "False", 
        "momentum": "0.9", 
        "use_global_stats": "False"
      }, 
      "inputs": [[169, 0, 0], [170, 0, 0], [171, 0, 0], [172, 0, 1], [173, 0, 1]]
    }, 
    {
      "op": "Activation", 
      "name": "cifarresnetv11_stage2_relu0_fwd", 
      "attrs": {
        "__profiler_scope__": "cifarresnetv11:stage2:relu0:", 
        "act_type": "relu"
      }, 
      "inputs": [[174, 0, 0]]
    }, 
    {
      "op": "null", 
      "name": "cifarresnetv11_stage2_conv1_weight", 
      "attrs": {
        "__dtype__": "0", 
        "__lr_mult__": "1.0", 
        "__profiler_scope__": "cifarresnetv11:stage2:", 
        "__shape__": "(32, 32, 3, 3)", 
        "__storage_type__": "0", 
        "__wd_mult__": "1.0"
      }, 
      "inputs": []
    }, 
    {
      "op": "Convolution", 
      "name": "cifarresnetv11_stage2_conv1_fwd", 
      "attrs": {
        "__profiler_scope__": "cifarresnetv11:stage2:conv1:", 
        "dilate": "(1, 1)", 
        "kernel": "(3, 3)", 
        "layout": "NCHW", 
        "no_bias": "True", 
        "num_filter": "32", 
        "num_group": "1", 
        "pad": "(1, 1)", 
        "stride": "(1, 1)"
      }, 
      "inputs": [[175, 0, 0], [176, 0, 0]]
    }, 
    {
      "op": "null", 
      "name": "cifarresnetv11_stage2_batchnorm1_gamma", 
      "attrs": {
        "__dtype__": "0", 
        "__init__": "ones", 
        "__lr_mult__": "1.0", 
        "__profiler_scope__": "cifarresnetv11:stage2:", 
        "__shape__": "(32,)", 
        "__storage_type__": "0", 
        "__wd_mult__": "1.0"
      }, 
      "inputs": []
    }, 
    {
      "op": "null", 
      "name": "cifarresnetv11_stage2_batchnorm1_beta", 
      "attrs": {
        "__dtype__": "0", 
        "__init__": "zeros", 
        "__lr_mult__": "1.0", 
        "__profiler_scope__": "cifarresnetv11:stage2:", 
        "__shape__": "(32,)", 
        "__storage_type__": "0", 
        "__wd_mult__": "1.0"
      }, 
      "inputs": []
    }, 
    {
      "op": "null", 
      "name": "cifarresnetv11_stage2_batchnorm1_running_mean", 
      "attrs": {
        "__dtype__": "0", 
        "__init__": "zeros", 
        "__lr_mult__": "1.0", 
        "__profiler_scope__": "cifarresnetv11:stage2:", 
        "__shape__": "(32,)", 
        "__storage_type__": "0", 
        "__wd_mult__": "1.0"
      }, 
      "inputs": []
    }, 
    {
      "op": "null", 
      "name": "cifarresnetv11_stage2_batchnorm1_running_var", 
      "attrs": {
        "__dtype__": "0", 
        "__init__": "ones", 
        "__lr_mult__": "1.0", 
        "__profiler_scope__": "cifarresnetv11:stage2:", 
        "__shape__": "(32,)", 
        "__storage_type__": "0", 
        "__wd_mult__": "1.0"
      }, 
      "inputs": []
    }, 
    {
      "op": "BatchNorm", 
      "name": "cifarresnetv11_stage2_batchnorm1_fwd", 
      "attrs": {
        "__profiler_scope__": "cifarresnetv11:stage2:batchnorm1:", 
        "axis": "1", 
        "eps": "1e-05", 
        "fix_gamma": "False", 
        "momentum": "0.9", 
        "use_global_stats": "False"
      }, 
      "inputs": [[177, 0, 0], [178, 0, 0], [179, 0, 0], [180, 0, 1], [181, 0, 1]]
    }, 
    {
      "op": "elemwise_add", 
      "name": "cifarresnetv11_stage2__plus0", 
      "attrs": {"__profiler_scope__": "cifarresnetv11:stage2:"}, 
      "inputs": [[167, 0, 0], [182, 0, 0]]
    }, 
    {
      "op": "Activation", 
      "name": "cifarresnetv11_stage2_activation0", 
      "attrs": {
        "__profiler_scope__": "cifarresnetv11:stage2:", 
        "act_type": "relu"
      }, 
      "inputs": [[183, 0, 0]]
    }, 
    {
      "op": "null", 
      "name": "cifarresnetv11_stage2_conv3_weight", 
      "attrs": {
        "__dtype__": "0", 
        "__lr_mult__": "1.0", 
        "__profiler_scope__": "cifarresnetv11:stage2:", 
        "__shape__": "(32, 32, 3, 3)", 
        "__storage_type__": "0", 
        "__wd_mult__": "1.0"
      }, 
      "inputs": []
    }, 
    {
      "op": "Convolution", 
      "name": "cifarresnetv11_stage2_conv3_fwd", 
      "attrs": {
        "__profiler_scope__": "cifarresnetv11:stage2:conv3:", 
        "dilate": "(1, 1)", 
        "kernel": "(3, 3)", 
        "layout": "NCHW", 
        "no_bias": "True", 
        "num_filter": "32", 
        "num_group": "1", 
        "pad": "(1, 1)", 
        "stride": "(1, 1)"
      }, 
      "inputs": [[184, 0, 0], [185, 0, 0]]
    }, 
    {
      "op": "null", 
      "name": "cifarresnetv11_stage2_batchnorm3_gamma", 
      "attrs": {
        "__dtype__": "0", 
        "__init__": "ones", 
        "__lr_mult__": "1.0", 
        "__profiler_scope__": "cifarresnetv11:stage2:", 
        "__shape__": "(32,)", 
        "__storage_type__": "0", 
        "__wd_mult__": "1.0"
      }, 
      "inputs": []
    }, 
    {
      "op": "null", 
      "name": "cifarresnetv11_stage2_batchnorm3_beta", 
      "attrs": {
        "__dtype__": "0", 
        "__init__": "zeros", 
        "__lr_mult__": "1.0", 
        "__profiler_scope__": "cifarresnetv11:stage2:", 
        "__shape__": "(32,)", 
        "__storage_type__": "0", 
        "__wd_mult__": "1.0"
      }, 
      "inputs": []
    }, 
    {
      "op": "null", 
      "name": "cifarresnetv11_stage2_batchnorm3_running_mean", 
      "attrs": {
        "__dtype__": "0", 
        "__init__": "zeros", 
        "__lr_mult__": "1.0", 
        "__profiler_scope__": "cifarresnetv11:stage2:", 
        "__shape__": "(32,)", 
        "__storage_type__": "0", 
        "__wd_mult__": "1.0"
      }, 
      "inputs": []
    }, 
    {
      "op": "null", 
      "name": "cifarresnetv11_stage2_batchnorm3_running_var", 
      "attrs": {
        "__dtype__": "0", 
        "__init__": "ones", 
        "__lr_mult__": "1.0", 
        "__profiler_scope__": "cifarresnetv11:stage2:", 
        "__shape__": "(32,)", 
        "__storage_type__": "0", 
        "__wd_mult__": "1.0"
      }, 
      "inputs": []
    }, 
    {
      "op": "BatchNorm", 
      "name": "cifarresnetv11_stage2_batchnorm3_fwd", 
      "attrs": {
        "__profiler_scope__": "cifarresnetv11:stage2:batchnorm3:", 
        "axis": "1", 
        "eps": "1e-05", 
        "fix_gamma": "False", 
        "momentum": "0.9", 
        "use_global_stats": "False"
      }, 
      "inputs": [[186, 0, 0], [187, 0, 0], [188, 0, 0], [189, 0, 1], [190, 0, 1]]
    }, 
    {
      "op": "Activation", 
      "name": "cifarresnetv11_stage2_relu1_fwd", 
      "attrs": {
        "__profiler_scope__": "cifarresnetv11:stage2:relu1:", 
        "act_type": "relu"
      }, 
      "inputs": [[191, 0, 0]]
    }, 
    {
      "op": "null", 
      "name": "cifarresnetv11_stage2_conv4_weight", 
      "attrs": {
        "__dtype__": "0", 
        "__lr_mult__": "1.0", 
        "__profiler_scope__": "cifarresnetv11:stage2:", 
        "__shape__": "(32, 32, 3, 3)", 
        "__storage_type__": "0", 
        "__wd_mult__": "1.0"
      }, 
      "inputs": []
    }, 
    {
      "op": "Convolution", 
      "name": "cifarresnetv11_stage2_conv4_fwd", 
      "attrs": {
        "__profiler_scope__": "cifarresnetv11:stage2:conv4:", 
        "dilate": "(1, 1)", 
        "kernel": "(3, 3)", 
        "layout": "NCHW", 
        "no_bias": "True", 
        "num_filter": "32", 
        "num_group": "1", 
        "pad": "(1, 1)", 
        "stride": "(1, 1)"
      }, 
      "inputs": [[192, 0, 0], [193, 0, 0]]
    }, 
    {
      "op": "null", 
      "name": "cifarresnetv11_stage2_batchnorm4_gamma", 
      "attrs": {
        "__dtype__": "0", 
        "__init__": "ones", 
        "__lr_mult__": "1.0", 
        "__profiler_scope__": "cifarresnetv11:stage2:", 
        "__shape__": "(32,)", 
        "__storage_type__": "0", 
        "__wd_mult__": "1.0"
      }, 
      "inputs": []
    }, 
    {
      "op": "null", 
      "name": "cifarresnetv11_stage2_batchnorm4_beta", 
      "attrs": {
        "__dtype__": "0", 
        "__init__": "zeros", 
        "__lr_mult__": "1.0", 
        "__profiler_scope__": "cifarresnetv11:stage2:", 
        "__shape__": "(32,)", 
        "__storage_type__": "0", 
        "__wd_mult__": "1.0"
      }, 
      "inputs": []
    }, 
    {
      "op": "null", 
      "name": "cifarresnetv11_stage2_batchnorm4_running_mean", 
      "attrs": {
        "__dtype__": "0", 
        "__init__": "zeros", 
        "__lr_mult__": "1.0", 
        "__profiler_scope__": "cifarresnetv11:stage2:", 
        "__shape__": "(32,)", 
        "__storage_type__": "0", 
        "__wd_mult__": "1.0"
      }, 
      "inputs": []
    }, 
    {
      "op": "null", 
      "name": "cifarresnetv11_stage2_batchnorm4_running_var", 
      "attrs": {
        "__dtype__": "0", 
        "__init__": "ones", 
        "__lr_mult__": "1.0", 
        "__profiler_scope__": "cifarresnetv11:stage2:", 
        "__shape__": "(32,)", 
        "__storage_type__": "0", 
        "__wd_mult__": "1.0"
      }, 
      "inputs": []
    }, 
    {
      "op": "BatchNorm", 
      "name": "cifarresnetv11_stage2_batchnorm4_fwd", 
      "attrs": {
        "__profiler_scope__": "cifarresnetv11:stage2:batchnorm4:", 
        "axis": "1", 
        "eps": "1e-05", 
        "fix_gamma": "False", 
        "momentum": "0.9", 
        "use_global_stats": "False"
      }, 
      "inputs": [[194, 0, 0], [195, 0, 0], [196, 0, 0], [197, 0, 1], [198, 0, 1]]
    }, 
    {
      "op": "elemwise_add", 
      "name": "cifarresnetv11_stage2__plus1", 
      "attrs": {"__profiler_scope__": "cifarresnetv11:stage2:"}, 
      "inputs": [[184, 0, 0], [199, 0, 0]]
    }, 
    {
      "op": "Activation", 
      "name": "cifarresnetv11_stage2_activation1", 
      "attrs": {
        "__profiler_scope__": "cifarresnetv11:stage2:", 
        "act_type": "relu"
      }, 
      "inputs": [[200, 0, 0]]
    }, 
    {
      "op": "null", 
      "name": "cifarresnetv11_stage2_conv5_weight", 
      "attrs": {
        "__dtype__": "0", 
        "__lr_mult__": "1.0", 
        "__profiler_scope__": "cifarresnetv11:stage2:", 
        "__shape__": "(32, 32, 3, 3)", 
        "__storage_type__": "0", 
        "__wd_mult__": "1.0"
      }, 
      "inputs": []
    }, 
    {
      "op": "Convolution", 
      "name": "cifarresnetv11_stage2_conv5_fwd", 
      "attrs": {
        "__profiler_scope__": "cifarresnetv11:stage2:conv5:", 
        "dilate": "(1, 1)", 
        "kernel": "(3, 3)", 
        "layout": "NCHW", 
        "no_bias": "True", 
        "num_filter": "32", 
        "num_group": "1", 
        "pad": "(1, 1)", 
        "stride": "(1, 1)"
      }, 
      "inputs": [[201, 0, 0], [202, 0, 0]]
    }, 
    {
      "op": "null", 
      "name": "cifarresnetv11_stage2_batchnorm5_gamma", 
      "attrs": {
        "__dtype__": "0", 
        "__init__": "ones", 
        "__lr_mult__": "1.0", 
        "__profiler_scope__": "cifarresnetv11:stage2:", 
        "__shape__": "(32,)", 
        "__storage_type__": "0", 
        "__wd_mult__": "1.0"
      }, 
      "inputs": []
    }, 
    {
      "op": "null", 
      "name": "cifarresnetv11_stage2_batchnorm5_beta", 
      "attrs": {
        "__dtype__": "0", 
        "__init__": "zeros", 
        "__lr_mult__": "1.0", 
        "__profiler_scope__": "cifarresnetv11:stage2:", 
        "__shape__": "(32,)", 
        "__storage_type__": "0", 
        "__wd_mult__": "1.0"
      }, 
      "inputs": []
    }, 
    {
      "op": "null", 
      "name": "cifarresnetv11_stage2_batchnorm5_running_mean", 
      "attrs": {
        "__dtype__": "0", 
        "__init__": "zeros", 
        "__lr_mult__": "1.0", 
        "__profiler_scope__": "cifarresnetv11:stage2:", 
        "__shape__": "(32,)", 
        "__storage_type__": "0", 
        "__wd_mult__": "1.0"
      }, 
      "inputs": []
    }, 
    {
      "op": "null", 
      "name": "cifarresnetv11_stage2_batchnorm5_running_var", 
      "attrs": {
        "__dtype__": "0", 
        "__init__": "ones", 
        "__lr_mult__": "1.0", 
        "__profiler_scope__": "cifarresnetv11:stage2:", 
        "__shape__": "(32,)", 
        "__storage_type__": "0", 
        "__wd_mult__": "1.0"
      }, 
      "inputs": []
    }, 
    {
      "op": "BatchNorm", 
      "name": "cifarresnetv11_stage2_batchnorm5_fwd", 
      "attrs": {
        "__profiler_scope__": "cifarresnetv11:stage2:batchnorm5:", 
        "axis": "1", 
        "eps": "1e-05", 
        "fix_gamma": "False", 
        "momentum": "0.9", 
        "use_global_stats": "False"
      }, 
      "inputs": [[203, 0, 0], [204, 0, 0], [205, 0, 0], [206, 0, 1], [207, 0, 1]]
    }, 
    {
      "op": "Activation", 
      "name": "cifarresnetv11_stage2_relu2_fwd", 
      "attrs": {
        "__profiler_scope__": "cifarresnetv11:stage2:relu2:", 
        "act_type": "relu"
      }, 
      "inputs": [[208, 0, 0]]
    }, 
    {
      "op": "null", 
      "name": "cifarresnetv11_stage2_conv6_weight", 
      "attrs": {
        "__dtype__": "0", 
        "__lr_mult__": "1.0", 
        "__profiler_scope__": "cifarresnetv11:stage2:", 
        "__shape__": "(32, 32, 3, 3)", 
        "__storage_type__": "0", 
        "__wd_mult__": "1.0"
      }, 
      "inputs": []
    }, 
    {
      "op": "Convolution", 
      "name": "cifarresnetv11_stage2_conv6_fwd", 
      "attrs": {
        "__profiler_scope__": "cifarresnetv11:stage2:conv6:", 
        "dilate": "(1, 1)", 
        "kernel": "(3, 3)", 
        "layout": "NCHW", 
        "no_bias": "True", 
        "num_filter": "32", 
        "num_group": "1", 
        "pad": "(1, 1)", 
        "stride": "(1, 1)"
      }, 
      "inputs": [[209, 0, 0], [210, 0, 0]]
    }, 
    {
      "op": "null", 
      "name": "cifarresnetv11_stage2_batchnorm6_gamma", 
      "attrs": {
        "__dtype__": "0", 
        "__init__": "ones", 
        "__lr_mult__": "1.0", 
        "__profiler_scope__": "cifarresnetv11:stage2:", 
        "__shape__": "(32,)", 
        "__storage_type__": "0", 
        "__wd_mult__": "1.0"
      }, 
      "inputs": []
    }, 
    {
      "op": "null", 
      "name": "cifarresnetv11_stage2_batchnorm6_beta", 
      "attrs": {
        "__dtype__": "0", 
        "__init__": "zeros", 
        "__lr_mult__": "1.0", 
        "__profiler_scope__": "cifarresnetv11:stage2:", 
        "__shape__": "(32,)", 
        "__storage_type__": "0", 
        "__wd_mult__": "1.0"
      }, 
      "inputs": []
    }, 
    {
      "op": "null", 
      "name": "cifarresnetv11_stage2_batchnorm6_running_mean", 
      "attrs": {
        "__dtype__": "0", 
        "__init__": "zeros", 
        "__lr_mult__": "1.0", 
        "__profiler_scope__": "cifarresnetv11:stage2:", 
        "__shape__": "(32,)", 
        "__storage_type__": "0", 
        "__wd_mult__": "1.0"
      }, 
      "inputs": []
    }, 
    {
      "op": "null", 
      "name": "cifarresnetv11_stage2_batchnorm6_running_var", 
      "attrs": {
        "__dtype__": "0", 
        "__init__": "ones", 
        "__lr_mult__": "1.0", 
        "__profiler_scope__": "cifarresnetv11:stage2:", 
        "__shape__": "(32,)", 
        "__storage_type__": "0", 
        "__wd_mult__": "1.0"
      }, 
      "inputs": []
    }, 
    {
      "op": "BatchNorm", 
      "name": "cifarresnetv11_stage2_batchnorm6_fwd", 
      "attrs": {
        "__profiler_scope__": "cifarresnetv11:stage2:batchnorm6:", 
        "axis": "1", 
        "eps": "1e-05", 
        "fix_gamma": "False", 
        "momentum": "0.9", 
        "use_global_stats": "False"
      }, 
      "inputs": [[211, 0, 0], [212, 0, 0], [213, 0, 0], [214, 0, 1], [215, 0, 1]]
    }, 
    {
      "op": "elemwise_add", 
      "name": "cifarresnetv11_stage2__plus2", 
      "attrs": {"__profiler_scope__": "cifarresnetv11:stage2:"}, 
      "inputs": [[201, 0, 0], [216, 0, 0]]
    }, 
    {
      "op": "Activation", 
      "name": "cifarresnetv11_stage2_activation2", 
      "attrs": {
        "__profiler_scope__": "cifarresnetv11:stage2:", 
        "act_type": "relu"
      }, 
      "inputs": [[217, 0, 0]]
    }, 
    {
      "op": "null", 
      "name": "cifarresnetv11_stage2_conv7_weight", 
      "attrs": {
        "__dtype__": "0", 
        "__lr_mult__": "1.0", 
        "__profiler_scope__": "cifarresnetv11:stage2:", 
        "__shape__": "(32, 32, 3, 3)", 
        "__storage_type__": "0", 
        "__wd_mult__": "1.0"
      }, 
      "inputs": []
    }, 
    {
      "op": "Convolution", 
      "name": "cifarresnetv11_stage2_conv7_fwd", 
      "attrs": {
        "__profiler_scope__": "cifarresnetv11:stage2:conv7:", 
        "dilate": "(1, 1)", 
        "kernel": "(3, 3)", 
        "layout": "NCHW", 
        "no_bias": "True", 
        "num_filter": "32", 
        "num_group": "1", 
        "pad": "(1, 1)", 
        "stride": "(1, 1)"
      }, 
      "inputs": [[218, 0, 0], [219, 0, 0]]
    }, 
    {
      "op": "null", 
      "name": "cifarresnetv11_stage2_batchnorm7_gamma", 
      "attrs": {
        "__dtype__": "0", 
        "__init__": "ones", 
        "__lr_mult__": "1.0", 
        "__profiler_scope__": "cifarresnetv11:stage2:", 
        "__shape__": "(32,)", 
        "__storage_type__": "0", 
        "__wd_mult__": "1.0"
      }, 
      "inputs": []
    }, 
    {
      "op": "null", 
      "name": "cifarresnetv11_stage2_batchnorm7_beta", 
      "attrs": {
        "__dtype__": "0", 
        "__init__": "zeros", 
        "__lr_mult__": "1.0", 
        "__profiler_scope__": "cifarresnetv11:stage2:", 
        "__shape__": "(32,)", 
        "__storage_type__": "0", 
        "__wd_mult__": "1.0"
      }, 
      "inputs": []
    }, 
    {
      "op": "null", 
      "name": "cifarresnetv11_stage2_batchnorm7_running_mean", 
      "attrs": {
        "__dtype__": "0", 
        "__init__": "zeros", 
        "__lr_mult__": "1.0", 
        "__profiler_scope__": "cifarresnetv11:stage2:", 
        "__shape__": "(32,)", 
        "__storage_type__": "0", 
        "__wd_mult__": "1.0"
      }, 
      "inputs": []
    }, 
    {
      "op": "null", 
      "name": "cifarresnetv11_stage2_batchnorm7_running_var", 
      "attrs": {
        "__dtype__": "0", 
        "__init__": "ones", 
        "__lr_mult__": "1.0", 
        "__profiler_scope__": "cifarresnetv11:stage2:", 
        "__shape__": "(32,)", 
        "__storage_type__": "0", 
        "__wd_mult__": "1.0"
      }, 
      "inputs": []
    }, 
    {
      "op": "BatchNorm", 
      "name": "cifarresnetv11_stage2_batchnorm7_fwd", 
      "attrs": {
        "__profiler_scope__": "cifarresnetv11:stage2:batchnorm7:", 
        "axis": "1", 
        "eps": "1e-05", 
        "fix_gamma": "False", 
        "momentum": "0.9", 
        "use_global_stats": "False"
      }, 
      "inputs": [[220, 0, 0], [221, 0, 0], [222, 0, 0], [223, 0, 1], [224, 0, 1]]
    }, 
    {
      "op": "Activation", 
      "name": "cifarresnetv11_stage2_relu3_fwd", 
      "attrs": {
        "__profiler_scope__": "cifarresnetv11:stage2:relu3:", 
        "act_type": "relu"
      }, 
      "inputs": [[225, 0, 0]]
    }, 
    {
      "op": "null", 
      "name": "cifarresnetv11_stage2_conv8_weight", 
      "attrs": {
        "__dtype__": "0", 
        "__lr_mult__": "1.0", 
        "__profiler_scope__": "cifarresnetv11:stage2:", 
        "__shape__": "(32, 32, 3, 3)", 
        "__storage_type__": "0", 
        "__wd_mult__": "1.0"
      }, 
      "inputs": []
    }, 
    {
      "op": "Convolution", 
      "name": "cifarresnetv11_stage2_conv8_fwd", 
      "attrs": {
        "__profiler_scope__": "cifarresnetv11:stage2:conv8:", 
        "dilate": "(1, 1)", 
        "kernel": "(3, 3)", 
        "layout": "NCHW", 
        "no_bias": "True", 
        "num_filter": "32", 
        "num_group": "1", 
        "pad": "(1, 1)", 
        "stride": "(1, 1)"
      }, 
      "inputs": [[226, 0, 0], [227, 0, 0]]
    }, 
    {
      "op": "null", 
      "name": "cifarresnetv11_stage2_batchnorm8_gamma", 
      "attrs": {
        "__dtype__": "0", 
        "__init__": "ones", 
        "__lr_mult__": "1.0", 
        "__profiler_scope__": "cifarresnetv11:stage2:", 
        "__shape__": "(32,)", 
        "__storage_type__": "0", 
        "__wd_mult__": "1.0"
      }, 
      "inputs": []
    }, 
    {
      "op": "null", 
      "name": "cifarresnetv11_stage2_batchnorm8_beta", 
      "attrs": {
        "__dtype__": "0", 
        "__init__": "zeros", 
        "__lr_mult__": "1.0", 
        "__profiler_scope__": "cifarresnetv11:stage2:", 
        "__shape__": "(32,)", 
        "__storage_type__": "0", 
        "__wd_mult__": "1.0"
      }, 
      "inputs": []
    }, 
    {
      "op": "null", 
      "name": "cifarresnetv11_stage2_batchnorm8_running_mean", 
      "attrs": {
        "__dtype__": "0", 
        "__init__": "zeros", 
        "__lr_mult__": "1.0", 
        "__profiler_scope__": "cifarresnetv11:stage2:", 
        "__shape__": "(32,)", 
        "__storage_type__": "0", 
        "__wd_mult__": "1.0"
      }, 
      "inputs": []
    }, 
    {
      "op": "null", 
      "name": "cifarresnetv11_stage2_batchnorm8_running_var", 
      "attrs": {
        "__dtype__": "0", 
        "__init__": "ones", 
        "__lr_mult__": "1.0", 
        "__profiler_scope__": "cifarresnetv11:stage2:", 
        "__shape__": "(32,)", 
        "__storage_type__": "0", 
        "__wd_mult__": "1.0"
      }, 
      "inputs": []
    }, 
    {
      "op": "BatchNorm", 
      "name": "cifarresnetv11_stage2_batchnorm8_fwd", 
      "attrs": {
        "__profiler_scope__": "cifarresnetv11:stage2:batchnorm8:", 
        "axis": "1", 
        "eps": "1e-05", 
        "fix_gamma": "False", 
        "momentum": "0.9", 
        "use_global_stats": "False"
      }, 
      "inputs": [[228, 0, 0], [229, 0, 0], [230, 0, 0], [231, 0, 1], [232, 0, 1]]
    }, 
    {
      "op": "elemwise_add", 
      "name": "cifarresnetv11_stage2__plus3", 
      "attrs": {"__profiler_scope__": "cifarresnetv11:stage2:"}, 
      "inputs": [[218, 0, 0], [233, 0, 0]]
    }, 
    {
      "op": "Activation", 
      "name": "cifarresnetv11_stage2_activation3", 
      "attrs": {
        "__profiler_scope__": "cifarresnetv11:stage2:", 
        "act_type": "relu"
      }, 
      "inputs": [[234, 0, 0]]
    }, 
    {
      "op": "null", 
      "name": "cifarresnetv11_stage2_conv9_weight", 
      "attrs": {
        "__dtype__": "0", 
        "__lr_mult__": "1.0", 
        "__profiler_scope__": "cifarresnetv11:stage2:", 
        "__shape__": "(32, 32, 3, 3)", 
        "__storage_type__": "0", 
        "__wd_mult__": "1.0"
      }, 
      "inputs": []
    }, 
    {
      "op": "Convolution", 
      "name": "cifarresnetv11_stage2_conv9_fwd", 
      "attrs": {
        "__profiler_scope__": "cifarresnetv11:stage2:conv9:", 
        "dilate": "(1, 1)", 
        "kernel": "(3, 3)", 
        "layout": "NCHW", 
        "no_bias": "True", 
        "num_filter": "32", 
        "num_group": "1", 
        "pad": "(1, 1)", 
        "stride": "(1, 1)"
      }, 
      "inputs": [[235, 0, 0], [236, 0, 0]]
    }, 
    {
      "op": "null", 
      "name": "cifarresnetv11_stage2_batchnorm9_gamma", 
      "attrs": {
        "__dtype__": "0", 
        "__init__": "ones", 
        "__lr_mult__": "1.0", 
        "__profiler_scope__": "cifarresnetv11:stage2:", 
        "__shape__": "(32,)", 
        "__storage_type__": "0", 
        "__wd_mult__": "1.0"
      }, 
      "inputs": []
    }, 
    {
      "op": "null", 
      "name": "cifarresnetv11_stage2_batchnorm9_beta", 
      "attrs": {
        "__dtype__": "0", 
        "__init__": "zeros", 
        "__lr_mult__": "1.0", 
        "__profiler_scope__": "cifarresnetv11:stage2:", 
        "__shape__": "(32,)", 
        "__storage_type__": "0", 
        "__wd_mult__": "1.0"
      }, 
      "inputs": []
    }, 
    {
      "op": "null", 
      "name": "cifarresnetv11_stage2_batchnorm9_running_mean", 
      "attrs": {
        "__dtype__": "0", 
        "__init__": "zeros", 
        "__lr_mult__": "1.0", 
        "__profiler_scope__": "cifarresnetv11:stage2:", 
        "__shape__": "(32,)", 
        "__storage_type__": "0", 
        "__wd_mult__": "1.0"
      }, 
      "inputs": []
    }, 
    {
      "op": "null", 
      "name": "cifarresnetv11_stage2_batchnorm9_running_var", 
      "attrs": {
        "__dtype__": "0", 
        "__init__": "ones", 
        "__lr_mult__": "1.0", 
        "__profiler_scope__": "cifarresnetv11:stage2:", 
        "__shape__": "(32,)", 
        "__storage_type__": "0", 
        "__wd_mult__": "1.0"
      }, 
      "inputs": []
    }, 
    {
      "op": "BatchNorm", 
      "name": "cifarresnetv11_stage2_batchnorm9_fwd", 
      "attrs": {
        "__profiler_scope__": "cifarresnetv11:stage2:batchnorm9:", 
        "axis": "1", 
        "eps": "1e-05", 
        "fix_gamma": "False", 
        "momentum": "0.9", 
        "use_global_stats": "False"
      }, 
      "inputs": [[237, 0, 0], [238, 0, 0], [239, 0, 0], [240, 0, 1], [241, 0, 1]]
    }, 
    {
      "op": "Activation", 
      "name": "cifarresnetv11_stage2_relu4_fwd", 
      "attrs": {
        "__profiler_scope__": "cifarresnetv11:stage2:relu4:", 
        "act_type": "relu"
      }, 
      "inputs": [[242, 0, 0]]
    }, 
    {
      "op": "null", 
      "name": "cifarresnetv11_stage2_conv10_weight", 
      "attrs": {
        "__dtype__": "0", 
        "__lr_mult__": "1.0", 
        "__profiler_scope__": "cifarresnetv11:stage2:", 
        "__shape__": "(32, 32, 3, 3)", 
        "__storage_type__": "0", 
        "__wd_mult__": "1.0"
      }, 
      "inputs": []
    }, 
    {
      "op": "Convolution", 
      "name": "cifarresnetv11_stage2_conv10_fwd", 
      "attrs": {
        "__profiler_scope__": "cifarresnetv11:stage2:conv10:", 
        "dilate": "(1, 1)", 
        "kernel": "(3, 3)", 
        "layout": "NCHW", 
        "no_bias": "True", 
        "num_filter": "32", 
        "num_group": "1", 
        "pad": "(1, 1)", 
        "stride": "(1, 1)"
      }, 
      "inputs": [[243, 0, 0], [244, 0, 0]]
    }, 
    {
      "op": "null", 
      "name": "cifarresnetv11_stage2_batchnorm10_gamma", 
      "attrs": {
        "__dtype__": "0", 
        "__init__": "ones", 
        "__lr_mult__": "1.0", 
        "__profiler_scope__": "cifarresnetv11:stage2:", 
        "__shape__": "(32,)", 
        "__storage_type__": "0", 
        "__wd_mult__": "1.0"
      }, 
      "inputs": []
    }, 
    {
      "op": "null", 
      "name": "cifarresnetv11_stage2_batchnorm10_beta", 
      "attrs": {
        "__dtype__": "0", 
        "__init__": "zeros", 
        "__lr_mult__": "1.0", 
        "__profiler_scope__": "cifarresnetv11:stage2:", 
        "__shape__": "(32,)", 
        "__storage_type__": "0", 
        "__wd_mult__": "1.0"
      }, 
      "inputs": []
    }, 
    {
      "op": "null", 
      "name": "cifarresnetv11_stage2_batchnorm10_running_mean", 
      "attrs": {
        "__dtype__": "0", 
        "__init__": "zeros", 
        "__lr_mult__": "1.0", 
        "__profiler_scope__": "cifarresnetv11:stage2:", 
        "__shape__": "(32,)", 
        "__storage_type__": "0", 
        "__wd_mult__": "1.0"
      }, 
      "inputs": []
    }, 
    {
      "op": "null", 
      "name": "cifarresnetv11_stage2_batchnorm10_running_var", 
      "attrs": {
        "__dtype__": "0", 
        "__init__": "ones", 
        "__lr_mult__": "1.0", 
        "__profiler_scope__": "cifarresnetv11:stage2:", 
        "__shape__": "(32,)", 
        "__storage_type__": "0", 
        "__wd_mult__": "1.0"
      }, 
      "inputs": []
    }, 
    {
      "op": "BatchNorm", 
      "name": "cifarresnetv11_stage2_batchnorm10_fwd", 
      "attrs": {
        "__profiler_scope__": "cifarresnetv11:stage2:batchnorm10:", 
        "axis": "1", 
        "eps": "1e-05", 
        "fix_gamma": "False", 
        "momentum": "0.9", 
        "use_global_stats": "False"
      }, 
      "inputs": [[245, 0, 0], [246, 0, 0], [247, 0, 0], [248, 0, 1], [249, 0, 1]]
    }, 
    {
      "op": "elemwise_add", 
      "name": "cifarresnetv11_stage2__plus4", 
      "attrs": {"__profiler_scope__": "cifarresnetv11:stage2:"}, 
      "inputs": [[235, 0, 0], [250, 0, 0]]
    }, 
    {
      "op": "Activation", 
      "name": "cifarresnetv11_stage2_activation4", 
      "attrs": {
        "__profiler_scope__": "cifarresnetv11:stage2:", 
        "act_type": "relu"
      }, 
      "inputs": [[251, 0, 0]]
    }, 
    {
      "op": "null", 
      "name": "cifarresnetv11_stage2_conv11_weight", 
      "attrs": {
        "__dtype__": "0", 
        "__lr_mult__": "1.0", 
        "__profiler_scope__": "cifarresnetv11:stage2:", 
        "__shape__": "(32, 32, 3, 3)", 
        "__storage_type__": "0", 
        "__wd_mult__": "1.0"
      }, 
      "inputs": []
    }, 
    {
      "op": "Convolution", 
      "name": "cifarresnetv11_stage2_conv11_fwd", 
      "attrs": {
        "__profiler_scope__": "cifarresnetv11:stage2:conv11:", 
        "dilate": "(1, 1)", 
        "kernel": "(3, 3)", 
        "layout": "NCHW", 
        "no_bias": "True", 
        "num_filter": "32", 
        "num_group": "1", 
        "pad": "(1, 1)", 
        "stride": "(1, 1)"
      }, 
      "inputs": [[252, 0, 0], [253, 0, 0]]
    }, 
    {
      "op": "null", 
      "name": "cifarresnetv11_stage2_batchnorm11_gamma", 
      "attrs": {
        "__dtype__": "0", 
        "__init__": "ones", 
        "__lr_mult__": "1.0", 
        "__profiler_scope__": "cifarresnetv11:stage2:", 
        "__shape__": "(32,)", 
        "__storage_type__": "0", 
        "__wd_mult__": "1.0"
      }, 
      "inputs": []
    }, 
    {
      "op": "null", 
      "name": "cifarresnetv11_stage2_batchnorm11_beta", 
      "attrs": {
        "__dtype__": "0", 
        "__init__": "zeros", 
        "__lr_mult__": "1.0", 
        "__profiler_scope__": "cifarresnetv11:stage2:", 
        "__shape__": "(32,)", 
        "__storage_type__": "0", 
        "__wd_mult__": "1.0"
      }, 
      "inputs": []
    }, 
    {
      "op": "null", 
      "name": "cifarresnetv11_stage2_batchnorm11_running_mean", 
      "attrs": {
        "__dtype__": "0", 
        "__init__": "zeros", 
        "__lr_mult__": "1.0", 
        "__profiler_scope__": "cifarresnetv11:stage2:", 
        "__shape__": "(32,)", 
        "__storage_type__": "0", 
        "__wd_mult__": "1.0"
      }, 
      "inputs": []
    }, 
    {
      "op": "null", 
      "name": "cifarresnetv11_stage2_batchnorm11_running_var", 
      "attrs": {
        "__dtype__": "0", 
        "__init__": "ones", 
        "__lr_mult__": "1.0", 
        "__profiler_scope__": "cifarresnetv11:stage2:", 
        "__shape__": "(32,)", 
        "__storage_type__": "0", 
        "__wd_mult__": "1.0"
      }, 
      "inputs": []
    }, 
    {
      "op": "BatchNorm", 
      "name": "cifarresnetv11_stage2_batchnorm11_fwd", 
      "attrs": {
        "__profiler_scope__": "cifarresnetv11:stage2:batchnorm11:", 
        "axis": "1", 
        "eps": "1e-05", 
        "fix_gamma": "False", 
        "momentum": "0.9", 
        "use_global_stats": "False"
      }, 
      "inputs": [[254, 0, 0], [255, 0, 0], [256, 0, 0], [257, 0, 1], [258, 0, 1]]
    }, 
    {
      "op": "Activation", 
      "name": "cifarresnetv11_stage2_relu5_fwd", 
      "attrs": {
        "__profiler_scope__": "cifarresnetv11:stage2:relu5:", 
        "act_type": "relu"
      }, 
      "inputs": [[259, 0, 0]]
    }, 
    {
      "op": "null", 
      "name": "cifarresnetv11_stage2_conv12_weight", 
      "attrs": {
        "__dtype__": "0", 
        "__lr_mult__": "1.0", 
        "__profiler_scope__": "cifarresnetv11:stage2:", 
        "__shape__": "(32, 32, 3, 3)", 
        "__storage_type__": "0", 
        "__wd_mult__": "1.0"
      }, 
      "inputs": []
    }, 
    {
      "op": "Convolution", 
      "name": "cifarresnetv11_stage2_conv12_fwd", 
      "attrs": {
        "__profiler_scope__": "cifarresnetv11:stage2:conv12:", 
        "dilate": "(1, 1)", 
        "kernel": "(3, 3)", 
        "layout": "NCHW", 
        "no_bias": "True", 
        "num_filter": "32", 
        "num_group": "1", 
        "pad": "(1, 1)", 
        "stride": "(1, 1)"
      }, 
      "inputs": [[260, 0, 0], [261, 0, 0]]
    }, 
    {
      "op": "null", 
      "name": "cifarresnetv11_stage2_batchnorm12_gamma", 
      "attrs": {
        "__dtype__": "0", 
        "__init__": "ones", 
        "__lr_mult__": "1.0", 
        "__profiler_scope__": "cifarresnetv11:stage2:", 
        "__shape__": "(32,)", 
        "__storage_type__": "0", 
        "__wd_mult__": "1.0"
      }, 
      "inputs": []
    }, 
    {
      "op": "null", 
      "name": "cifarresnetv11_stage2_batchnorm12_beta", 
      "attrs": {
        "__dtype__": "0", 
        "__init__": "zeros", 
        "__lr_mult__": "1.0", 
        "__profiler_scope__": "cifarresnetv11:stage2:", 
        "__shape__": "(32,)", 
        "__storage_type__": "0", 
        "__wd_mult__": "1.0"
      }, 
      "inputs": []
    }, 
    {
      "op": "null", 
      "name": "cifarresnetv11_stage2_batchnorm12_running_mean", 
      "attrs": {
        "__dtype__": "0", 
        "__init__": "zeros", 
        "__lr_mult__": "1.0", 
        "__profiler_scope__": "cifarresnetv11:stage2:", 
        "__shape__": "(32,)", 
        "__storage_type__": "0", 
        "__wd_mult__": "1.0"
      }, 
      "inputs": []
    }, 
    {
      "op": "null", 
      "name": "cifarresnetv11_stage2_batchnorm12_running_var", 
      "attrs": {
        "__dtype__": "0", 
        "__init__": "ones", 
        "__lr_mult__": "1.0", 
        "__profiler_scope__": "cifarresnetv11:stage2:", 
        "__shape__": "(32,)", 
        "__storage_type__": "0", 
        "__wd_mult__": "1.0"
      }, 
      "inputs": []
    }, 
    {
      "op": "BatchNorm", 
      "name": "cifarresnetv11_stage2_batchnorm12_fwd", 
      "attrs": {
        "__profiler_scope__": "cifarresnetv11:stage2:batchnorm12:", 
        "axis": "1", 
        "eps": "1e-05", 
        "fix_gamma": "False", 
        "momentum": "0.9", 
        "use_global_stats": "False"
      }, 
      "inputs": [[262, 0, 0], [263, 0, 0], [264, 0, 0], [265, 0, 1], [266, 0, 1]]
    }, 
    {
      "op": "elemwise_add", 
      "name": "cifarresnetv11_stage2__plus5", 
      "attrs": {"__profiler_scope__": "cifarresnetv11:stage2:"}, 
      "inputs": [[252, 0, 0], [267, 0, 0]]
    }, 
    {
      "op": "Activation", 
      "name": "cifarresnetv11_stage2_activation5", 
      "attrs": {
        "__profiler_scope__": "cifarresnetv11:stage2:", 
        "act_type": "relu"
      }, 
      "inputs": [[268, 0, 0]]
    }, 
    {
      "op": "null", 
      "name": "cifarresnetv11_stage2_conv13_weight", 
      "attrs": {
        "__dtype__": "0", 
        "__lr_mult__": "1.0", 
        "__profiler_scope__": "cifarresnetv11:stage2:", 
        "__shape__": "(32, 32, 3, 3)", 
        "__storage_type__": "0", 
        "__wd_mult__": "1.0"
      }, 
      "inputs": []
    }, 
    {
      "op": "Convolution", 
      "name": "cifarresnetv11_stage2_conv13_fwd", 
      "attrs": {
        "__profiler_scope__": "cifarresnetv11:stage2:conv13:", 
        "dilate": "(1, 1)", 
        "kernel": "(3, 3)", 
        "layout": "NCHW", 
        "no_bias": "True", 
        "num_filter": "32", 
        "num_group": "1", 
        "pad": "(1, 1)", 
        "stride": "(1, 1)"
      }, 
      "inputs": [[269, 0, 0], [270, 0, 0]]
    }, 
    {
      "op": "null", 
      "name": "cifarresnetv11_stage2_batchnorm13_gamma", 
      "attrs": {
        "__dtype__": "0", 
        "__init__": "ones", 
        "__lr_mult__": "1.0", 
        "__profiler_scope__": "cifarresnetv11:stage2:", 
        "__shape__": "(32,)", 
        "__storage_type__": "0", 
        "__wd_mult__": "1.0"
      }, 
      "inputs": []
    }, 
    {
      "op": "null", 
      "name": "cifarresnetv11_stage2_batchnorm13_beta", 
      "attrs": {
        "__dtype__": "0", 
        "__init__": "zeros", 
        "__lr_mult__": "1.0", 
        "__profiler_scope__": "cifarresnetv11:stage2:", 
        "__shape__": "(32,)", 
        "__storage_type__": "0", 
        "__wd_mult__": "1.0"
      }, 
      "inputs": []
    }, 
    {
      "op": "null", 
      "name": "cifarresnetv11_stage2_batchnorm13_running_mean", 
      "attrs": {
        "__dtype__": "0", 
        "__init__": "zeros", 
        "__lr_mult__": "1.0", 
        "__profiler_scope__": "cifarresnetv11:stage2:", 
        "__shape__": "(32,)", 
        "__storage_type__": "0", 
        "__wd_mult__": "1.0"
      }, 
      "inputs": []
    }, 
    {
      "op": "null", 
      "name": "cifarresnetv11_stage2_batchnorm13_running_var", 
      "attrs": {
        "__dtype__": "0", 
        "__init__": "ones", 
        "__lr_mult__": "1.0", 
        "__profiler_scope__": "cifarresnetv11:stage2:", 
        "__shape__": "(32,)", 
        "__storage_type__": "0", 
        "__wd_mult__": "1.0"
      }, 
      "inputs": []
    }, 
    {
      "op": "BatchNorm", 
      "name": "cifarresnetv11_stage2_batchnorm13_fwd", 
      "attrs": {
        "__profiler_scope__": "cifarresnetv11:stage2:batchnorm13:", 
        "axis": "1", 
        "eps": "1e-05", 
        "fix_gamma": "False", 
        "momentum": "0.9", 
        "use_global_stats": "False"
      }, 
      "inputs": [[271, 0, 0], [272, 0, 0], [273, 0, 0], [274, 0, 1], [275, 0, 1]]
    }, 
    {
      "op": "Activation", 
      "name": "cifarresnetv11_stage2_relu6_fwd", 
      "attrs": {
        "__profiler_scope__": "cifarresnetv11:stage2:relu6:", 
        "act_type": "relu"
      }, 
      "inputs": [[276, 0, 0]]
    }, 
    {
      "op": "null", 
      "name": "cifarresnetv11_stage2_conv14_weight", 
      "attrs": {
        "__dtype__": "0", 
        "__lr_mult__": "1.0", 
        "__profiler_scope__": "cifarresnetv11:stage2:", 
        "__shape__": "(32, 32, 3, 3)", 
        "__storage_type__": "0", 
        "__wd_mult__": "1.0"
      }, 
      "inputs": []
    }, 
    {
      "op": "Convolution", 
      "name": "cifarresnetv11_stage2_conv14_fwd", 
      "attrs": {
        "__profiler_scope__": "cifarresnetv11:stage2:conv14:", 
        "dilate": "(1, 1)", 
        "kernel": "(3, 3)", 
        "layout": "NCHW", 
        "no_bias": "True", 
        "num_filter": "32", 
        "num_group": "1", 
        "pad": "(1, 1)", 
        "stride": "(1, 1)"
      }, 
      "inputs": [[277, 0, 0], [278, 0, 0]]
    }, 
    {
      "op": "null", 
      "name": "cifarresnetv11_stage2_batchnorm14_gamma", 
      "attrs": {
        "__dtype__": "0", 
        "__init__": "ones", 
        "__lr_mult__": "1.0", 
        "__profiler_scope__": "cifarresnetv11:stage2:", 
        "__shape__": "(32,)", 
        "__storage_type__": "0", 
        "__wd_mult__": "1.0"
      }, 
      "inputs": []
    }, 
    {
      "op": "null", 
      "name": "cifarresnetv11_stage2_batchnorm14_beta", 
      "attrs": {
        "__dtype__": "0", 
        "__init__": "zeros", 
        "__lr_mult__": "1.0", 
        "__profiler_scope__": "cifarresnetv11:stage2:", 
        "__shape__": "(32,)", 
        "__storage_type__": "0", 
        "__wd_mult__": "1.0"
      }, 
      "inputs": []
    }, 
    {
      "op": "null", 
      "name": "cifarresnetv11_stage2_batchnorm14_running_mean", 
      "attrs": {
        "__dtype__": "0", 
        "__init__": "zeros", 
        "__lr_mult__": "1.0", 
        "__profiler_scope__": "cifarresnetv11:stage2:", 
        "__shape__": "(32,)", 
        "__storage_type__": "0", 
        "__wd_mult__": "1.0"
      }, 
      "inputs": []
    }, 
    {
      "op": "null", 
      "name": "cifarresnetv11_stage2_batchnorm14_running_var", 
      "attrs": {
        "__dtype__": "0", 
        "__init__": "ones", 
        "__lr_mult__": "1.0", 
        "__profiler_scope__": "cifarresnetv11:stage2:", 
        "__shape__": "(32,)", 
        "__storage_type__": "0", 
        "__wd_mult__": "1.0"
      }, 
      "inputs": []
    }, 
    {
      "op": "BatchNorm", 
      "name": "cifarresnetv11_stage2_batchnorm14_fwd", 
      "attrs": {
        "__profiler_scope__": "cifarresnetv11:stage2:batchnorm14:", 
        "axis": "1", 
        "eps": "1e-05", 
        "fix_gamma": "False", 
        "momentum": "0.9", 
        "use_global_stats": "False"
      }, 
      "inputs": [[279, 0, 0], [280, 0, 0], [281, 0, 0], [282, 0, 1], [283, 0, 1]]
    }, 
    {
      "op": "elemwise_add", 
      "name": "cifarresnetv11_stage2__plus6", 
      "attrs": {"__profiler_scope__": "cifarresnetv11:stage2:"}, 
      "inputs": [[269, 0, 0], [284, 0, 0]]
    }, 
    {
      "op": "Activation", 
      "name": "cifarresnetv11_stage2_activation6", 
      "attrs": {
        "__profiler_scope__": "cifarresnetv11:stage2:", 
        "act_type": "relu"
      }, 
      "inputs": [[285, 0, 0]]
    }, 
    {
      "op": "null", 
      "name": "cifarresnetv11_stage2_conv15_weight", 
      "attrs": {
        "__dtype__": "0", 
        "__lr_mult__": "1.0", 
        "__profiler_scope__": "cifarresnetv11:stage2:", 
        "__shape__": "(32, 32, 3, 3)", 
        "__storage_type__": "0", 
        "__wd_mult__": "1.0"
      }, 
      "inputs": []
    }, 
    {
      "op": "Convolution", 
      "name": "cifarresnetv11_stage2_conv15_fwd", 
      "attrs": {
        "__profiler_scope__": "cifarresnetv11:stage2:conv15:", 
        "dilate": "(1, 1)", 
        "kernel": "(3, 3)", 
        "layout": "NCHW", 
        "no_bias": "True", 
        "num_filter": "32", 
        "num_group": "1", 
        "pad": "(1, 1)", 
        "stride": "(1, 1)"
      }, 
      "inputs": [[286, 0, 0], [287, 0, 0]]
    }, 
    {
      "op": "null", 
      "name": "cifarresnetv11_stage2_batchnorm15_gamma", 
      "attrs": {
        "__dtype__": "0", 
        "__init__": "ones", 
        "__lr_mult__": "1.0", 
        "__profiler_scope__": "cifarresnetv11:stage2:", 
        "__shape__": "(32,)", 
        "__storage_type__": "0", 
        "__wd_mult__": "1.0"
      }, 
      "inputs": []
    }, 
    {
      "op": "null", 
      "name": "cifarresnetv11_stage2_batchnorm15_beta", 
      "attrs": {
        "__dtype__": "0", 
        "__init__": "zeros", 
        "__lr_mult__": "1.0", 
        "__profiler_scope__": "cifarresnetv11:stage2:", 
        "__shape__": "(32,)", 
        "__storage_type__": "0", 
        "__wd_mult__": "1.0"
      }, 
      "inputs": []
    }, 
    {
      "op": "null", 
      "name": "cifarresnetv11_stage2_batchnorm15_running_mean", 
      "attrs": {
        "__dtype__": "0", 
        "__init__": "zeros", 
        "__lr_mult__": "1.0", 
        "__profiler_scope__": "cifarresnetv11:stage2:", 
        "__shape__": "(32,)", 
        "__storage_type__": "0", 
        "__wd_mult__": "1.0"
      }, 
      "inputs": []
    }, 
    {
      "op": "null", 
      "name": "cifarresnetv11_stage2_batchnorm15_running_var", 
      "attrs": {
        "__dtype__": "0", 
        "__init__": "ones", 
        "__lr_mult__": "1.0", 
        "__profiler_scope__": "cifarresnetv11:stage2:", 
        "__shape__": "(32,)", 
        "__storage_type__": "0", 
        "__wd_mult__": "1.0"
      }, 
      "inputs": []
    }, 
    {
      "op": "BatchNorm", 
      "name": "cifarresnetv11_stage2_batchnorm15_fwd", 
      "attrs": {
        "__profiler_scope__": "cifarresnetv11:stage2:batchnorm15:", 
        "axis": "1", 
        "eps": "1e-05", 
        "fix_gamma": "False", 
        "momentum": "0.9", 
        "use_global_stats": "False"
      }, 
      "inputs": [[288, 0, 0], [289, 0, 0], [290, 0, 0], [291, 0, 1], [292, 0, 1]]
    }, 
    {
      "op": "Activation", 
      "name": "cifarresnetv11_stage2_relu7_fwd", 
      "attrs": {
        "__profiler_scope__": "cifarresnetv11:stage2:relu7:", 
        "act_type": "relu"
      }, 
      "inputs": [[293, 0, 0]]
    }, 
    {
      "op": "null", 
      "name": "cifarresnetv11_stage2_conv16_weight", 
      "attrs": {
        "__dtype__": "0", 
        "__lr_mult__": "1.0", 
        "__profiler_scope__": "cifarresnetv11:stage2:", 
        "__shape__": "(32, 32, 3, 3)", 
        "__storage_type__": "0", 
        "__wd_mult__": "1.0"
      }, 
      "inputs": []
    }, 
    {
      "op": "Convolution", 
      "name": "cifarresnetv11_stage2_conv16_fwd", 
      "attrs": {
        "__profiler_scope__": "cifarresnetv11:stage2:conv16:", 
        "dilate": "(1, 1)", 
        "kernel": "(3, 3)", 
        "layout": "NCHW", 
        "no_bias": "True", 
        "num_filter": "32", 
        "num_group": "1", 
        "pad": "(1, 1)", 
        "stride": "(1, 1)"
      }, 
      "inputs": [[294, 0, 0], [295, 0, 0]]
    }, 
    {
      "op": "null", 
      "name": "cifarresnetv11_stage2_batchnorm16_gamma", 
      "attrs": {
        "__dtype__": "0", 
        "__init__": "ones", 
        "__lr_mult__": "1.0", 
        "__profiler_scope__": "cifarresnetv11:stage2:", 
        "__shape__": "(32,)", 
        "__storage_type__": "0", 
        "__wd_mult__": "1.0"
      }, 
      "inputs": []
    }, 
    {
      "op": "null", 
      "name": "cifarresnetv11_stage2_batchnorm16_beta", 
      "attrs": {
        "__dtype__": "0", 
        "__init__": "zeros", 
        "__lr_mult__": "1.0", 
        "__profiler_scope__": "cifarresnetv11:stage2:", 
        "__shape__": "(32,)", 
        "__storage_type__": "0", 
        "__wd_mult__": "1.0"
      }, 
      "inputs": []
    }, 
    {
      "op": "null", 
      "name": "cifarresnetv11_stage2_batchnorm16_running_mean", 
      "attrs": {
        "__dtype__": "0", 
        "__init__": "zeros", 
        "__lr_mult__": "1.0", 
        "__profiler_scope__": "cifarresnetv11:stage2:", 
        "__shape__": "(32,)", 
        "__storage_type__": "0", 
        "__wd_mult__": "1.0"
      }, 
      "inputs": []
    }, 
    {
      "op": "null", 
      "name": "cifarresnetv11_stage2_batchnorm16_running_var", 
      "attrs": {
        "__dtype__": "0", 
        "__init__": "ones", 
        "__lr_mult__": "1.0", 
        "__profiler_scope__": "cifarresnetv11:stage2:", 
        "__shape__": "(32,)", 
        "__storage_type__": "0", 
        "__wd_mult__": "1.0"
      }, 
      "inputs": []
    }, 
    {
      "op": "BatchNorm", 
      "name": "cifarresnetv11_stage2_batchnorm16_fwd", 
      "attrs": {
        "__profiler_scope__": "cifarresnetv11:stage2:batchnorm16:", 
        "axis": "1", 
        "eps": "1e-05", 
        "fix_gamma": "False", 
        "momentum": "0.9", 
        "use_global_stats": "False"
      }, 
      "inputs": [[296, 0, 0], [297, 0, 0], [298, 0, 0], [299, 0, 1], [300, 0, 1]]
    }, 
    {
      "op": "elemwise_add", 
      "name": "cifarresnetv11_stage2__plus7", 
      "attrs": {"__profiler_scope__": "cifarresnetv11:stage2:"}, 
      "inputs": [[286, 0, 0], [301, 0, 0]]
    }, 
    {
      "op": "Activation", 
      "name": "cifarresnetv11_stage2_activation7", 
      "attrs": {
        "__profiler_scope__": "cifarresnetv11:stage2:", 
        "act_type": "relu"
      }, 
      "inputs": [[302, 0, 0]]
    }, 
    {
      "op": "null", 
      "name": "cifarresnetv11_stage2_conv17_weight", 
      "attrs": {
        "__dtype__": "0", 
        "__lr_mult__": "1.0", 
        "__profiler_scope__": "cifarresnetv11:stage2:", 
        "__shape__": "(32, 32, 3, 3)", 
        "__storage_type__": "0", 
        "__wd_mult__": "1.0"
      }, 
      "inputs": []
    }, 
    {
      "op": "Convolution", 
      "name": "cifarresnetv11_stage2_conv17_fwd", 
      "attrs": {
        "__profiler_scope__": "cifarresnetv11:stage2:conv17:", 
        "dilate": "(1, 1)", 
        "kernel": "(3, 3)", 
        "layout": "NCHW", 
        "no_bias": "True", 
        "num_filter": "32", 
        "num_group": "1", 
        "pad": "(1, 1)", 
        "stride": "(1, 1)"
      }, 
      "inputs": [[303, 0, 0], [304, 0, 0]]
    }, 
    {
      "op": "null", 
      "name": "cifarresnetv11_stage2_batchnorm17_gamma", 
      "attrs": {
        "__dtype__": "0", 
        "__init__": "ones", 
        "__lr_mult__": "1.0", 
        "__profiler_scope__": "cifarresnetv11:stage2:", 
        "__shape__": "(32,)", 
        "__storage_type__": "0", 
        "__wd_mult__": "1.0"
      }, 
      "inputs": []
    }, 
    {
      "op": "null", 
      "name": "cifarresnetv11_stage2_batchnorm17_beta", 
      "attrs": {
        "__dtype__": "0", 
        "__init__": "zeros", 
        "__lr_mult__": "1.0", 
        "__profiler_scope__": "cifarresnetv11:stage2:", 
        "__shape__": "(32,)", 
        "__storage_type__": "0", 
        "__wd_mult__": "1.0"
      }, 
      "inputs": []
    }, 
    {
      "op": "null", 
      "name": "cifarresnetv11_stage2_batchnorm17_running_mean", 
      "attrs": {
        "__dtype__": "0", 
        "__init__": "zeros", 
        "__lr_mult__": "1.0", 
        "__profiler_scope__": "cifarresnetv11:stage2:", 
        "__shape__": "(32,)", 
        "__storage_type__": "0", 
        "__wd_mult__": "1.0"
      }, 
      "inputs": []
    }, 
    {
      "op": "null", 
      "name": "cifarresnetv11_stage2_batchnorm17_running_var", 
      "attrs": {
        "__dtype__": "0", 
        "__init__": "ones", 
        "__lr_mult__": "1.0", 
        "__profiler_scope__": "cifarresnetv11:stage2:", 
        "__shape__": "(32,)", 
        "__storage_type__": "0", 
        "__wd_mult__": "1.0"
      }, 
      "inputs": []
    }, 
    {
      "op": "BatchNorm", 
      "name": "cifarresnetv11_stage2_batchnorm17_fwd", 
      "attrs": {
        "__profiler_scope__": "cifarresnetv11:stage2:batchnorm17:", 
        "axis": "1", 
        "eps": "1e-05", 
        "fix_gamma": "False", 
        "momentum": "0.9", 
        "use_global_stats": "False"
      }, 
      "inputs": [[305, 0, 0], [306, 0, 0], [307, 0, 0], [308, 0, 1], [309, 0, 1]]
    }, 
    {
      "op": "Activation", 
      "name": "cifarresnetv11_stage2_relu8_fwd", 
      "attrs": {
        "__profiler_scope__": "cifarresnetv11:stage2:relu8:", 
        "act_type": "relu"
      }, 
      "inputs": [[310, 0, 0]]
    }, 
    {
      "op": "null", 
      "name": "cifarresnetv11_stage2_conv18_weight", 
      "attrs": {
        "__dtype__": "0", 
        "__lr_mult__": "1.0", 
        "__profiler_scope__": "cifarresnetv11:stage2:", 
        "__shape__": "(32, 32, 3, 3)", 
        "__storage_type__": "0", 
        "__wd_mult__": "1.0"
      }, 
      "inputs": []
    }, 
    {
      "op": "Convolution", 
      "name": "cifarresnetv11_stage2_conv18_fwd", 
      "attrs": {
        "__profiler_scope__": "cifarresnetv11:stage2:conv18:", 
        "dilate": "(1, 1)", 
        "kernel": "(3, 3)", 
        "layout": "NCHW", 
        "no_bias": "True", 
        "num_filter": "32", 
        "num_group": "1", 
        "pad": "(1, 1)", 
        "stride": "(1, 1)"
      }, 
      "inputs": [[311, 0, 0], [312, 0, 0]]
    }, 
    {
      "op": "null", 
      "name": "cifarresnetv11_stage2_batchnorm18_gamma", 
      "attrs": {
        "__dtype__": "0", 
        "__init__": "ones", 
        "__lr_mult__": "1.0", 
        "__profiler_scope__": "cifarresnetv11:stage2:", 
        "__shape__": "(32,)", 
        "__storage_type__": "0", 
        "__wd_mult__": "1.0"
      }, 
      "inputs": []
    }, 
    {
      "op": "null", 
      "name": "cifarresnetv11_stage2_batchnorm18_beta", 
      "attrs": {
        "__dtype__": "0", 
        "__init__": "zeros", 
        "__lr_mult__": "1.0", 
        "__profiler_scope__": "cifarresnetv11:stage2:", 
        "__shape__": "(32,)", 
        "__storage_type__": "0", 
        "__wd_mult__": "1.0"
      }, 
      "inputs": []
    }, 
    {
      "op": "null", 
      "name": "cifarresnetv11_stage2_batchnorm18_running_mean", 
      "attrs": {
        "__dtype__": "0", 
        "__init__": "zeros", 
        "__lr_mult__": "1.0", 
        "__profiler_scope__": "cifarresnetv11:stage2:", 
        "__shape__": "(32,)", 
        "__storage_type__": "0", 
        "__wd_mult__": "1.0"
      }, 
      "inputs": []
    }, 
    {
      "op": "null", 
      "name": "cifarresnetv11_stage2_batchnorm18_running_var", 
      "attrs": {
        "__dtype__": "0", 
        "__init__": "ones", 
        "__lr_mult__": "1.0", 
        "__profiler_scope__": "cifarresnetv11:stage2:", 
        "__shape__": "(32,)", 
        "__storage_type__": "0", 
        "__wd_mult__": "1.0"
      }, 
      "inputs": []
    }, 
    {
      "op": "BatchNorm", 
      "name": "cifarresnetv11_stage2_batchnorm18_fwd", 
      "attrs": {
        "__profiler_scope__": "cifarresnetv11:stage2:batchnorm18:", 
        "axis": "1", 
        "eps": "1e-05", 
        "fix_gamma": "False", 
        "momentum": "0.9", 
        "use_global_stats": "False"
      }, 
      "inputs": [[313, 0, 0], [314, 0, 0], [315, 0, 0], [316, 0, 1], [317, 0, 1]]
    }, 
    {
      "op": "elemwise_add", 
      "name": "cifarresnetv11_stage2__plus8", 
      "attrs": {"__profiler_scope__": "cifarresnetv11:stage2:"}, 
      "inputs": [[303, 0, 0], [318, 0, 0]]
    }, 
    {
      "op": "Activation", 
      "name": "cifarresnetv11_stage2_activation8", 
      "attrs": {
        "__profiler_scope__": "cifarresnetv11:stage2:", 
        "act_type": "relu"
      }, 
      "inputs": [[319, 0, 0]]
    }, 
    {
      "op": "null", 
      "name": "cifarresnetv11_stage3_conv2_weight", 
      "attrs": {
        "__dtype__": "0", 
        "__lr_mult__": "1.0", 
        "__profiler_scope__": "cifarresnetv11:stage3:", 
        "__shape__": "(64, 32, 1, 1)", 
        "__storage_type__": "0", 
        "__wd_mult__": "1.0"
      }, 
      "inputs": []
    }, 
    {
      "op": "Convolution", 
      "name": "cifarresnetv11_stage3_conv2_fwd", 
      "attrs": {
        "__profiler_scope__": "cifarresnetv11:stage3:conv2:", 
        "dilate": "(1, 1)", 
        "kernel": "(1, 1)", 
        "layout": "NCHW", 
        "no_bias": "True", 
        "num_filter": "64", 
        "num_group": "1", 
        "pad": "(0, 0)", 
        "stride": "(2, 2)"
      }, 
      "inputs": [[320, 0, 0], [321, 0, 0]]
    }, 
    {
      "op": "null", 
      "name": "cifarresnetv11_stage3_batchnorm2_gamma", 
      "attrs": {
        "__dtype__": "0", 
        "__init__": "ones", 
        "__lr_mult__": "1.0", 
        "__profiler_scope__": "cifarresnetv11:stage3:", 
        "__shape__": "(64,)", 
        "__storage_type__": "0", 
        "__wd_mult__": "1.0"
      }, 
      "inputs": []
    }, 
    {
      "op": "null", 
      "name": "cifarresnetv11_stage3_batchnorm2_beta", 
      "attrs": {
        "__dtype__": "0", 
        "__init__": "zeros", 
        "__lr_mult__": "1.0", 
        "__profiler_scope__": "cifarresnetv11:stage3:", 
        "__shape__": "(64,)", 
        "__storage_type__": "0", 
        "__wd_mult__": "1.0"
      }, 
      "inputs": []
    }, 
    {
      "op": "null", 
      "name": "cifarresnetv11_stage3_batchnorm2_running_mean", 
      "attrs": {
        "__dtype__": "0", 
        "__init__": "zeros", 
        "__lr_mult__": "1.0", 
        "__profiler_scope__": "cifarresnetv11:stage3:", 
        "__shape__": "(64,)", 
        "__storage_type__": "0", 
        "__wd_mult__": "1.0"
      }, 
      "inputs": []
    }, 
    {
      "op": "null", 
      "name": "cifarresnetv11_stage3_batchnorm2_running_var", 
      "attrs": {
        "__dtype__": "0", 
        "__init__": "ones", 
        "__lr_mult__": "1.0", 
        "__profiler_scope__": "cifarresnetv11:stage3:", 
        "__shape__": "(64,)", 
        "__storage_type__": "0", 
        "__wd_mult__": "1.0"
      }, 
      "inputs": []
    }, 
    {
      "op": "BatchNorm", 
      "name": "cifarresnetv11_stage3_batchnorm2_fwd", 
      "attrs": {
        "__profiler_scope__": "cifarresnetv11:stage3:batchnorm2:", 
        "axis": "1", 
        "eps": "1e-05", 
        "fix_gamma": "False", 
        "momentum": "0.9", 
        "use_global_stats": "False"
      }, 
      "inputs": [[322, 0, 0], [323, 0, 0], [324, 0, 0], [325, 0, 1], [326, 0, 1]]
    }, 
    {
      "op": "null", 
      "name": "cifarresnetv11_stage3_conv0_weight", 
      "attrs": {
        "__dtype__": "0", 
        "__lr_mult__": "1.0", 
        "__profiler_scope__": "cifarresnetv11:stage3:", 
        "__shape__": "(64, 32, 3, 3)", 
        "__storage_type__": "0", 
        "__wd_mult__": "1.0"
      }, 
      "inputs": []
    }, 
    {
      "op": "Convolution", 
      "name": "cifarresnetv11_stage3_conv0_fwd", 
      "attrs": {
        "__profiler_scope__": "cifarresnetv11:stage3:conv0:", 
        "dilate": "(1, 1)", 
        "kernel": "(3, 3)", 
        "layout": "NCHW", 
        "no_bias": "True", 
        "num_filter": "64", 
        "num_group": "1", 
        "pad": "(1, 1)", 
        "stride": "(2, 2)"
      }, 
      "inputs": [[320, 0, 0], [328, 0, 0]]
    }, 
    {
      "op": "null", 
      "name": "cifarresnetv11_stage3_batchnorm0_gamma", 
      "attrs": {
        "__dtype__": "0", 
        "__init__": "ones", 
        "__lr_mult__": "1.0", 
        "__profiler_scope__": "cifarresnetv11:stage3:", 
        "__shape__": "(64,)", 
        "__storage_type__": "0", 
        "__wd_mult__": "1.0"
      }, 
      "inputs": []
    }, 
    {
      "op": "null", 
      "name": "cifarresnetv11_stage3_batchnorm0_beta", 
      "attrs": {
        "__dtype__": "0", 
        "__init__": "zeros", 
        "__lr_mult__": "1.0", 
        "__profiler_scope__": "cifarresnetv11:stage3:", 
        "__shape__": "(64,)", 
        "__storage_type__": "0", 
        "__wd_mult__": "1.0"
      }, 
      "inputs": []
    }, 
    {
      "op": "null", 
      "name": "cifarresnetv11_stage3_batchnorm0_running_mean", 
      "attrs": {
        "__dtype__": "0", 
        "__init__": "zeros", 
        "__lr_mult__": "1.0", 
        "__profiler_scope__": "cifarresnetv11:stage3:", 
        "__shape__": "(64,)", 
        "__storage_type__": "0", 
        "__wd_mult__": "1.0"
      }, 
      "inputs": []
    }, 
    {
      "op": "null", 
      "name": "cifarresnetv11_stage3_batchnorm0_running_var", 
      "attrs": {
        "__dtype__": "0", 
        "__init__": "ones", 
        "__lr_mult__": "1.0", 
        "__profiler_scope__": "cifarresnetv11:stage3:", 
        "__shape__": "(64,)", 
        "__storage_type__": "0", 
        "__wd_mult__": "1.0"
      }, 
      "inputs": []
    }, 
    {
      "op": "BatchNorm", 
      "name": "cifarresnetv11_stage3_batchnorm0_fwd", 
      "attrs": {
        "__profiler_scope__": "cifarresnetv11:stage3:batchnorm0:", 
        "axis": "1", 
        "eps": "1e-05", 
        "fix_gamma": "False", 
        "momentum": "0.9", 
        "use_global_stats": "False"
      }, 
      "inputs": [[329, 0, 0], [330, 0, 0], [331, 0, 0], [332, 0, 1], [333, 0, 1]]
    }, 
    {
      "op": "Activation", 
      "name": "cifarresnetv11_stage3_relu0_fwd", 
      "attrs": {
        "__profiler_scope__": "cifarresnetv11:stage3:relu0:", 
        "act_type": "relu"
      }, 
      "inputs": [[334, 0, 0]]
    }, 
    {
      "op": "null", 
      "name": "cifarresnetv11_stage3_conv1_weight", 
      "attrs": {
        "__dtype__": "0", 
        "__lr_mult__": "1.0", 
        "__profiler_scope__": "cifarresnetv11:stage3:", 
        "__shape__": "(64, 64, 3, 3)", 
        "__storage_type__": "0", 
        "__wd_mult__": "1.0"
      }, 
      "inputs": []
    }, 
    {
      "op": "Convolution", 
      "name": "cifarresnetv11_stage3_conv1_fwd", 
      "attrs": {
        "__profiler_scope__": "cifarresnetv11:stage3:conv1:", 
        "dilate": "(1, 1)", 
        "kernel": "(3, 3)", 
        "layout": "NCHW", 
        "no_bias": "True", 
        "num_filter": "64", 
        "num_group": "1", 
        "pad": "(1, 1)", 
        "stride": "(1, 1)"
      }, 
      "inputs": [[335, 0, 0], [336, 0, 0]]
    }, 
    {
      "op": "null", 
      "name": "cifarresnetv11_stage3_batchnorm1_gamma", 
      "attrs": {
        "__dtype__": "0", 
        "__init__": "ones", 
        "__lr_mult__": "1.0", 
        "__profiler_scope__": "cifarresnetv11:stage3:", 
        "__shape__": "(64,)", 
        "__storage_type__": "0", 
        "__wd_mult__": "1.0"
      }, 
      "inputs": []
    }, 
    {
      "op": "null", 
      "name": "cifarresnetv11_stage3_batchnorm1_beta", 
      "attrs": {
        "__dtype__": "0", 
        "__init__": "zeros", 
        "__lr_mult__": "1.0", 
        "__profiler_scope__": "cifarresnetv11:stage3:", 
        "__shape__": "(64,)", 
        "__storage_type__": "0", 
        "__wd_mult__": "1.0"
      }, 
      "inputs": []
    }, 
    {
      "op": "null", 
      "name": "cifarresnetv11_stage3_batchnorm1_running_mean", 
      "attrs": {
        "__dtype__": "0", 
        "__init__": "zeros", 
        "__lr_mult__": "1.0", 
        "__profiler_scope__": "cifarresnetv11:stage3:", 
        "__shape__": "(64,)", 
        "__storage_type__": "0", 
        "__wd_mult__": "1.0"
      }, 
      "inputs": []
    }, 
    {
      "op": "null", 
      "name": "cifarresnetv11_stage3_batchnorm1_running_var", 
      "attrs": {
        "__dtype__": "0", 
        "__init__": "ones", 
        "__lr_mult__": "1.0", 
        "__profiler_scope__": "cifarresnetv11:stage3:", 
        "__shape__": "(64,)", 
        "__storage_type__": "0", 
        "__wd_mult__": "1.0"
      }, 
      "inputs": []
    }, 
    {
      "op": "BatchNorm", 
      "name": "cifarresnetv11_stage3_batchnorm1_fwd", 
      "attrs": {
        "__profiler_scope__": "cifarresnetv11:stage3:batchnorm1:", 
        "axis": "1", 
        "eps": "1e-05", 
        "fix_gamma": "False", 
        "momentum": "0.9", 
        "use_global_stats": "False"
      }, 
      "inputs": [[337, 0, 0], [338, 0, 0], [339, 0, 0], [340, 0, 1], [341, 0, 1]]
    }, 
    {
      "op": "elemwise_add", 
      "name": "cifarresnetv11_stage3__plus0", 
      "attrs": {"__profiler_scope__": "cifarresnetv11:stage3:"}, 
      "inputs": [[327, 0, 0], [342, 0, 0]]
    }, 
    {
      "op": "Activation", 
      "name": "cifarresnetv11_stage3_activation0", 
      "attrs": {
        "__profiler_scope__": "cifarresnetv11:stage3:", 
        "act_type": "relu"
      }, 
      "inputs": [[343, 0, 0]]
    }, 
    {
      "op": "null", 
      "name": "cifarresnetv11_stage3_conv3_weight", 
      "attrs": {
        "__dtype__": "0", 
        "__lr_mult__": "1.0", 
        "__profiler_scope__": "cifarresnetv11:stage3:", 
        "__shape__": "(64, 64, 3, 3)", 
        "__storage_type__": "0", 
        "__wd_mult__": "1.0"
      }, 
      "inputs": []
    }, 
    {
      "op": "Convolution", 
      "name": "cifarresnetv11_stage3_conv3_fwd", 
      "attrs": {
        "__profiler_scope__": "cifarresnetv11:stage3:conv3:", 
        "dilate": "(1, 1)", 
        "kernel": "(3, 3)", 
        "layout": "NCHW", 
        "no_bias": "True", 
        "num_filter": "64", 
        "num_group": "1", 
        "pad": "(1, 1)", 
        "stride": "(1, 1)"
      }, 
      "inputs": [[344, 0, 0], [345, 0, 0]]
    }, 
    {
      "op": "null", 
      "name": "cifarresnetv11_stage3_batchnorm3_gamma", 
      "attrs": {
        "__dtype__": "0", 
        "__init__": "ones", 
        "__lr_mult__": "1.0", 
        "__profiler_scope__": "cifarresnetv11:stage3:", 
        "__shape__": "(64,)", 
        "__storage_type__": "0", 
        "__wd_mult__": "1.0"
      }, 
      "inputs": []
    }, 
    {
      "op": "null", 
      "name": "cifarresnetv11_stage3_batchnorm3_beta", 
      "attrs": {
        "__dtype__": "0", 
        "__init__": "zeros", 
        "__lr_mult__": "1.0", 
        "__profiler_scope__": "cifarresnetv11:stage3:", 
        "__shape__": "(64,)", 
        "__storage_type__": "0", 
        "__wd_mult__": "1.0"
      }, 
      "inputs": []
    }, 
    {
      "op": "null", 
      "name": "cifarresnetv11_stage3_batchnorm3_running_mean", 
      "attrs": {
        "__dtype__": "0", 
        "__init__": "zeros", 
        "__lr_mult__": "1.0", 
        "__profiler_scope__": "cifarresnetv11:stage3:", 
        "__shape__": "(64,)", 
        "__storage_type__": "0", 
        "__wd_mult__": "1.0"
      }, 
      "inputs": []
    }, 
    {
      "op": "null", 
      "name": "cifarresnetv11_stage3_batchnorm3_running_var", 
      "attrs": {
        "__dtype__": "0", 
        "__init__": "ones", 
        "__lr_mult__": "1.0", 
        "__profiler_scope__": "cifarresnetv11:stage3:", 
        "__shape__": "(64,)", 
        "__storage_type__": "0", 
        "__wd_mult__": "1.0"
      }, 
      "inputs": []
    }, 
    {
      "op": "BatchNorm", 
      "name": "cifarresnetv11_stage3_batchnorm3_fwd", 
      "attrs": {
        "__profiler_scope__": "cifarresnetv11:stage3:batchnorm3:", 
        "axis": "1", 
        "eps": "1e-05", 
        "fix_gamma": "False", 
        "momentum": "0.9", 
        "use_global_stats": "False"
      }, 
      "inputs": [[346, 0, 0], [347, 0, 0], [348, 0, 0], [349, 0, 1], [350, 0, 1]]
    }, 
    {
      "op": "Activation", 
      "name": "cifarresnetv11_stage3_relu1_fwd", 
      "attrs": {
        "__profiler_scope__": "cifarresnetv11:stage3:relu1:", 
        "act_type": "relu"
      }, 
      "inputs": [[351, 0, 0]]
    }, 
    {
      "op": "null", 
      "name": "cifarresnetv11_stage3_conv4_weight", 
      "attrs": {
        "__dtype__": "0", 
        "__lr_mult__": "1.0", 
        "__profiler_scope__": "cifarresnetv11:stage3:", 
        "__shape__": "(64, 64, 3, 3)", 
        "__storage_type__": "0", 
        "__wd_mult__": "1.0"
      }, 
      "inputs": []
    }, 
    {
      "op": "Convolution", 
      "name": "cifarresnetv11_stage3_conv4_fwd", 
      "attrs": {
        "__profiler_scope__": "cifarresnetv11:stage3:conv4:", 
        "dilate": "(1, 1)", 
        "kernel": "(3, 3)", 
        "layout": "NCHW", 
        "no_bias": "True", 
        "num_filter": "64", 
        "num_group": "1", 
        "pad": "(1, 1)", 
        "stride": "(1, 1)"
      }, 
      "inputs": [[352, 0, 0], [353, 0, 0]]
    }, 
    {
      "op": "null", 
      "name": "cifarresnetv11_stage3_batchnorm4_gamma", 
      "attrs": {
        "__dtype__": "0", 
        "__init__": "ones", 
        "__lr_mult__": "1.0", 
        "__profiler_scope__": "cifarresnetv11:stage3:", 
        "__shape__": "(64,)", 
        "__storage_type__": "0", 
        "__wd_mult__": "1.0"
      }, 
      "inputs": []
    }, 
    {
      "op": "null", 
      "name": "cifarresnetv11_stage3_batchnorm4_beta", 
      "attrs": {
        "__dtype__": "0", 
        "__init__": "zeros", 
        "__lr_mult__": "1.0", 
        "__profiler_scope__": "cifarresnetv11:stage3:", 
        "__shape__": "(64,)", 
        "__storage_type__": "0", 
        "__wd_mult__": "1.0"
      }, 
      "inputs": []
    }, 
    {
      "op": "null", 
      "name": "cifarresnetv11_stage3_batchnorm4_running_mean", 
      "attrs": {
        "__dtype__": "0", 
        "__init__": "zeros", 
        "__lr_mult__": "1.0", 
        "__profiler_scope__": "cifarresnetv11:stage3:", 
        "__shape__": "(64,)", 
        "__storage_type__": "0", 
        "__wd_mult__": "1.0"
      }, 
      "inputs": []
    }, 
    {
      "op": "null", 
      "name": "cifarresnetv11_stage3_batchnorm4_running_var", 
      "attrs": {
        "__dtype__": "0", 
        "__init__": "ones", 
        "__lr_mult__": "1.0", 
        "__profiler_scope__": "cifarresnetv11:stage3:", 
        "__shape__": "(64,)", 
        "__storage_type__": "0", 
        "__wd_mult__": "1.0"
      }, 
      "inputs": []
    }, 
    {
      "op": "BatchNorm", 
      "name": "cifarresnetv11_stage3_batchnorm4_fwd", 
      "attrs": {
        "__profiler_scope__": "cifarresnetv11:stage3:batchnorm4:", 
        "axis": "1", 
        "eps": "1e-05", 
        "fix_gamma": "False", 
        "momentum": "0.9", 
        "use_global_stats": "False"
      }, 
      "inputs": [[354, 0, 0], [355, 0, 0], [356, 0, 0], [357, 0, 1], [358, 0, 1]]
    }, 
    {
      "op": "elemwise_add", 
      "name": "cifarresnetv11_stage3__plus1", 
      "attrs": {"__profiler_scope__": "cifarresnetv11:stage3:"}, 
      "inputs": [[344, 0, 0], [359, 0, 0]]
    }, 
    {
      "op": "Activation", 
      "name": "cifarresnetv11_stage3_activation1", 
      "attrs": {
        "__profiler_scope__": "cifarresnetv11:stage3:", 
        "act_type": "relu"
      }, 
      "inputs": [[360, 0, 0]]
    }, 
    {
      "op": "null", 
      "name": "cifarresnetv11_stage3_conv5_weight", 
      "attrs": {
        "__dtype__": "0", 
        "__lr_mult__": "1.0", 
        "__profiler_scope__": "cifarresnetv11:stage3:", 
        "__shape__": "(64, 64, 3, 3)", 
        "__storage_type__": "0", 
        "__wd_mult__": "1.0"
      }, 
      "inputs": []
    }, 
    {
      "op": "Convolution", 
      "name": "cifarresnetv11_stage3_conv5_fwd", 
      "attrs": {
        "__profiler_scope__": "cifarresnetv11:stage3:conv5:", 
        "dilate": "(1, 1)", 
        "kernel": "(3, 3)", 
        "layout": "NCHW", 
        "no_bias": "True", 
        "num_filter": "64", 
        "num_group": "1", 
        "pad": "(1, 1)", 
        "stride": "(1, 1)"
      }, 
      "inputs": [[361, 0, 0], [362, 0, 0]]
    }, 
    {
      "op": "null", 
      "name": "cifarresnetv11_stage3_batchnorm5_gamma", 
      "attrs": {
        "__dtype__": "0", 
        "__init__": "ones", 
        "__lr_mult__": "1.0", 
        "__profiler_scope__": "cifarresnetv11:stage3:", 
        "__shape__": "(64,)", 
        "__storage_type__": "0", 
        "__wd_mult__": "1.0"
      }, 
      "inputs": []
    }, 
    {
      "op": "null", 
      "name": "cifarresnetv11_stage3_batchnorm5_beta", 
      "attrs": {
        "__dtype__": "0", 
        "__init__": "zeros", 
        "__lr_mult__": "1.0", 
        "__profiler_scope__": "cifarresnetv11:stage3:", 
        "__shape__": "(64,)", 
        "__storage_type__": "0", 
        "__wd_mult__": "1.0"
      }, 
      "inputs": []
    }, 
    {
      "op": "null", 
      "name": "cifarresnetv11_stage3_batchnorm5_running_mean", 
      "attrs": {
        "__dtype__": "0", 
        "__init__": "zeros", 
        "__lr_mult__": "1.0", 
        "__profiler_scope__": "cifarresnetv11:stage3:", 
        "__shape__": "(64,)", 
        "__storage_type__": "0", 
        "__wd_mult__": "1.0"
      }, 
      "inputs": []
    }, 
    {
      "op": "null", 
      "name": "cifarresnetv11_stage3_batchnorm5_running_var", 
      "attrs": {
        "__dtype__": "0", 
        "__init__": "ones", 
        "__lr_mult__": "1.0", 
        "__profiler_scope__": "cifarresnetv11:stage3:", 
        "__shape__": "(64,)", 
        "__storage_type__": "0", 
        "__wd_mult__": "1.0"
      }, 
      "inputs": []
    }, 
    {
      "op": "BatchNorm", 
      "name": "cifarresnetv11_stage3_batchnorm5_fwd", 
      "attrs": {
        "__profiler_scope__": "cifarresnetv11:stage3:batchnorm5:", 
        "axis": "1", 
        "eps": "1e-05", 
        "fix_gamma": "False", 
        "momentum": "0.9", 
        "use_global_stats": "False"
      }, 
      "inputs": [[363, 0, 0], [364, 0, 0], [365, 0, 0], [366, 0, 1], [367, 0, 1]]
    }, 
    {
      "op": "Activation", 
      "name": "cifarresnetv11_stage3_relu2_fwd", 
      "attrs": {
        "__profiler_scope__": "cifarresnetv11:stage3:relu2:", 
        "act_type": "relu"
      }, 
      "inputs": [[368, 0, 0]]
    }, 
    {
      "op": "null", 
      "name": "cifarresnetv11_stage3_conv6_weight", 
      "attrs": {
        "__dtype__": "0", 
        "__lr_mult__": "1.0", 
        "__profiler_scope__": "cifarresnetv11:stage3:", 
        "__shape__": "(64, 64, 3, 3)", 
        "__storage_type__": "0", 
        "__wd_mult__": "1.0"
      }, 
      "inputs": []
    }, 
    {
      "op": "Convolution", 
      "name": "cifarresnetv11_stage3_conv6_fwd", 
      "attrs": {
        "__profiler_scope__": "cifarresnetv11:stage3:conv6:", 
        "dilate": "(1, 1)", 
        "kernel": "(3, 3)", 
        "layout": "NCHW", 
        "no_bias": "True", 
        "num_filter": "64", 
        "num_group": "1", 
        "pad": "(1, 1)", 
        "stride": "(1, 1)"
      }, 
      "inputs": [[369, 0, 0], [370, 0, 0]]
    }, 
    {
      "op": "null", 
      "name": "cifarresnetv11_stage3_batchnorm6_gamma", 
      "attrs": {
        "__dtype__": "0", 
        "__init__": "ones", 
        "__lr_mult__": "1.0", 
        "__profiler_scope__": "cifarresnetv11:stage3:", 
        "__shape__": "(64,)", 
        "__storage_type__": "0", 
        "__wd_mult__": "1.0"
      }, 
      "inputs": []
    }, 
    {
      "op": "null", 
      "name": "cifarresnetv11_stage3_batchnorm6_beta", 
      "attrs": {
        "__dtype__": "0", 
        "__init__": "zeros", 
        "__lr_mult__": "1.0", 
        "__profiler_scope__": "cifarresnetv11:stage3:", 
        "__shape__": "(64,)", 
        "__storage_type__": "0", 
        "__wd_mult__": "1.0"
      }, 
      "inputs": []
    }, 
    {
      "op": "null", 
      "name": "cifarresnetv11_stage3_batchnorm6_running_mean", 
      "attrs": {
        "__dtype__": "0", 
        "__init__": "zeros", 
        "__lr_mult__": "1.0", 
        "__profiler_scope__": "cifarresnetv11:stage3:", 
        "__shape__": "(64,)", 
        "__storage_type__": "0", 
        "__wd_mult__": "1.0"
      }, 
      "inputs": []
    }, 
    {
      "op": "null", 
      "name": "cifarresnetv11_stage3_batchnorm6_running_var", 
      "attrs": {
        "__dtype__": "0", 
        "__init__": "ones", 
        "__lr_mult__": "1.0", 
        "__profiler_scope__": "cifarresnetv11:stage3:", 
        "__shape__": "(64,)", 
        "__storage_type__": "0", 
        "__wd_mult__": "1.0"
      }, 
      "inputs": []
    }, 
    {
      "op": "BatchNorm", 
      "name": "cifarresnetv11_stage3_batchnorm6_fwd", 
      "attrs": {
        "__profiler_scope__": "cifarresnetv11:stage3:batchnorm6:", 
        "axis": "1", 
        "eps": "1e-05", 
        "fix_gamma": "False", 
        "momentum": "0.9", 
        "use_global_stats": "False"
      }, 
      "inputs": [[371, 0, 0], [372, 0, 0], [373, 0, 0], [374, 0, 1], [375, 0, 1]]
    }, 
    {
      "op": "elemwise_add", 
      "name": "cifarresnetv11_stage3__plus2", 
      "attrs": {"__profiler_scope__": "cifarresnetv11:stage3:"}, 
      "inputs": [[361, 0, 0], [376, 0, 0]]
    }, 
    {
      "op": "Activation", 
      "name": "cifarresnetv11_stage3_activation2", 
      "attrs": {
        "__profiler_scope__": "cifarresnetv11:stage3:", 
        "act_type": "relu"
      }, 
      "inputs": [[377, 0, 0]]
    }, 
    {
      "op": "null", 
      "name": "cifarresnetv11_stage3_conv7_weight", 
      "attrs": {
        "__dtype__": "0", 
        "__lr_mult__": "1.0", 
        "__profiler_scope__": "cifarresnetv11:stage3:", 
        "__shape__": "(64, 64, 3, 3)", 
        "__storage_type__": "0", 
        "__wd_mult__": "1.0"
      }, 
      "inputs": []
    }, 
    {
      "op": "Convolution", 
      "name": "cifarresnetv11_stage3_conv7_fwd", 
      "attrs": {
        "__profiler_scope__": "cifarresnetv11:stage3:conv7:", 
        "dilate": "(1, 1)", 
        "kernel": "(3, 3)", 
        "layout": "NCHW", 
        "no_bias": "True", 
        "num_filter": "64", 
        "num_group": "1", 
        "pad": "(1, 1)", 
        "stride": "(1, 1)"
      }, 
      "inputs": [[378, 0, 0], [379, 0, 0]]
    }, 
    {
      "op": "null", 
      "name": "cifarresnetv11_stage3_batchnorm7_gamma", 
      "attrs": {
        "__dtype__": "0", 
        "__init__": "ones", 
        "__lr_mult__": "1.0", 
        "__profiler_scope__": "cifarresnetv11:stage3:", 
        "__shape__": "(64,)", 
        "__storage_type__": "0", 
        "__wd_mult__": "1.0"
      }, 
      "inputs": []
    }, 
    {
      "op": "null", 
      "name": "cifarresnetv11_stage3_batchnorm7_beta", 
      "attrs": {
        "__dtype__": "0", 
        "__init__": "zeros", 
        "__lr_mult__": "1.0", 
        "__profiler_scope__": "cifarresnetv11:stage3:", 
        "__shape__": "(64,)", 
        "__storage_type__": "0", 
        "__wd_mult__": "1.0"
      }, 
      "inputs": []
    }, 
    {
      "op": "null", 
      "name": "cifarresnetv11_stage3_batchnorm7_running_mean", 
      "attrs": {
        "__dtype__": "0", 
        "__init__": "zeros", 
        "__lr_mult__": "1.0", 
        "__profiler_scope__": "cifarresnetv11:stage3:", 
        "__shape__": "(64,)", 
        "__storage_type__": "0", 
        "__wd_mult__": "1.0"
      }, 
      "inputs": []
    }, 
    {
      "op": "null", 
      "name": "cifarresnetv11_stage3_batchnorm7_running_var", 
      "attrs": {
        "__dtype__": "0", 
        "__init__": "ones", 
        "__lr_mult__": "1.0", 
        "__profiler_scope__": "cifarresnetv11:stage3:", 
        "__shape__": "(64,)", 
        "__storage_type__": "0", 
        "__wd_mult__": "1.0"
      }, 
      "inputs": []
    }, 
    {
      "op": "BatchNorm", 
      "name": "cifarresnetv11_stage3_batchnorm7_fwd", 
      "attrs": {
        "__profiler_scope__": "cifarresnetv11:stage3:batchnorm7:", 
        "axis": "1", 
        "eps": "1e-05", 
        "fix_gamma": "False", 
        "momentum": "0.9", 
        "use_global_stats": "False"
      }, 
      "inputs": [[380, 0, 0], [381, 0, 0], [382, 0, 0], [383, 0, 1], [384, 0, 1]]
    }, 
    {
      "op": "Activation", 
      "name": "cifarresnetv11_stage3_relu3_fwd", 
      "attrs": {
        "__profiler_scope__": "cifarresnetv11:stage3:relu3:", 
        "act_type": "relu"
      }, 
      "inputs": [[385, 0, 0]]
    }, 
    {
      "op": "null", 
      "name": "cifarresnetv11_stage3_conv8_weight", 
      "attrs": {
        "__dtype__": "0", 
        "__lr_mult__": "1.0", 
        "__profiler_scope__": "cifarresnetv11:stage3:", 
        "__shape__": "(64, 64, 3, 3)", 
        "__storage_type__": "0", 
        "__wd_mult__": "1.0"
      }, 
      "inputs": []
    }, 
    {
      "op": "Convolution", 
      "name": "cifarresnetv11_stage3_conv8_fwd", 
      "attrs": {
        "__profiler_scope__": "cifarresnetv11:stage3:conv8:", 
        "dilate": "(1, 1)", 
        "kernel": "(3, 3)", 
        "layout": "NCHW", 
        "no_bias": "True", 
        "num_filter": "64", 
        "num_group": "1", 
        "pad": "(1, 1)", 
        "stride": "(1, 1)"
      }, 
      "inputs": [[386, 0, 0], [387, 0, 0]]
    }, 
    {
      "op": "null", 
      "name": "cifarresnetv11_stage3_batchnorm8_gamma", 
      "attrs": {
        "__dtype__": "0", 
        "__init__": "ones", 
        "__lr_mult__": "1.0", 
        "__profiler_scope__": "cifarresnetv11:stage3:", 
        "__shape__": "(64,)", 
        "__storage_type__": "0", 
        "__wd_mult__": "1.0"
      }, 
      "inputs": []
    }, 
    {
      "op": "null", 
      "name": "cifarresnetv11_stage3_batchnorm8_beta", 
      "attrs": {
        "__dtype__": "0", 
        "__init__": "zeros", 
        "__lr_mult__": "1.0", 
        "__profiler_scope__": "cifarresnetv11:stage3:", 
        "__shape__": "(64,)", 
        "__storage_type__": "0", 
        "__wd_mult__": "1.0"
      }, 
      "inputs": []
    }, 
    {
      "op": "null", 
      "name": "cifarresnetv11_stage3_batchnorm8_running_mean", 
      "attrs": {
        "__dtype__": "0", 
        "__init__": "zeros", 
        "__lr_mult__": "1.0", 
        "__profiler_scope__": "cifarresnetv11:stage3:", 
        "__shape__": "(64,)", 
        "__storage_type__": "0", 
        "__wd_mult__": "1.0"
      }, 
      "inputs": []
    }, 
    {
      "op": "null", 
      "name": "cifarresnetv11_stage3_batchnorm8_running_var", 
      "attrs": {
        "__dtype__": "0", 
        "__init__": "ones", 
        "__lr_mult__": "1.0", 
        "__profiler_scope__": "cifarresnetv11:stage3:", 
        "__shape__": "(64,)", 
        "__storage_type__": "0", 
        "__wd_mult__": "1.0"
      }, 
      "inputs": []
    }, 
    {
      "op": "BatchNorm", 
      "name": "cifarresnetv11_stage3_batchnorm8_fwd", 
      "attrs": {
        "__profiler_scope__": "cifarresnetv11:stage3:batchnorm8:", 
        "axis": "1", 
        "eps": "1e-05", 
        "fix_gamma": "False", 
        "momentum": "0.9", 
        "use_global_stats": "False"
      }, 
      "inputs": [[388, 0, 0], [389, 0, 0], [390, 0, 0], [391, 0, 1], [392, 0, 1]]
    }, 
    {
      "op": "elemwise_add", 
      "name": "cifarresnetv11_stage3__plus3", 
      "attrs": {"__profiler_scope__": "cifarresnetv11:stage3:"}, 
      "inputs": [[378, 0, 0], [393, 0, 0]]
    }, 
    {
      "op": "Activation", 
      "name": "cifarresnetv11_stage3_activation3", 
      "attrs": {
        "__profiler_scope__": "cifarresnetv11:stage3:", 
        "act_type": "relu"
      }, 
      "inputs": [[394, 0, 0]]
    }, 
    {
      "op": "null", 
      "name": "cifarresnetv11_stage3_conv9_weight", 
      "attrs": {
        "__dtype__": "0", 
        "__lr_mult__": "1.0", 
        "__profiler_scope__": "cifarresnetv11:stage3:", 
        "__shape__": "(64, 64, 3, 3)", 
        "__storage_type__": "0", 
        "__wd_mult__": "1.0"
      }, 
      "inputs": []
    }, 
    {
      "op": "Convolution", 
      "name": "cifarresnetv11_stage3_conv9_fwd", 
      "attrs": {
        "__profiler_scope__": "cifarresnetv11:stage3:conv9:", 
        "dilate": "(1, 1)", 
        "kernel": "(3, 3)", 
        "layout": "NCHW", 
        "no_bias": "True", 
        "num_filter": "64", 
        "num_group": "1", 
        "pad": "(1, 1)", 
        "stride": "(1, 1)"
      }, 
      "inputs": [[395, 0, 0], [396, 0, 0]]
    }, 
    {
      "op": "null", 
      "name": "cifarresnetv11_stage3_batchnorm9_gamma", 
      "attrs": {
        "__dtype__": "0", 
        "__init__": "ones", 
        "__lr_mult__": "1.0", 
        "__profiler_scope__": "cifarresnetv11:stage3:", 
        "__shape__": "(64,)", 
        "__storage_type__": "0", 
        "__wd_mult__": "1.0"
      }, 
      "inputs": []
    }, 
    {
      "op": "null", 
      "name": "cifarresnetv11_stage3_batchnorm9_beta", 
      "attrs": {
        "__dtype__": "0", 
        "__init__": "zeros", 
        "__lr_mult__": "1.0", 
        "__profiler_scope__": "cifarresnetv11:stage3:", 
        "__shape__": "(64,)", 
        "__storage_type__": "0", 
        "__wd_mult__": "1.0"
      }, 
      "inputs": []
    }, 
    {
      "op": "null", 
      "name": "cifarresnetv11_stage3_batchnorm9_running_mean", 
      "attrs": {
        "__dtype__": "0", 
        "__init__": "zeros", 
        "__lr_mult__": "1.0", 
        "__profiler_scope__": "cifarresnetv11:stage3:", 
        "__shape__": "(64,)", 
        "__storage_type__": "0", 
        "__wd_mult__": "1.0"
      }, 
      "inputs": []
    }, 
    {
      "op": "null", 
      "name": "cifarresnetv11_stage3_batchnorm9_running_var", 
      "attrs": {
        "__dtype__": "0", 
        "__init__": "ones", 
        "__lr_mult__": "1.0", 
        "__profiler_scope__": "cifarresnetv11:stage3:", 
        "__shape__": "(64,)", 
        "__storage_type__": "0", 
        "__wd_mult__": "1.0"
      }, 
      "inputs": []
    }, 
    {
      "op": "BatchNorm", 
      "name": "cifarresnetv11_stage3_batchnorm9_fwd", 
      "attrs": {
        "__profiler_scope__": "cifarresnetv11:stage3:batchnorm9:", 
        "axis": "1", 
        "eps": "1e-05", 
        "fix_gamma": "False", 
        "momentum": "0.9", 
        "use_global_stats": "False"
      }, 
      "inputs": [[397, 0, 0], [398, 0, 0], [399, 0, 0], [400, 0, 1], [401, 0, 1]]
    }, 
    {
      "op": "Activation", 
      "name": "cifarresnetv11_stage3_relu4_fwd", 
      "attrs": {
        "__profiler_scope__": "cifarresnetv11:stage3:relu4:", 
        "act_type": "relu"
      }, 
      "inputs": [[402, 0, 0]]
    }, 
    {
      "op": "null", 
      "name": "cifarresnetv11_stage3_conv10_weight", 
      "attrs": {
        "__dtype__": "0", 
        "__lr_mult__": "1.0", 
        "__profiler_scope__": "cifarresnetv11:stage3:", 
        "__shape__": "(64, 64, 3, 3)", 
        "__storage_type__": "0", 
        "__wd_mult__": "1.0"
      }, 
      "inputs": []
    }, 
    {
      "op": "Convolution", 
      "name": "cifarresnetv11_stage3_conv10_fwd", 
      "attrs": {
        "__profiler_scope__": "cifarresnetv11:stage3:conv10:", 
        "dilate": "(1, 1)", 
        "kernel": "(3, 3)", 
        "layout": "NCHW", 
        "no_bias": "True", 
        "num_filter": "64", 
        "num_group": "1", 
        "pad": "(1, 1)", 
        "stride": "(1, 1)"
      }, 
      "inputs": [[403, 0, 0], [404, 0, 0]]
    }, 
    {
      "op": "null", 
      "name": "cifarresnetv11_stage3_batchnorm10_gamma", 
      "attrs": {
        "__dtype__": "0", 
        "__init__": "ones", 
        "__lr_mult__": "1.0", 
        "__profiler_scope__": "cifarresnetv11:stage3:", 
        "__shape__": "(64,)", 
        "__storage_type__": "0", 
        "__wd_mult__": "1.0"
      }, 
      "inputs": []
    }, 
    {
      "op": "null", 
      "name": "cifarresnetv11_stage3_batchnorm10_beta", 
      "attrs": {
        "__dtype__": "0", 
        "__init__": "zeros", 
        "__lr_mult__": "1.0", 
        "__profiler_scope__": "cifarresnetv11:stage3:", 
        "__shape__": "(64,)", 
        "__storage_type__": "0", 
        "__wd_mult__": "1.0"
      }, 
      "inputs": []
    }, 
    {
      "op": "null", 
      "name": "cifarresnetv11_stage3_batchnorm10_running_mean", 
      "attrs": {
        "__dtype__": "0", 
        "__init__": "zeros", 
        "__lr_mult__": "1.0", 
        "__profiler_scope__": "cifarresnetv11:stage3:", 
        "__shape__": "(64,)", 
        "__storage_type__": "0", 
        "__wd_mult__": "1.0"
      }, 
      "inputs": []
    }, 
    {
      "op": "null", 
      "name": "cifarresnetv11_stage3_batchnorm10_running_var", 
      "attrs": {
        "__dtype__": "0", 
        "__init__": "ones", 
        "__lr_mult__": "1.0", 
        "__profiler_scope__": "cifarresnetv11:stage3:", 
        "__shape__": "(64,)", 
        "__storage_type__": "0", 
        "__wd_mult__": "1.0"
      }, 
      "inputs": []
    }, 
    {
      "op": "BatchNorm", 
      "name": "cifarresnetv11_stage3_batchnorm10_fwd", 
      "attrs": {
        "__profiler_scope__": "cifarresnetv11:stage3:batchnorm10:", 
        "axis": "1", 
        "eps": "1e-05", 
        "fix_gamma": "False", 
        "momentum": "0.9", 
        "use_global_stats": "False"
      }, 
      "inputs": [[405, 0, 0], [406, 0, 0], [407, 0, 0], [408, 0, 1], [409, 0, 1]]
    }, 
    {
      "op": "elemwise_add", 
      "name": "cifarresnetv11_stage3__plus4", 
      "attrs": {"__profiler_scope__": "cifarresnetv11:stage3:"}, 
      "inputs": [[395, 0, 0], [410, 0, 0]]
    }, 
    {
      "op": "Activation", 
      "name": "cifarresnetv11_stage3_activation4", 
      "attrs": {
        "__profiler_scope__": "cifarresnetv11:stage3:", 
        "act_type": "relu"
      }, 
      "inputs": [[411, 0, 0]]
    }, 
    {
      "op": "null", 
      "name": "cifarresnetv11_stage3_conv11_weight", 
      "attrs": {
        "__dtype__": "0", 
        "__lr_mult__": "1.0", 
        "__profiler_scope__": "cifarresnetv11:stage3:", 
        "__shape__": "(64, 64, 3, 3)", 
        "__storage_type__": "0", 
        "__wd_mult__": "1.0"
      }, 
      "inputs": []
    }, 
    {
      "op": "Convolution", 
      "name": "cifarresnetv11_stage3_conv11_fwd", 
      "attrs": {
        "__profiler_scope__": "cifarresnetv11:stage3:conv11:", 
        "dilate": "(1, 1)", 
        "kernel": "(3, 3)", 
        "layout": "NCHW", 
        "no_bias": "True", 
        "num_filter": "64", 
        "num_group": "1", 
        "pad": "(1, 1)", 
        "stride": "(1, 1)"
      }, 
      "inputs": [[412, 0, 0], [413, 0, 0]]
    }, 
    {
      "op": "null", 
      "name": "cifarresnetv11_stage3_batchnorm11_gamma", 
      "attrs": {
        "__dtype__": "0", 
        "__init__": "ones", 
        "__lr_mult__": "1.0", 
        "__profiler_scope__": "cifarresnetv11:stage3:", 
        "__shape__": "(64,)", 
        "__storage_type__": "0", 
        "__wd_mult__": "1.0"
      }, 
      "inputs": []
    }, 
    {
      "op": "null", 
      "name": "cifarresnetv11_stage3_batchnorm11_beta", 
      "attrs": {
        "__dtype__": "0", 
        "__init__": "zeros", 
        "__lr_mult__": "1.0", 
        "__profiler_scope__": "cifarresnetv11:stage3:", 
        "__shape__": "(64,)", 
        "__storage_type__": "0", 
        "__wd_mult__": "1.0"
      }, 
      "inputs": []
    }, 
    {
      "op": "null", 
      "name": "cifarresnetv11_stage3_batchnorm11_running_mean", 
      "attrs": {
        "__dtype__": "0", 
        "__init__": "zeros", 
        "__lr_mult__": "1.0", 
        "__profiler_scope__": "cifarresnetv11:stage3:", 
        "__shape__": "(64,)", 
        "__storage_type__": "0", 
        "__wd_mult__": "1.0"
      }, 
      "inputs": []
    }, 
    {
      "op": "null", 
      "name": "cifarresnetv11_stage3_batchnorm11_running_var", 
      "attrs": {
        "__dtype__": "0", 
        "__init__": "ones", 
        "__lr_mult__": "1.0", 
        "__profiler_scope__": "cifarresnetv11:stage3:", 
        "__shape__": "(64,)", 
        "__storage_type__": "0", 
        "__wd_mult__": "1.0"
      }, 
      "inputs": []
    }, 
    {
      "op": "BatchNorm", 
      "name": "cifarresnetv11_stage3_batchnorm11_fwd", 
      "attrs": {
        "__profiler_scope__": "cifarresnetv11:stage3:batchnorm11:", 
        "axis": "1", 
        "eps": "1e-05", 
        "fix_gamma": "False", 
        "momentum": "0.9", 
        "use_global_stats": "False"
      }, 
      "inputs": [[414, 0, 0], [415, 0, 0], [416, 0, 0], [417, 0, 1], [418, 0, 1]]
    }, 
    {
      "op": "Activation", 
      "name": "cifarresnetv11_stage3_relu5_fwd", 
      "attrs": {
        "__profiler_scope__": "cifarresnetv11:stage3:relu5:", 
        "act_type": "relu"
      }, 
      "inputs": [[419, 0, 0]]
    }, 
    {
      "op": "null", 
      "name": "cifarresnetv11_stage3_conv12_weight", 
      "attrs": {
        "__dtype__": "0", 
        "__lr_mult__": "1.0", 
        "__profiler_scope__": "cifarresnetv11:stage3:", 
        "__shape__": "(64, 64, 3, 3)", 
        "__storage_type__": "0", 
        "__wd_mult__": "1.0"
      }, 
      "inputs": []
    }, 
    {
      "op": "Convolution", 
      "name": "cifarresnetv11_stage3_conv12_fwd", 
      "attrs": {
        "__profiler_scope__": "cifarresnetv11:stage3:conv12:", 
        "dilate": "(1, 1)", 
        "kernel": "(3, 3)", 
        "layout": "NCHW", 
        "no_bias": "True", 
        "num_filter": "64", 
        "num_group": "1", 
        "pad": "(1, 1)", 
        "stride": "(1, 1)"
      }, 
      "inputs": [[420, 0, 0], [421, 0, 0]]
    }, 
    {
      "op": "null", 
      "name": "cifarresnetv11_stage3_batchnorm12_gamma", 
      "attrs": {
        "__dtype__": "0", 
        "__init__": "ones", 
        "__lr_mult__": "1.0", 
        "__profiler_scope__": "cifarresnetv11:stage3:", 
        "__shape__": "(64,)", 
        "__storage_type__": "0", 
        "__wd_mult__": "1.0"
      }, 
      "inputs": []
    }, 
    {
      "op": "null", 
      "name": "cifarresnetv11_stage3_batchnorm12_beta", 
      "attrs": {
        "__dtype__": "0", 
        "__init__": "zeros", 
        "__lr_mult__": "1.0", 
        "__profiler_scope__": "cifarresnetv11:stage3:", 
        "__shape__": "(64,)", 
        "__storage_type__": "0", 
        "__wd_mult__": "1.0"
      }, 
      "inputs": []
    }, 
    {
      "op": "null", 
      "name": "cifarresnetv11_stage3_batchnorm12_running_mean", 
      "attrs": {
        "__dtype__": "0", 
        "__init__": "zeros", 
        "__lr_mult__": "1.0", 
        "__profiler_scope__": "cifarresnetv11:stage3:", 
        "__shape__": "(64,)", 
        "__storage_type__": "0", 
        "__wd_mult__": "1.0"
      }, 
      "inputs": []
    }, 
    {
      "op": "null", 
      "name": "cifarresnetv11_stage3_batchnorm12_running_var", 
      "attrs": {
        "__dtype__": "0", 
        "__init__": "ones", 
        "__lr_mult__": "1.0", 
        "__profiler_scope__": "cifarresnetv11:stage3:", 
        "__shape__": "(64,)", 
        "__storage_type__": "0", 
        "__wd_mult__": "1.0"
      }, 
      "inputs": []
    }, 
    {
      "op": "BatchNorm", 
      "name": "cifarresnetv11_stage3_batchnorm12_fwd", 
      "attrs": {
        "__profiler_scope__": "cifarresnetv11:stage3:batchnorm12:", 
        "axis": "1", 
        "eps": "1e-05", 
        "fix_gamma": "False", 
        "momentum": "0.9", 
        "use_global_stats": "False"
      }, 
      "inputs": [[422, 0, 0], [423, 0, 0], [424, 0, 0], [425, 0, 1], [426, 0, 1]]
    }, 
    {
      "op": "elemwise_add", 
      "name": "cifarresnetv11_stage3__plus5", 
      "attrs": {"__profiler_scope__": "cifarresnetv11:stage3:"}, 
      "inputs": [[412, 0, 0], [427, 0, 0]]
    }, 
    {
      "op": "Activation", 
      "name": "cifarresnetv11_stage3_activation5", 
      "attrs": {
        "__profiler_scope__": "cifarresnetv11:stage3:", 
        "act_type": "relu"
      }, 
      "inputs": [[428, 0, 0]]
    }, 
    {
      "op": "null", 
      "name": "cifarresnetv11_stage3_conv13_weight", 
      "attrs": {
        "__dtype__": "0", 
        "__lr_mult__": "1.0", 
        "__profiler_scope__": "cifarresnetv11:stage3:", 
        "__shape__": "(64, 64, 3, 3)", 
        "__storage_type__": "0", 
        "__wd_mult__": "1.0"
      }, 
      "inputs": []
    }, 
    {
      "op": "Convolution", 
      "name": "cifarresnetv11_stage3_conv13_fwd", 
      "attrs": {
        "__profiler_scope__": "cifarresnetv11:stage3:conv13:", 
        "dilate": "(1, 1)", 
        "kernel": "(3, 3)", 
        "layout": "NCHW", 
        "no_bias": "True", 
        "num_filter": "64", 
        "num_group": "1", 
        "pad": "(1, 1)", 
        "stride": "(1, 1)"
      }, 
      "inputs": [[429, 0, 0], [430, 0, 0]]
    }, 
    {
      "op": "null", 
      "name": "cifarresnetv11_stage3_batchnorm13_gamma", 
      "attrs": {
        "__dtype__": "0", 
        "__init__": "ones", 
        "__lr_mult__": "1.0", 
        "__profiler_scope__": "cifarresnetv11:stage3:", 
        "__shape__": "(64,)", 
        "__storage_type__": "0", 
        "__wd_mult__": "1.0"
      }, 
      "inputs": []
    }, 
    {
      "op": "null", 
      "name": "cifarresnetv11_stage3_batchnorm13_beta", 
      "attrs": {
        "__dtype__": "0", 
        "__init__": "zeros", 
        "__lr_mult__": "1.0", 
        "__profiler_scope__": "cifarresnetv11:stage3:", 
        "__shape__": "(64,)", 
        "__storage_type__": "0", 
        "__wd_mult__": "1.0"
      }, 
      "inputs": []
    }, 
    {
      "op": "null", 
      "name": "cifarresnetv11_stage3_batchnorm13_running_mean", 
      "attrs": {
        "__dtype__": "0", 
        "__init__": "zeros", 
        "__lr_mult__": "1.0", 
        "__profiler_scope__": "cifarresnetv11:stage3:", 
        "__shape__": "(64,)", 
        "__storage_type__": "0", 
        "__wd_mult__": "1.0"
      }, 
      "inputs": []
    }, 
    {
      "op": "null", 
      "name": "cifarresnetv11_stage3_batchnorm13_running_var", 
      "attrs": {
        "__dtype__": "0", 
        "__init__": "ones", 
        "__lr_mult__": "1.0", 
        "__profiler_scope__": "cifarresnetv11:stage3:", 
        "__shape__": "(64,)", 
        "__storage_type__": "0", 
        "__wd_mult__": "1.0"
      }, 
      "inputs": []
    }, 
    {
      "op": "BatchNorm", 
      "name": "cifarresnetv11_stage3_batchnorm13_fwd", 
      "attrs": {
        "__profiler_scope__": "cifarresnetv11:stage3:batchnorm13:", 
        "axis": "1", 
        "eps": "1e-05", 
        "fix_gamma": "False", 
        "momentum": "0.9", 
        "use_global_stats": "False"
      }, 
      "inputs": [[431, 0, 0], [432, 0, 0], [433, 0, 0], [434, 0, 1], [435, 0, 1]]
    }, 
    {
      "op": "Activation", 
      "name": "cifarresnetv11_stage3_relu6_fwd", 
      "attrs": {
        "__profiler_scope__": "cifarresnetv11:stage3:relu6:", 
        "act_type": "relu"
      }, 
      "inputs": [[436, 0, 0]]
    }, 
    {
      "op": "null", 
      "name": "cifarresnetv11_stage3_conv14_weight", 
      "attrs": {
        "__dtype__": "0", 
        "__lr_mult__": "1.0", 
        "__profiler_scope__": "cifarresnetv11:stage3:", 
        "__shape__": "(64, 64, 3, 3)", 
        "__storage_type__": "0", 
        "__wd_mult__": "1.0"
      }, 
      "inputs": []
    }, 
    {
      "op": "Convolution", 
      "name": "cifarresnetv11_stage3_conv14_fwd", 
      "attrs": {
        "__profiler_scope__": "cifarresnetv11:stage3:conv14:", 
        "dilate": "(1, 1)", 
        "kernel": "(3, 3)", 
        "layout": "NCHW", 
        "no_bias": "True", 
        "num_filter": "64", 
        "num_group": "1", 
        "pad": "(1, 1)", 
        "stride": "(1, 1)"
      }, 
      "inputs": [[437, 0, 0], [438, 0, 0]]
    }, 
    {
      "op": "null", 
      "name": "cifarresnetv11_stage3_batchnorm14_gamma", 
      "attrs": {
        "__dtype__": "0", 
        "__init__": "ones", 
        "__lr_mult__": "1.0", 
        "__profiler_scope__": "cifarresnetv11:stage3:", 
        "__shape__": "(64,)", 
        "__storage_type__": "0", 
        "__wd_mult__": "1.0"
      }, 
      "inputs": []
    }, 
    {
      "op": "null", 
      "name": "cifarresnetv11_stage3_batchnorm14_beta", 
      "attrs": {
        "__dtype__": "0", 
        "__init__": "zeros", 
        "__lr_mult__": "1.0", 
        "__profiler_scope__": "cifarresnetv11:stage3:", 
        "__shape__": "(64,)", 
        "__storage_type__": "0", 
        "__wd_mult__": "1.0"
      }, 
      "inputs": []
    }, 
    {
      "op": "null", 
      "name": "cifarresnetv11_stage3_batchnorm14_running_mean", 
      "attrs": {
        "__dtype__": "0", 
        "__init__": "zeros", 
        "__lr_mult__": "1.0", 
        "__profiler_scope__": "cifarresnetv11:stage3:", 
        "__shape__": "(64,)", 
        "__storage_type__": "0", 
        "__wd_mult__": "1.0"
      }, 
      "inputs": []
    }, 
    {
      "op": "null", 
      "name": "cifarresnetv11_stage3_batchnorm14_running_var", 
      "attrs": {
        "__dtype__": "0", 
        "__init__": "ones", 
        "__lr_mult__": "1.0", 
        "__profiler_scope__": "cifarresnetv11:stage3:", 
        "__shape__": "(64,)", 
        "__storage_type__": "0", 
        "__wd_mult__": "1.0"
      }, 
      "inputs": []
    }, 
    {
      "op": "BatchNorm", 
      "name": "cifarresnetv11_stage3_batchnorm14_fwd", 
      "attrs": {
        "__profiler_scope__": "cifarresnetv11:stage3:batchnorm14:", 
        "axis": "1", 
        "eps": "1e-05", 
        "fix_gamma": "False", 
        "momentum": "0.9", 
        "use_global_stats": "False"
      }, 
      "inputs": [[439, 0, 0], [440, 0, 0], [441, 0, 0], [442, 0, 1], [443, 0, 1]]
    }, 
    {
      "op": "elemwise_add", 
      "name": "cifarresnetv11_stage3__plus6", 
      "attrs": {"__profiler_scope__": "cifarresnetv11:stage3:"}, 
      "inputs": [[429, 0, 0], [444, 0, 0]]
    }, 
    {
      "op": "Activation", 
      "name": "cifarresnetv11_stage3_activation6", 
      "attrs": {
        "__profiler_scope__": "cifarresnetv11:stage3:", 
        "act_type": "relu"
      }, 
      "inputs": [[445, 0, 0]]
    }, 
    {
      "op": "null", 
      "name": "cifarresnetv11_stage3_conv15_weight", 
      "attrs": {
        "__dtype__": "0", 
        "__lr_mult__": "1.0", 
        "__profiler_scope__": "cifarresnetv11:stage3:", 
        "__shape__": "(64, 64, 3, 3)", 
        "__storage_type__": "0", 
        "__wd_mult__": "1.0"
      }, 
      "inputs": []
    }, 
    {
      "op": "Convolution", 
      "name": "cifarresnetv11_stage3_conv15_fwd", 
      "attrs": {
        "__profiler_scope__": "cifarresnetv11:stage3:conv15:", 
        "dilate": "(1, 1)", 
        "kernel": "(3, 3)", 
        "layout": "NCHW", 
        "no_bias": "True", 
        "num_filter": "64", 
        "num_group": "1", 
        "pad": "(1, 1)", 
        "stride": "(1, 1)"
      }, 
      "inputs": [[446, 0, 0], [447, 0, 0]]
    }, 
    {
      "op": "null", 
      "name": "cifarresnetv11_stage3_batchnorm15_gamma", 
      "attrs": {
        "__dtype__": "0", 
        "__init__": "ones", 
        "__lr_mult__": "1.0", 
        "__profiler_scope__": "cifarresnetv11:stage3:", 
        "__shape__": "(64,)", 
        "__storage_type__": "0", 
        "__wd_mult__": "1.0"
      }, 
      "inputs": []
    }, 
    {
      "op": "null", 
      "name": "cifarresnetv11_stage3_batchnorm15_beta", 
      "attrs": {
        "__dtype__": "0", 
        "__init__": "zeros", 
        "__lr_mult__": "1.0", 
        "__profiler_scope__": "cifarresnetv11:stage3:", 
        "__shape__": "(64,)", 
        "__storage_type__": "0", 
        "__wd_mult__": "1.0"
      }, 
      "inputs": []
    }, 
    {
      "op": "null", 
      "name": "cifarresnetv11_stage3_batchnorm15_running_mean", 
      "attrs": {
        "__dtype__": "0", 
        "__init__": "zeros", 
        "__lr_mult__": "1.0", 
        "__profiler_scope__": "cifarresnetv11:stage3:", 
        "__shape__": "(64,)", 
        "__storage_type__": "0", 
        "__wd_mult__": "1.0"
      }, 
      "inputs": []
    }, 
    {
      "op": "null", 
      "name": "cifarresnetv11_stage3_batchnorm15_running_var", 
      "attrs": {
        "__dtype__": "0", 
        "__init__": "ones", 
        "__lr_mult__": "1.0", 
        "__profiler_scope__": "cifarresnetv11:stage3:", 
        "__shape__": "(64,)", 
        "__storage_type__": "0", 
        "__wd_mult__": "1.0"
      }, 
      "inputs": []
    }, 
    {
      "op": "BatchNorm", 
      "name": "cifarresnetv11_stage3_batchnorm15_fwd", 
      "attrs": {
        "__profiler_scope__": "cifarresnetv11:stage3:batchnorm15:", 
        "axis": "1", 
        "eps": "1e-05", 
        "fix_gamma": "False", 
        "momentum": "0.9", 
        "use_global_stats": "False"
      }, 
      "inputs": [[448, 0, 0], [449, 0, 0], [450, 0, 0], [451, 0, 1], [452, 0, 1]]
    }, 
    {
      "op": "Activation", 
      "name": "cifarresnetv11_stage3_relu7_fwd", 
      "attrs": {
        "__profiler_scope__": "cifarresnetv11:stage3:relu7:", 
        "act_type": "relu"
      }, 
      "inputs": [[453, 0, 0]]
    }, 
    {
      "op": "null", 
      "name": "cifarresnetv11_stage3_conv16_weight", 
      "attrs": {
        "__dtype__": "0", 
        "__lr_mult__": "1.0", 
        "__profiler_scope__": "cifarresnetv11:stage3:", 
        "__shape__": "(64, 64, 3, 3)", 
        "__storage_type__": "0", 
        "__wd_mult__": "1.0"
      }, 
      "inputs": []
    }, 
    {
      "op": "Convolution", 
      "name": "cifarresnetv11_stage3_conv16_fwd", 
      "attrs": {
        "__profiler_scope__": "cifarresnetv11:stage3:conv16:", 
        "dilate": "(1, 1)", 
        "kernel": "(3, 3)", 
        "layout": "NCHW", 
        "no_bias": "True", 
        "num_filter": "64", 
        "num_group": "1", 
        "pad": "(1, 1)", 
        "stride": "(1, 1)"
      }, 
      "inputs": [[454, 0, 0], [455, 0, 0]]
    }, 
    {
      "op": "null", 
      "name": "cifarresnetv11_stage3_batchnorm16_gamma", 
      "attrs": {
        "__dtype__": "0", 
        "__init__": "ones", 
        "__lr_mult__": "1.0", 
        "__profiler_scope__": "cifarresnetv11:stage3:", 
        "__shape__": "(64,)", 
        "__storage_type__": "0", 
        "__wd_mult__": "1.0"
      }, 
      "inputs": []
    }, 
    {
      "op": "null", 
      "name": "cifarresnetv11_stage3_batchnorm16_beta", 
      "attrs": {
        "__dtype__": "0", 
        "__init__": "zeros", 
        "__lr_mult__": "1.0", 
        "__profiler_scope__": "cifarresnetv11:stage3:", 
        "__shape__": "(64,)", 
        "__storage_type__": "0", 
        "__wd_mult__": "1.0"
      }, 
      "inputs": []
    }, 
    {
      "op": "null", 
      "name": "cifarresnetv11_stage3_batchnorm16_running_mean", 
      "attrs": {
        "__dtype__": "0", 
        "__init__": "zeros", 
        "__lr_mult__": "1.0", 
        "__profiler_scope__": "cifarresnetv11:stage3:", 
        "__shape__": "(64,)", 
        "__storage_type__": "0", 
        "__wd_mult__": "1.0"
      }, 
      "inputs": []
    }, 
    {
      "op": "null", 
      "name": "cifarresnetv11_stage3_batchnorm16_running_var", 
      "attrs": {
        "__dtype__": "0", 
        "__init__": "ones", 
        "__lr_mult__": "1.0", 
        "__profiler_scope__": "cifarresnetv11:stage3:", 
        "__shape__": "(64,)", 
        "__storage_type__": "0", 
        "__wd_mult__": "1.0"
      }, 
      "inputs": []
    }, 
    {
      "op": "BatchNorm", 
      "name": "cifarresnetv11_stage3_batchnorm16_fwd", 
      "attrs": {
        "__profiler_scope__": "cifarresnetv11:stage3:batchnorm16:", 
        "axis": "1", 
        "eps": "1e-05", 
        "fix_gamma": "False", 
        "momentum": "0.9", 
        "use_global_stats": "False"
      }, 
      "inputs": [[456, 0, 0], [457, 0, 0], [458, 0, 0], [459, 0, 1], [460, 0, 1]]
    }, 
    {
      "op": "elemwise_add", 
      "name": "cifarresnetv11_stage3__plus7", 
      "attrs": {"__profiler_scope__": "cifarresnetv11:stage3:"}, 
      "inputs": [[446, 0, 0], [461, 0, 0]]
    }, 
    {
      "op": "Activation", 
      "name": "cifarresnetv11_stage3_activation7", 
      "attrs": {
        "__profiler_scope__": "cifarresnetv11:stage3:", 
        "act_type": "relu"
      }, 
      "inputs": [[462, 0, 0]]
    }, 
    {
      "op": "null", 
      "name": "cifarresnetv11_stage3_conv17_weight", 
      "attrs": {
        "__dtype__": "0", 
        "__lr_mult__": "1.0", 
        "__profiler_scope__": "cifarresnetv11:stage3:", 
        "__shape__": "(64, 64, 3, 3)", 
        "__storage_type__": "0", 
        "__wd_mult__": "1.0"
      }, 
      "inputs": []
    }, 
    {
      "op": "Convolution", 
      "name": "cifarresnetv11_stage3_conv17_fwd", 
      "attrs": {
        "__profiler_scope__": "cifarresnetv11:stage3:conv17:", 
        "dilate": "(1, 1)", 
        "kernel": "(3, 3)", 
        "layout": "NCHW", 
        "no_bias": "True", 
        "num_filter": "64", 
        "num_group": "1", 
        "pad": "(1, 1)", 
        "stride": "(1, 1)"
      }, 
      "inputs": [[463, 0, 0], [464, 0, 0]]
    }, 
    {
      "op": "null", 
      "name": "cifarresnetv11_stage3_batchnorm17_gamma", 
      "attrs": {
        "__dtype__": "0", 
        "__init__": "ones", 
        "__lr_mult__": "1.0", 
        "__profiler_scope__": "cifarresnetv11:stage3:", 
        "__shape__": "(64,)", 
        "__storage_type__": "0", 
        "__wd_mult__": "1.0"
      }, 
      "inputs": []
    }, 
    {
      "op": "null", 
      "name": "cifarresnetv11_stage3_batchnorm17_beta", 
      "attrs": {
        "__dtype__": "0", 
        "__init__": "zeros", 
        "__lr_mult__": "1.0", 
        "__profiler_scope__": "cifarresnetv11:stage3:", 
        "__shape__": "(64,)", 
        "__storage_type__": "0", 
        "__wd_mult__": "1.0"
      }, 
      "inputs": []
    }, 
    {
      "op": "null", 
      "name": "cifarresnetv11_stage3_batchnorm17_running_mean", 
      "attrs": {
        "__dtype__": "0", 
        "__init__": "zeros", 
        "__lr_mult__": "1.0", 
        "__profiler_scope__": "cifarresnetv11:stage3:", 
        "__shape__": "(64,)", 
        "__storage_type__": "0", 
        "__wd_mult__": "1.0"
      }, 
      "inputs": []
    }, 
    {
      "op": "null", 
      "name": "cifarresnetv11_stage3_batchnorm17_running_var", 
      "attrs": {
        "__dtype__": "0", 
        "__init__": "ones", 
        "__lr_mult__": "1.0", 
        "__profiler_scope__": "cifarresnetv11:stage3:", 
        "__shape__": "(64,)", 
        "__storage_type__": "0", 
        "__wd_mult__": "1.0"
      }, 
      "inputs": []
    }, 
    {
      "op": "BatchNorm", 
      "name": "cifarresnetv11_stage3_batchnorm17_fwd", 
      "attrs": {
        "__profiler_scope__": "cifarresnetv11:stage3:batchnorm17:", 
        "axis": "1", 
        "eps": "1e-05", 
        "fix_gamma": "False", 
        "momentum": "0.9", 
        "use_global_stats": "False"
      }, 
      "inputs": [[465, 0, 0], [466, 0, 0], [467, 0, 0], [468, 0, 1], [469, 0, 1]]
    }, 
    {
      "op": "Activation", 
      "name": "cifarresnetv11_stage3_relu8_fwd", 
      "attrs": {
        "__profiler_scope__": "cifarresnetv11:stage3:relu8:", 
        "act_type": "relu"
      }, 
      "inputs": [[470, 0, 0]]
    }, 
    {
      "op": "null", 
      "name": "cifarresnetv11_stage3_conv18_weight", 
      "attrs": {
        "__dtype__": "0", 
        "__lr_mult__": "1.0", 
        "__profiler_scope__": "cifarresnetv11:stage3:", 
        "__shape__": "(64, 64, 3, 3)", 
        "__storage_type__": "0", 
        "__wd_mult__": "1.0"
      }, 
      "inputs": []
    }, 
    {
      "op": "Convolution", 
      "name": "cifarresnetv11_stage3_conv18_fwd", 
      "attrs": {
        "__profiler_scope__": "cifarresnetv11:stage3:conv18:", 
        "dilate": "(1, 1)", 
        "kernel": "(3, 3)", 
        "layout": "NCHW", 
        "no_bias": "True", 
        "num_filter": "64", 
        "num_group": "1", 
        "pad": "(1, 1)", 
        "stride": "(1, 1)"
      }, 
      "inputs": [[471, 0, 0], [472, 0, 0]]
    }, 
    {
      "op": "null", 
      "name": "cifarresnetv11_stage3_batchnorm18_gamma", 
      "attrs": {
        "__dtype__": "0", 
        "__init__": "ones", 
        "__lr_mult__": "1.0", 
        "__profiler_scope__": "cifarresnetv11:stage3:", 
        "__shape__": "(64,)", 
        "__storage_type__": "0", 
        "__wd_mult__": "1.0"
      }, 
      "inputs": []
    }, 
    {
      "op": "null", 
      "name": "cifarresnetv11_stage3_batchnorm18_beta", 
      "attrs": {
        "__dtype__": "0", 
        "__init__": "zeros", 
        "__lr_mult__": "1.0", 
        "__profiler_scope__": "cifarresnetv11:stage3:", 
        "__shape__": "(64,)", 
        "__storage_type__": "0", 
        "__wd_mult__": "1.0"
      }, 
      "inputs": []
    }, 
    {
      "op": "null", 
      "name": "cifarresnetv11_stage3_batchnorm18_running_mean", 
      "attrs": {
        "__dtype__": "0", 
        "__init__": "zeros", 
        "__lr_mult__": "1.0", 
        "__profiler_scope__": "cifarresnetv11:stage3:", 
        "__shape__": "(64,)", 
        "__storage_type__": "0", 
        "__wd_mult__": "1.0"
      }, 
      "inputs": []
    }, 
    {
      "op": "null", 
      "name": "cifarresnetv11_stage3_batchnorm18_running_var", 
      "attrs": {
        "__dtype__": "0", 
        "__init__": "ones", 
        "__lr_mult__": "1.0", 
        "__profiler_scope__": "cifarresnetv11:stage3:", 
        "__shape__": "(64,)", 
        "__storage_type__": "0", 
        "__wd_mult__": "1.0"
      }, 
      "inputs": []
    }, 
    {
      "op": "BatchNorm", 
      "name": "cifarresnetv11_stage3_batchnorm18_fwd", 
      "attrs": {
        "__profiler_scope__": "cifarresnetv11:stage3:batchnorm18:", 
        "axis": "1", 
        "eps": "1e-05", 
        "fix_gamma": "False", 
        "momentum": "0.9", 
        "use_global_stats": "False"
      }, 
      "inputs": [[473, 0, 0], [474, 0, 0], [475, 0, 0], [476, 0, 1], [477, 0, 1]]
    }, 
    {
      "op": "elemwise_add", 
      "name": "cifarresnetv11_stage3__plus8", 
      "attrs": {"__profiler_scope__": "cifarresnetv11:stage3:"}, 
      "inputs": [[463, 0, 0], [478, 0, 0]]
    }, 
    {
      "op": "Activation", 
      "name": "cifarresnetv11_stage3_activation8", 
      "attrs": {
        "__profiler_scope__": "cifarresnetv11:stage3:", 
        "act_type": "relu"
      }, 
      "inputs": [[479, 0, 0]]
    }, 
    {
      "op": "Pooling", 
      "name": "cifarresnetv11_pool0_fwd", 
      "attrs": {
        "__profiler_scope__": "cifarresnetv11:pool0:", 
        "global_pool": "True", 
        "kernel": "(1, 1)", 
        "layout": "NCHW", 
        "pad": "(0, 0)", 
        "pool_type": "avg", 
        "pooling_convention": "full", 
        "stride": "(1, 1)"
      }, 
      "inputs": [[480, 0, 0]]
    }, 
    {
      "op": "null", 
      "name": "cifarresnetv11_dense0_weight", 
      "attrs": {
        "__dtype__": "0", 
        "__lr_mult__": "1.0", 
        "__profiler_scope__": "cifarresnetv11:", 
        "__shape__": "(10, 64)", 
        "__storage_type__": "0", 
        "__wd_mult__": "1.0"
      }, 
      "inputs": []
    }, 
    {
      "op": "null", 
      "name": "cifarresnetv11_dense0_bias", 
      "attrs": {
        "__dtype__": "0", 
        "__init__": "zeros", 
        "__lr_mult__": "1.0", 
        "__profiler_scope__": "cifarresnetv11:", 
        "__shape__": "(10,)", 
        "__storage_type__": "0", 
        "__wd_mult__": "1.0"
      }, 
      "inputs": []
    }, 
    {
      "op": "FullyConnected", 
      "name": "cifarresnetv11_dense0_fwd", 
      "attrs": {
        "__profiler_scope__": "cifarresnetv11:dense0:", 
        "flatten": "True", 
        "no_bias": "False", 
        "num_hidden": "10"
      }, 
      "inputs": [[481, 0, 0], [482, 0, 0], [483, 0, 0]]
    }
  ], 
  "arg_nodes": [
    0, 
    1, 
    3, 
    4, 
    5, 
    6, 
    8, 
    10, 
    11, 
    12, 
    13, 
    16, 
    18, 
    19, 
    20, 
    21, 
    25, 
    27, 
    28, 
    29, 
    30, 
    33, 
    35, 
    36, 
    37, 
    38, 
    42, 
    44, 
    45, 
    46, 
    47, 
    50, 
    52, 
    53, 
    54, 
    55, 
    59, 
    61, 
    62, 
    63, 
    64, 
    67, 
    69, 
    70, 
    71, 
    72, 
    76, 
    78, 
    79, 
    80, 
    81, 
    84, 
    86, 
    87, 
    88, 
    89, 
    93, 
    95, 
    96, 
    97, 
    98, 
    101, 
    103, 
    104, 
    105, 
    106, 
    110, 
    112, 
    113, 
    114, 
    115, 
    118, 
    120, 
    121, 
    122, 
    123, 
    127, 
    129, 
    130, 
    131, 
    132, 
    135, 
    137, 
    138, 
    139, 
    140, 
    144, 
    146, 
    147, 
    148, 
    149, 
    152, 
    154, 
    155, 
    156, 
    157, 
    161, 
    163, 
    164, 
    165, 
    166, 
    168, 
    170, 
    171, 
    172, 
    173, 
    176, 
    178, 
    179, 
    180, 
    181, 
    185, 
    187, 
    188, 
    189, 
    190, 
    193, 
    195, 
    196, 
    197, 
    198, 
    202, 
    204, 
    205, 
    206, 
    207, 
    210, 
    212, 
    213, 
    214, 
    215, 
    219, 
    221, 
    222, 
    223, 
    224, 
    227, 
    229, 
    230, 
    231, 
    232, 
    236, 
    238, 
    239, 
    240, 
    241, 
    244, 
    246, 
    247, 
    248, 
    249, 
    253, 
    255, 
    256, 
    257, 
    258, 
    261, 
    263, 
    264, 
    265, 
    266, 
    270, 
    272, 
    273, 
    274, 
    275, 
    278, 
    280, 
    281, 
    282, 
    283, 
    287, 
    289, 
    290, 
    291, 
    292, 
    295, 
    297, 
    298, 
    299, 
    300, 
    304, 
    306, 
    307, 
    308, 
    309, 
    312, 
    314, 
    315, 
    316, 
    317, 
    321, 
    323, 
    324, 
    325, 
    326, 
    328, 
    330, 
    331, 
    332, 
    333, 
    336, 
    338, 
    339, 
    340, 
    341, 
    345, 
    347, 
    348, 
    349, 
    350, 
    353, 
    355, 
    356, 
    357, 
    358, 
    362, 
    364, 
    365, 
    366, 
    367, 
    370, 
    372, 
    373, 
    374, 
    375, 
    379, 
    381, 
    382, 
    383, 
    384, 
    387, 
    389, 
    390, 
    391, 
    392, 
    396, 
    398, 
    399, 
    400, 
    401, 
    404, 
    406, 
    407, 
    408, 
    409, 
    413, 
    415, 
    416, 
    417, 
    418, 
    421, 
    423, 
    424, 
    425, 
    426, 
    430, 
    432, 
    433, 
    434, 
    435, 
    438, 
    440, 
    441, 
    442, 
    443, 
    447, 
    449, 
    450, 
    451, 
    452, 
    455, 
    457, 
    458, 
    459, 
    460, 
    464, 
    466, 
    467, 
    468, 
    469, 
    472, 
    474, 
    475, 
    476, 
    477, 
    482, 
    483
  ], 
  "node_row_ptr": [
    0, 
    1, 
    2, 
    3, 
    4, 
    5, 
    6, 
    7, 
    10, 
    11, 
    12, 
    13, 
    14, 
    15, 
    16, 
    19, 
    20, 
    21, 
    22, 
    23, 
    24, 
    25, 
    26, 
    29, 
    30, 
    31, 
    32, 
    33, 
    34, 
    35, 
    36, 
    37, 
    40, 
    41, 
    42, 
    43, 
    44, 
    45, 
    46, 
    47, 
    50, 
    51, 
    52, 
    53, 
    54, 
    55, 
    56, 
    57, 
    58, 
    61, 
    62, 
    63, 
    64, 
    65, 
    66, 
    67, 
    68, 
    71, 
    72, 
    73, 
    74, 
    75, 
    76, 
    77, 
    78, 
    79, 
    82, 
    83, 
    84, 
    85, 
    86, 
    87, 
    88, 
    89, 
    92, 
    93, 
    94, 
    95, 
    96, 
    97, 
    98, 
    99, 
    100, 
    103, 
    104, 
    105, 
    106, 
    107, 
    108, 
    109, 
    110, 
    113, 
    114, 
    115, 
    116, 
    117, 
    118, 
    119, 
    120, 
    121, 
    124, 
    125, 
    126, 
    127, 
    128, 
    129, 
    130, 
    131, 
    134, 
    135, 
    136, 
    137, 
    138, 
    139, 
    140, 
    141, 
    142, 
    145, 
    146, 
    147, 
    148, 
    149, 
    150, 
    151, 
    152, 
    155, 
    156, 
    157, 
    158, 
    159, 
    160, 
    161, 
    162, 
    163, 
    166, 
    167, 
    168, 
    169, 
    170, 
    171, 
    172, 
    173, 
    176, 
    177, 
    178, 
    179, 
    180, 
    181, 
    182, 
    183, 
    184, 
    187, 
    188, 
    189, 
    190, 
    191, 
    192, 
    193, 
    194, 
    197, 
    198, 
    199, 
    200, 
    201, 
    202, 
    203, 
    204, 
    205, 
    208, 
    209, 
    210, 
    211, 
    212, 
    213, 
    214, 
    217, 
    218, 
    219, 
    220, 
    221, 
    222, 
    223, 
    224, 
    227, 
    228, 
    229, 
    230, 
    231, 
    232, 
    233, 
    234, 
    235, 
    238, 
    239, 
    240, 
    241, 
    242, 
    243, 
    244, 
    245, 
    248, 
    249, 
    250, 
    251, 
    252, 
    253, 
    254, 
    255, 
    256, 
    259, 
    260, 
    261, 
    262, 
    263, 
    264, 
    265, 
    266, 
    269, 
    270, 
    271, 
    272, 
    273, 
    274, 
    275, 
    276, 
    277, 
    280, 
    281, 
    282, 
    283, 
    284, 
    285, 
    286, 
    287, 
    290, 
    291, 
    292, 
    293, 
    294, 
    295, 
    296, 
    297, 
    298, 
    301, 
    302, 
    303, 
    304, 
    305, 
    306, 
    307, 
    308, 
    311, 
    312, 
    313, 
    314, 
    315, 
    316, 
    317, 
    318, 
    319, 
    322, 
    323, 
    324, 
    325, 
    326, 
    327, 
    328, 
    329, 
    332, 
    333, 
    334, 
    335, 
    336, 
    337, 
    338, 
    339, 
    340, 
    343, 
    344, 
    345, 
    346, 
    347, 
    348, 
    349, 
    350, 
    353, 
    354, 
    355, 
    356, 
    357, 
    358, 
    359, 
    360, 
    361, 
    364, 
    365, 
    366, 
    367, 
    368, 
    369, 
    370, 
    371, 
    374, 
    375, 
    376, 
    377, 
    378, 
    379, 
    380, 
    381, 
    382, 
    385, 
    386, 
    387, 
    388, 
    389, 
    390, 
    391, 
    392, 
    395, 
    396, 
    397, 
    398, 
    399, 
    400, 
    401, 
    402, 
    403, 
    406, 
    407, 
    408, 
    409, 
    410, 
    411, 
    412, 
    415, 
    416, 
    417, 
    418, 
    419, 
    420, 
    421, 
    422, 
    425, 
    426, 
    427, 
    428, 
    429, 
    430, 
    431, 
    432, 
    433, 
    436, 
    437, 
    438, 
    439, 
    440, 
    441, 
    442, 
    443, 
    446, 
    447, 
    448, 
    449, 
    450, 
    451, 
    452, 
    453, 
    454, 
    457, 
    458, 
    459, 
    460, 
    461, 
    462, 
    463, 
    464, 
    467, 
    468, 
    469, 
    470, 
    471, 
    472, 
    473, 
    474, 
    475, 
    478, 
    479, 
    480, 
    481, 
    482, 
    483, 
    484, 
    485, 
    488, 
    489, 
    490, 
    491, 
    492, 
    493, 
    494, 
    495, 
    496, 
    499, 
    500, 
    501, 
    502, 
    503, 
    504, 
    505, 
    506, 
    509, 
    510, 
    511, 
    512, 
    513, 
    514, 
    515, 
    516, 
    517, 
    520, 
    521, 
    522, 
    523, 
    524, 
    525, 
    526, 
    527, 
    530, 
    531, 
    532, 
    533, 
    534, 
    535, 
    536, 
    537, 
    538, 
    541, 
    542, 
    543, 
    544, 
    545, 
    546, 
    547, 
    548, 
    551, 
    552, 
    553, 
    554, 
    555, 
    556, 
    557, 
    558, 
    559, 
    562, 
    563, 
    564, 
    565, 
    566, 
    567, 
    568, 
    569, 
    572, 
    573, 
    574, 
    575, 
    576, 
    577, 
    578, 
    579, 
    580, 
    583, 
    584, 
    585, 
    586, 
    587, 
    588, 
    589, 
    590, 
    593, 
    594, 
    595, 
    596, 
    597, 
    598, 
    599
  ], 
  "heads": [[484, 0, 0]], 
  "attrs": {"mxnet_version": ["int", 20000]}
}