{
  "nodes": [
    {
      "op": "null", 
      "name": "data", 
      "attrs": {"__profiler_scope__": "<unk>:"}, 
      "inputs": []
    }, 
    {
      "op": "null", 
      "name": "cifarresnetv21_batchnorm0_gamma", 
      "attrs": {
        "__dtype__": "0", 
        "__init__": "ones", 
        "__lr_mult__": "1.0", 
        "__profiler_scope__": "cifarresnetv21:", 
        "__shape__": "(3,)", 
        "__storage_type__": "0", 
        "__wd_mult__": "1.0"
      }, 
      "inputs": []
    }, 
    {
      "op": "null", 
      "name": "cifarresnetv21_batchnorm0_beta", 
      "attrs": {
        "__dtype__": "0", 
        "__init__": "zeros", 
        "__lr_mult__": "1.0", 
        "__profiler_scope__": "cifarresnetv21:", 
        "__shape__": "(3,)", 
        "__storage_type__": "0", 
        "__wd_mult__": "1.0"
      }, 
      "inputs": []
    }, 
    {
      "op": "null", 
      "name": "cifarresnetv21_batchnorm0_running_mean", 
      "attrs": {
        "__dtype__": "0", 
        "__init__": "zeros", 
        "__lr_mult__": "1.0", 
        "__profiler_scope__": "cifarresnetv21:", 
        "__shape__": "(3,)", 
        "__storage_type__": "0", 
        "__wd_mult__": "1.0"
      }, 
      "inputs": []
    }, 
    {
      "op": "null", 
      "name": "cifarresnetv21_batchnorm0_running_var", 
      "attrs": {
        "__dtype__": "0", 
        "__init__": "ones", 
        "__lr_mult__": "1.0", 
        "__profiler_scope__": "cifarresnetv21:", 
        "__shape__": "(3,)", 
        "__storage_type__": "0", 
        "__wd_mult__": "1.0"
      }, 
      "inputs": []
    }, 
    {
      "op": "BatchNorm", 
      "name": "cifarresnetv21_batchnorm0_fwd", 
      "attrs": {
        "__profiler_scope__": "cifarresnetv21:batchnorm0:", 
        "axis": "1", 
        "eps": "1e-05", 
        "fix_gamma": "False", 
        "momentum": "0.9", 
        "use_global_stats": "False"
      }, 
      "inputs": [[0, 0, 0], [1, 0, 0], [2, 0, 0], [3, 0, 1], [4, 0, 1]]
    }, 
    {
      "op": "null", 
      "name": "cifarresnetv21_conv0_weight", 
      "attrs": {
        "__dtype__": "0", 
        "__lr_mult__": "1.0", 
        "__profiler_scope__": "cifarresnetv21:", 
        "__shape__": "(16, 3, 3, 3)", 
        "__storage_type__": "0", 
        "__wd_mult__": "1.0"
      }, 
      "inputs": []
    }, 
    {
      "op": "Convolution", 
      "name": "cifarresnetv21_conv0_fwd", 
      "attrs": {
        "__profiler_scope__": "cifarresnetv21:conv0:", 
        "dilate": "(1, 1)", 
        "kernel": "(3, 3)", 
        "layout": "NCHW", 
        "no_bias": "True", 
        "num_filter": "16", 
        "num_group": "1", 
        "pad": "(1, 1)", 
        "stride": "(1, 1)"
      }, 
      "inputs": [[5, 0, 0], [6, 0, 0]]
    }, 
    {
      "op": "null", 
      "name": "cifarresnetv21_stage1_batchnorm0_gamma", 
      "attrs": {
        "__dtype__": "0", 
        "__init__": "ones", 
        "__lr_mult__": "1.0", 
        "__profiler_scope__": "cifarresnetv21:stage1:", 
        "__shape__": "(16,)", 
        "__storage_type__": "0", 
        "__wd_mult__": "1.0"
      }, 
      "inputs": []
    }, 
    {
      "op": "null", 
      "name": "cifarresnetv21_stage1_batchnorm0_beta", 
      "attrs": {
        "__dtype__": "0", 
        "__init__": "zeros", 
        "__lr_mult__": "1.0", 
        "__profiler_scope__": "cifarresnetv21:stage1:", 
        "__shape__": "(16,)", 
        "__storage_type__": "0", 
        "__wd_mult__": "1.0"
      }, 
      "inputs": []
    }, 
    {
      "op": "null", 
      "name": "cifarresnetv21_stage1_batchnorm0_running_mean", 
      "attrs": {
        "__dtype__": "0", 
        "__init__": "zeros", 
        "__lr_mult__": "1.0", 
        "__profiler_scope__": "cifarresnetv21:stage1:", 
        "__shape__": "(16,)", 
        "__storage_type__": "0", 
        "__wd_mult__": "1.0"
      }, 
      "inputs": []
    }, 
    {
      "op": "null", 
      "name": "cifarresnetv21_stage1_batchnorm0_running_var", 
      "attrs": {
        "__dtype__": "0", 
        "__init__": "ones", 
        "__lr_mult__": "1.0", 
        "__profiler_scope__": "cifarresnetv21:stage1:", 
        "__shape__": "(16,)", 
        "__storage_type__": "0", 
        "__wd_mult__": "1.0"
      }, 
      "inputs": []
    }, 
    {
      "op": "BatchNorm", 
      "name": "cifarresnetv21_stage1_batchnorm0_fwd", 
      "attrs": {
        "__profiler_scope__": "cifarresnetv21:stage1:batchnorm0:", 
        "axis": "1", 
        "eps": "1e-05", 
        "fix_gamma": "False", 
        "momentum": "0.9", 
        "use_global_stats": "False"
      }, 
      "inputs": [[7, 0, 0], [8, 0, 0], [9, 0, 0], [10, 0, 1], [11, 0, 1]]
    }, 
    {
      "op": "Activation", 
      "name": "cifarresnetv21_stage1_activation0", 
      "attrs": {
        "__profiler_scope__": "cifarresnetv21:stage1:", 
        "act_type": "relu"
      }, 
      "inputs": [[12, 0, 0]]
    }, 
    {
      "op": "null", 
      "name": "cifarresnetv21_stage1_conv0_weight", 
      "attrs": {
        "__dtype__": "0", 
        "__lr_mult__": "1.0", 
        "__profiler_scope__": "cifarresnetv21:stage1:", 
        "__shape__": "(16, 16, 3, 3)", 
        "__storage_type__": "0", 
        "__wd_mult__": "1.0"
      }, 
      "inputs": []
    }, 
    {
      "op": "Convolution", 
      "name": "cifarresnetv21_stage1_conv0_fwd", 
      "attrs": {
        "__profiler_scope__": "cifarresnetv21:stage1:conv0:", 
        "dilate": "(1, 1)", 
        "kernel": "(3, 3)", 
        "layout": "NCHW", 
        "no_bias": "True", 
        "num_filter": "16", 
        "num_group": "1", 
        "pad": "(1, 1)", 
        "stride": "(1, 1)"
      }, 
      "inputs": [[13, 0, 0], [14, 0, 0]]
    }, 
    {
      "op": "null", 
      "name": "cifarresnetv21_stage1_batchnorm1_gamma", 
      "attrs": {
        "__dtype__": "0", 
        "__init__": "ones", 
        "__lr_mult__": "1.0", 
        "__profiler_scope__": "cifarresnetv21:stage1:", 
        "__shape__": "(16,)", 
        "__storage_type__": "0", 
        "__wd_mult__": "1.0"
      }, 
      "inputs": []
    }, 
    {
      "op": "null", 
      "name": "cifarresnetv21_stage1_batchnorm1_beta", 
      "attrs": {
        "__dtype__": "0", 
        "__init__": "zeros", 
        "__lr_mult__": "1.0", 
        "__profiler_scope__": "cifarresnetv21:stage1:", 
        "__shape__": "(16,)", 
        "__storage_type__": "0", 
        "__wd_mult__": "1.0"
      }, 
      "inputs": []
    }, 
    {
      "op": "null", 
      "name": "cifarresnetv21_stage1_batchnorm1_running_mean", 
      "attrs": {
        "__dtype__": "0", 
        "__init__": "zeros", 
        "__lr_mult__": "1.0", 
        "__profiler_scope__": "cifarresnetv21:stage1:", 
        "__shape__": "(16,)", 
        "__storage_type__": "0", 
        "__wd_mult__": "1.0"
      }, 
      "inputs": []
    }, 
    {
      "op": "null", 
      "name": "cifarresnetv21_stage1_batchnorm1_running_var", 
      "attrs": {
        "__dtype__": "0", 
        "__init__": "ones", 
        "__lr_mult__": "1.0", 
        "__profiler_scope__": "cifarresnetv21:stage1:", 
        "__shape__": "(16,)", 
        "__storage_type__": "0", 
        "__wd_mult__": "1.0"
      }, 
      "inputs": []
    }, 
    {
      "op": "BatchNorm", 
      "name": "cifarresnetv21_stage1_batchnorm1_fwd", 
      "attrs": {
        "__profiler_scope__": "cifarresnetv21:stage1:batchnorm1:", 
        "axis": "1", 
        "eps": "1e-05", 
        "fix_gamma": "False", 
        "momentum": "0.9", 
        "use_global_stats": "False"
      }, 
      "inputs": [[15, 0, 0], [16, 0, 0], [17, 0, 0], [18, 0, 1], [19, 0, 1]]
    }, 
    {
      "op": "Activation", 
      "name": "cifarresnetv21_stage1_activation1", 
      "attrs": {
        "__profiler_scope__": "cifarresnetv21:stage1:", 
        "act_type": "relu"
      }, 
      "inputs": [[20, 0, 0]]
    }, 
    {
      "op": "null", 
      "name": "cifarresnetv21_stage1_conv1_weight", 
      "attrs": {
        "__dtype__": "0", 
        "__lr_mult__": "1.0", 
        "__profiler_scope__": "cifarresnetv21:stage1:", 
        "__shape__": "(16, 16, 3, 3)", 
        "__storage_type__": "0", 
        "__wd_mult__": "1.0"
      }, 
      "inputs": []
    }, 
    {
      "op": "Convolution", 
      "name": "cifarresnetv21_stage1_conv1_fwd", 
      "attrs": {
        "__profiler_scope__": "cifarresnetv21:stage1:conv1:", 
        "dilate": "(1, 1)", 
        "kernel": "(3, 3)", 
        "layout": "NCHW", 
        "no_bias": "True", 
        "num_filter": "16", 
        "num_group": "1", 
        "pad": "(1, 1)", 
        "stride": "(1, 1)"
      }, 
      "inputs": [[21, 0, 0], [22, 0, 0]]
    }, 
    {
      "op": "elemwise_add", 
      "name": "cifarresnetv21_stage1__plus0", 
      "attrs": {"__profiler_scope__": "cifarresnetv21:stage1:"}, 
      "inputs": [[23, 0, 0], [7, 0, 0]]
    }, 
    {
      "op": "null", 
      "name": "cifarresnetv21_stage1_batchnorm2_gamma", 
      "attrs": {
        "__dtype__": "0", 
        "__init__": "ones", 
        "__lr_mult__": "1.0", 
        "__profiler_scope__": "cifarresnetv21:stage1:", 
        "__shape__": "(16,)", 
        "__storage_type__": "0", 
        "__wd_mult__": "1.0"
      }, 
      "inputs": []
    }, 
    {
      "op": "null", 
      "name": "cifarresnetv21_stage1_batchnorm2_beta", 
      "attrs": {
        "__dtype__": "0", 
        "__init__": "zeros", 
        "__lr_mult__": "1.0", 
        "__profiler_scope__": "cifarresnetv21:stage1:", 
        "__shape__": "(16,)", 
        "__storage_type__": "0", 
        "__wd_mult__": "1.0"
      }, 
      "inputs": []
    }, 
    {
      "op": "null", 
      "name": "cifarresnetv21_stage1_batchnorm2_running_mean", 
      "attrs": {
        "__dtype__": "0", 
        "__init__": "zeros", 
        "__lr_mult__": "1.0", 
        "__profiler_scope__": "cifarresnetv21:stage1:", 
        "__shape__": "(16,)", 
        "__storage_type__": "0", 
        "__wd_mult__": "1.0"
      }, 
      "inputs": []
    }, 
    {
      "op": "null", 
      "name": "cifarresnetv21_stage1_batchnorm2_running_var", 
      "attrs": {
        "__dtype__": "0", 
        "__init__": "ones", 
        "__lr_mult__": "1.0", 
        "__profiler_scope__": "cifarresnetv21:stage1:", 
        "__shape__": "(16,)", 
        "__storage_type__": "0", 
        "__wd_mult__": "1.0"
      }, 
      "inputs": []
    }, 
    {
      "op": "BatchNorm", 
      "name": "cifarresnetv21_stage1_batchnorm2_fwd", 
      "attrs": {
        "__profiler_scope__": "cifarresnetv21:stage1:batchnorm2:", 
        "axis": "1", 
        "eps": "1e-05", 
        "fix_gamma": "False", 
        "momentum": "0.9", 
        "use_global_stats": "False"
      }, 
      "inputs": [[24, 0, 0], [25, 0, 0], [26, 0, 0], [27, 0, 1], [28, 0, 1]]
    }, 
    {
      "op": "Activation", 
      "name": "cifarresnetv21_stage1_activation2", 
      "attrs": {
        "__profiler_scope__": "cifarresnetv21:stage1:", 
        "act_type": "relu"
      }, 
      "inputs": [[29, 0, 0]]
    }, 
    {
      "op": "null", 
      "name": "cifarresnetv21_stage1_conv2_weight", 
      "attrs": {
        "__dtype__": "0", 
        "__lr_mult__": "1.0", 
        "__profiler_scope__": "cifarresnetv21:stage1:", 
        "__shape__": "(16, 16, 3, 3)", 
        "__storage_type__": "0", 
        "__wd_mult__": "1.0"
      }, 
      "inputs": []
    }, 
    {
      "op": "Convolution", 
      "name": "cifarresnetv21_stage1_conv2_fwd", 
      "attrs": {
        "__profiler_scope__": "cifarresnetv21:stage1:conv2:", 
        "dilate": "(1, 1)", 
        "kernel": "(3, 3)", 
        "layout": "NCHW", 
        "no_bias": "True", 
        "num_filter": "16", 
        "num_group": "1", 
        "pad": "(1, 1)", 
        "stride": "(1, 1)"
      }, 
      "inputs": [[30, 0, 0], [31, 0, 0]]
    }, 
    {
      "op": "null", 
      "name": "cifarresnetv21_stage1_batchnorm3_gamma", 
      "attrs": {
        "__dtype__": "0", 
        "__init__": "ones", 
        "__lr_mult__": "1.0", 
        "__profiler_scope__": "cifarresnetv21:stage1:", 
        "__shape__": "(16,)", 
        "__storage_type__": "0", 
        "__wd_mult__": "1.0"
      }, 
      "inputs": []
    }, 
    {
      "op": "null", 
      "name": "cifarresnetv21_stage1_batchnorm3_beta", 
      "attrs": {
        "__dtype__": "0", 
        "__init__": "zeros", 
        "__lr_mult__": "1.0", 
        "__profiler_scope__": "cifarresnetv21:stage1:", 
        "__shape__": "(16,)", 
        "__storage_type__": "0", 
        "__wd_mult__": "1.0"
      }, 
      "inputs": []
    }, 
    {
      "op": "null", 
      "name": "cifarresnetv21_stage1_batchnorm3_running_mean", 
      "attrs": {
        "__dtype__": "0", 
        "__init__": "zeros", 
        "__lr_mult__": "1.0", 
        "__profiler_scope__": "cifarresnetv21:stage1:", 
        "__shape__": "(16,)", 
        "__storage_type__": "0", 
        "__wd_mult__": "1.0"
      }, 
      "inputs": []
    }, 
    {
      "op": "null", 
      "name": "cifarresnetv21_stage1_batchnorm3_running_var", 
      "attrs": {
        "__dtype__": "0", 
        "__init__": "ones", 
        "__lr_mult__": "1.0", 
        "__profiler_scope__": "cifarresnetv21:stage1:", 
        "__shape__": "(16,)", 
        "__storage_type__": "0", 
        "__wd_mult__": "1.0"
      }, 
      "inputs": []
    }, 
    {
      "op": "BatchNorm", 
      "name": "cifarresnetv21_stage1_batchnorm3_fwd", 
      "attrs": {
        "__profiler_scope__": "cifarresnetv21:stage1:batchnorm3:", 
        "axis": "1", 
        "eps": "1e-05", 
        "fix_gamma": "False", 
        "momentum": "0.9", 
        "use_global_stats": "False"
      }, 
      "inputs": [[32, 0, 0], [33, 0, 0], [34, 0, 0], [35, 0, 1], [36, 0, 1]]
    }, 
    {
      "op": "Activation", 
      "name": "cifarresnetv21_stage1_activation3", 
      "attrs": {
        "__profiler_scope__": "cifarresnetv21:stage1:", 
        "act_type": "relu"
      }, 
      "inputs": [[37, 0, 0]]
    }, 
    {
      "op": "null", 
      "name": "cifarresnetv21_stage1_conv3_weight", 
      "attrs": {
        "__dtype__": "0", 
        "__lr_mult__": "1.0", 
        "__profiler_scope__": "cifarresnetv21:stage1:", 
        "__shape__": "(16, 16, 3, 3)", 
        "__storage_type__": "0", 
        "__wd_mult__": "1.0"
      }, 
      "inputs": []
    }, 
    {
      "op": "Convolution", 
      "name": "cifarresnetv21_stage1_conv3_fwd", 
      "attrs": {
        "__profiler_scope__": "cifarresnetv21:stage1:conv3:", 
        "dilate": "(1, 1)", 
        "kernel": "(3, 3)", 
        "layout": "NCHW", 
        "no_bias": "True", 
        "num_filter": "16", 
        "num_group": "1", 
        "pad": "(1, 1)", 
        "stride": "(1, 1)"
      }, 
      "inputs": [[38, 0, 0], [39, 0, 0]]
    }, 
    {
      "op": "elemwise_add", 
      "name": "cifarresnetv21_stage1__plus1", 
      "attrs": {"__profiler_scope__": "cifarresnetv21:stage1:"}, 
      "inputs": [[40, 0, 0], [24, 0, 0]]
    }, 
    {
      "op": "null", 
      "name": "cifarresnetv21_stage1_batchnorm4_gamma", 
      "attrs": {
        "__dtype__": "0", 
        "__init__": "ones", 
        "__lr_mult__": "1.0", 
        "__profiler_scope__": "cifarresnetv21:stage1:", 
        "__shape__": "(16,)", 
        "__storage_type__": "0", 
        "__wd_mult__": "1.0"
      }, 
      "inputs": []
    }, 
    {
      "op": "null", 
      "name": "cifarresnetv21_stage1_batchnorm4_beta", 
      "attrs": {
        "__dtype__": "0", 
        "__init__": "zeros", 
        "__lr_mult__": "1.0", 
        "__profiler_scope__": "cifarresnetv21:stage1:", 
        "__shape__": "(16,)", 
        "__storage_type__": "0", 
        "__wd_mult__": "1.0"
      }, 
      "inputs": []
    }, 
    {
      "op": "null", 
      "name": "cifarresnetv21_stage1_batchnorm4_running_mean", 
      "attrs": {
        "__dtype__": "0", 
        "__init__": "zeros", 
        "__lr_mult__": "1.0", 
        "__profiler_scope__": "cifarresnetv21:stage1:", 
        "__shape__": "(16,)", 
        "__storage_type__": "0", 
        "__wd_mult__": "1.0"
      }, 
      "inputs": []
    }, 
    {
      "op": "null", 
      "name": "cifarresnetv21_stage1_batchnorm4_running_var", 
      "attrs": {
        "__dtype__": "0", 
        "__init__": "ones", 
        "__lr_mult__": "1.0", 
        "__profiler_scope__": "cifarresnetv21:stage1:", 
        "__shape__": "(16,)", 
        "__storage_type__": "0", 
        "__wd_mult__": "1.0"
      }, 
      "inputs": []
    }, 
    {
      "op": "BatchNorm", 
      "name": "cifarresnetv21_stage1_batchnorm4_fwd", 
      "attrs": {
        "__profiler_scope__": "cifarresnetv21:stage1:batchnorm4:", 
        "axis": "1", 
        "eps": "1e-05", 
        "fix_gamma": "False", 
        "momentum": "0.9", 
        "use_global_stats": "False"
      }, 
      "inputs": [[41, 0, 0], [42, 0, 0], [43, 0, 0], [44, 0, 1], [45, 0, 1]]
    }, 
    {
      "op": "Activation", 
      "name": "cifarresnetv21_stage1_activation4", 
      "attrs": {
        "__profiler_scope__": "cifarresnetv21:stage1:", 
        "act_type": "relu"
      }, 
      "inputs": [[46, 0, 0]]
    }, 
    {
      "op": "null", 
      "name": "cifarresnetv21_stage1_conv4_weight", 
      "attrs": {
        "__dtype__": "0", 
        "__lr_mult__": "1.0", 
        "__profiler_scope__": "cifarresnetv21:stage1:", 
        "__shape__": "(16, 16, 3, 3)", 
        "__storage_type__": "0", 
        "__wd_mult__": "1.0"
      }, 
      "inputs": []
    }, 
    {
      "op": "Convolution", 
      "name": "cifarresnetv21_stage1_conv4_fwd", 
      "attrs": {
        "__profiler_scope__": "cifarresnetv21:stage1:conv4:", 
        "dilate": "(1, 1)", 
        "kernel": "(3, 3)", 
        "layout": "NCHW", 
        "no_bias": "True", 
        "num_filter": "16", 
        "num_group": "1", 
        "pad": "(1, 1)", 
        "stride": "(1, 1)"
      }, 
      "inputs": [[47, 0, 0], [48, 0, 0]]
    }, 
    {
      "op": "null", 
      "name": "cifarresnetv21_stage1_batchnorm5_gamma", 
      "attrs": {
        "__dtype__": "0", 
        "__init__": "ones", 
        "__lr_mult__": "1.0", 
        "__profiler_scope__": "cifarresnetv21:stage1:", 
        "__shape__": "(16,)", 
        "__storage_type__": "0", 
        "__wd_mult__": "1.0"
      }, 
      "inputs": []
    }, 
    {
      "op": "null", 
      "name": "cifarresnetv21_stage1_batchnorm5_beta", 
      "attrs": {
        "__dtype__": "0", 
        "__init__": "zeros", 
        "__lr_mult__": "1.0", 
        "__profiler_scope__": "cifarresnetv21:stage1:", 
        "__shape__": "(16,)", 
        "__storage_type__": "0", 
        "__wd_mult__": "1.0"
      }, 
      "inputs": []
    }, 
    {
      "op": "null", 
      "name": "cifarresnetv21_stage1_batchnorm5_running_mean", 
      "attrs": {
        "__dtype__": "0", 
        "__init__": "zeros", 
        "__lr_mult__": "1.0", 
        "__profiler_scope__": "cifarresnetv21:stage1:", 
        "__shape__": "(16,)", 
        "__storage_type__": "0", 
        "__wd_mult__": "1.0"
      }, 
      "inputs": []
    }, 
    {
      "op": "null", 
      "name": "cifarresnetv21_stage1_batchnorm5_running_var", 
      "attrs": {
        "__dtype__": "0", 
        "__init__": "ones", 
        "__lr_mult__": "1.0", 
        "__profiler_scope__": "cifarresnetv21:stage1:", 
        "__shape__": "(16,)", 
        "__storage_type__": "0", 
        "__wd_mult__": "1.0"
      }, 
      "inputs": []
    }, 
    {
      "op": "BatchNorm", 
      "name": "cifarresnetv21_stage1_batchnorm5_fwd", 
      "attrs": {
        "__profiler_scope__": "cifarresnetv21:stage1:batchnorm5:", 
        "axis": "1", 
        "eps": "1e-05", 
        "fix_gamma": "False", 
        "momentum": "0.9", 
        "use_global_stats": "False"
      }, 
      "inputs": [[49, 0, 0], [50, 0, 0], [51, 0, 0], [52, 0, 1], [53, 0, 1]]
    }, 
    {
      "op": "Activation", 
      "name": "cifarresnetv21_stage1_activation5", 
      "attrs": {
        "__profiler_scope__": "cifarresnetv21:stage1:", 
        "act_type": "relu"
      }, 
      "inputs": [[54, 0, 0]]
    }, 
    {
      "op": "null", 
      "name": "cifarresnetv21_stage1_conv5_weight", 
      "attrs": {
        "__dtype__": "0", 
        "__lr_mult__": "1.0", 
        "__profiler_scope__": "cifarresnetv21:stage1:", 
        "__shape__": "(16, 16, 3, 3)", 
        "__storage_type__": "0", 
        "__wd_mult__": "1.0"
      }, 
      "inputs": []
    }, 
    {
      "op": "Convolution", 
      "name": "cifarresnetv21_stage1_conv5_fwd", 
      "attrs": {
        "__profiler_scope__": "cifarresnetv21:stage1:conv5:", 
        "dilate": "(1, 1)", 
        "kernel": "(3, 3)", 
        "layout": "NCHW", 
        "no_bias": "True", 
        "num_filter": "16", 
        "num_group": "1", 
        "pad": "(1, 1)", 
        "stride": "(1, 1)"
      }, 
      "inputs": [[55, 0, 0], [56, 0, 0]]
    }, 
    {
      "op": "elemwise_add", 
      "name": "cifarresnetv21_stage1__plus2", 
      "attrs": {"__profiler_scope__": "cifarresnetv21:stage1:"}, 
      "inputs": [[57, 0, 0], [41, 0, 0]]
    }, 
    {
      "op": "null", 
      "name": "cifarresnetv21_stage1_batchnorm6_gamma", 
      "attrs": {
        "__dtype__": "0", 
        "__init__": "ones", 
        "__lr_mult__": "1.0", 
        "__profiler_scope__": "cifarresnetv21:stage1:", 
        "__shape__": "(16,)", 
        "__storage_type__": "0", 
        "__wd_mult__": "1.0"
      }, 
      "inputs": []
    }, 
    {
      "op": "null", 
      "name": "cifarresnetv21_stage1_batchnorm6_beta", 
      "attrs": {
        "__dtype__": "0", 
        "__init__": "zeros", 
        "__lr_mult__": "1.0", 
        "__profiler_scope__": "cifarresnetv21:stage1:", 
        "__shape__": "(16,)", 
        "__storage_type__": "0", 
        "__wd_mult__": "1.0"
      }, 
      "inputs": []
    }, 
    {
      "op": "null", 
      "name": "cifarresnetv21_stage1_batchnorm6_running_mean", 
      "attrs": {
        "__dtype__": "0", 
        "__init__": "zeros", 
        "__lr_mult__": "1.0", 
        "__profiler_scope__": "cifarresnetv21:stage1:", 
        "__shape__": "(16,)", 
        "__storage_type__": "0", 
        "__wd_mult__": "1.0"
      }, 
      "inputs": []
    }, 
    {
      "op": "null", 
      "name": "cifarresnetv21_stage1_batchnorm6_running_var", 
      "attrs": {
        "__dtype__": "0", 
        "__init__": "ones", 
        "__lr_mult__": "1.0", 
        "__profiler_scope__": "cifarresnetv21:stage1:", 
        "__shape__": "(16,)", 
        "__storage_type__": "0", 
        "__wd_mult__": "1.0"
      }, 
      "inputs": []
    }, 
    {
      "op": "BatchNorm", 
      "name": "cifarresnetv21_stage1_batchnorm6_fwd", 
      "attrs": {
        "__profiler_scope__": "cifarresnetv21:stage1:batchnorm6:", 
        "axis": "1", 
        "eps": "1e-05", 
        "fix_gamma": "False", 
        "momentum": "0.9", 
        "use_global_stats": "False"
      }, 
      "inputs": [[58, 0, 0], [59, 0, 0], [60, 0, 0], [61, 0, 1], [62, 0, 1]]
    }, 
    {
      "op": "Activation", 
      "name": "cifarresnetv21_stage1_activation6", 
      "attrs": {
        "__profiler_scope__": "cifarresnetv21:stage1:", 
        "act_type": "relu"
      }, 
      "inputs": [[63, 0, 0]]
    }, 
    {
      "op": "null", 
      "name": "cifarresnetv21_stage1_conv6_weight", 
      "attrs": {
        "__dtype__": "0", 
        "__lr_mult__": "1.0", 
        "__profiler_scope__": "cifarresnetv21:stage1:", 
        "__shape__": "(16, 16, 3, 3)", 
        "__storage_type__": "0", 
        "__wd_mult__": "1.0"
      }, 
      "inputs": []
    }, 
    {
      "op": "Convolution", 
      "name": "cifarresnetv21_stage1_conv6_fwd", 
      "attrs": {
        "__profiler_scope__": "cifarresnetv21:stage1:conv6:", 
        "dilate": "(1, 1)", 
        "kernel": "(3, 3)", 
        "layout": "NCHW", 
        "no_bias": "True", 
        "num_filter": "16", 
        "num_group": "1", 
        "pad": "(1, 1)", 
        "stride": "(1, 1)"
      }, 
      "inputs": [[64, 0, 0], [65, 0, 0]]
    }, 
    {
      "op": "null", 
      "name": "cifarresnetv21_stage1_batchnorm7_gamma", 
      "attrs": {
        "__dtype__": "0", 
        "__init__": "ones", 
        "__lr_mult__": "1.0", 
        "__profiler_scope__": "cifarresnetv21:stage1:", 
        "__shape__": "(16,)", 
        "__storage_type__": "0", 
        "__wd_mult__": "1.0"
      }, 
      "inputs": []
    }, 
    {
      "op": "null", 
      "name": "cifarresnetv21_stage1_batchnorm7_beta", 
      "attrs": {
        "__dtype__": "0", 
        "__init__": "zeros", 
        "__lr_mult__": "1.0", 
        "__profiler_scope__": "cifarresnetv21:stage1:", 
        "__shape__": "(16,)", 
        "__storage_type__": "0", 
        "__wd_mult__": "1.0"
      }, 
      "inputs": []
    }, 
    {
      "op": "null", 
      "name": "cifarresnetv21_stage1_batchnorm7_running_mean", 
      "attrs": {
        "__dtype__": "0", 
        "__init__": "zeros", 
        "__lr_mult__": "1.0", 
        "__profiler_scope__": "cifarresnetv21:stage1:", 
        "__shape__": "(16,)", 
        "__storage_type__": "0", 
        "__wd_mult__": "1.0"
      }, 
      "inputs": []
    }, 
    {
      "op": "null", 
      "name": "cifarresnetv21_stage1_batchnorm7_running_var", 
      "attrs": {
        "__dtype__": "0", 
        "__init__": "ones", 
        "__lr_mult__": "1.0", 
        "__profiler_scope__": "cifarresnetv21:stage1:", 
        "__shape__": "(16,)", 
        "__storage_type__": "0", 
        "__wd_mult__": "1.0"
      }, 
      "inputs": []
    }, 
    {
      "op": "BatchNorm", 
      "name": "cifarresnetv21_stage1_batchnorm7_fwd", 
      "attrs": {
        "__profiler_scope__": "cifarresnetv21:stage1:batchnorm7:", 
        "axis": "1", 
        "eps": "1e-05", 
        "fix_gamma": "False", 
        "momentum": "0.9", 
        "use_global_stats": "False"
      }, 
      "inputs": [[66, 0, 0], [67, 0, 0], [68, 0, 0], [69, 0, 1], [70, 0, 1]]
    }, 
    {
      "op": "Activation", 
      "name": "cifarresnetv21_stage1_activation7", 
      "attrs": {
        "__profiler_scope__": "cifarresnetv21:stage1:", 
        "act_type": "relu"
      }, 
      "inputs": [[71, 0, 0]]
    }, 
    {
      "op": "null", 
      "name": "cifarresnetv21_stage1_conv7_weight", 
      "attrs": {
        "__dtype__": "0", 
        "__lr_mult__": "1.0", 
        "__profiler_scope__": "cifarresnetv21:stage1:", 
        "__shape__": "(16, 16, 3, 3)", 
        "__storage_type__": "0", 
        "__wd_mult__": "1.0"
      }, 
      "inputs": []
    }, 
    {
      "op": "Convolution", 
      "name": "cifarresnetv21_stage1_conv7_fwd", 
      "attrs": {
        "__profiler_scope__": "cifarresnetv21:stage1:conv7:", 
        "dilate": "(1, 1)", 
        "kernel": "(3, 3)", 
        "layout": "NCHW", 
        "no_bias": "True", 
        "num_filter": "16", 
        "num_group": "1", 
        "pad": "(1, 1)", 
        "stride": "(1, 1)"
      }, 
      "inputs": [[72, 0, 0], [73, 0, 0]]
    }, 
    {
      "op": "elemwise_add", 
      "name": "cifarresnetv21_stage1__plus3", 
      "attrs": {"__profiler_scope__": "cifarresnetv21:stage1:"}, 
      "inputs": [[74, 0, 0], [58, 0, 0]]
    }, 
    {
      "op": "null", 
      "name": "cifarresnetv21_stage1_batchnorm8_gamma", 
      "attrs": {
        "__dtype__": "0", 
        "__init__": "ones", 
        "__lr_mult__": "1.0", 
        "__profiler_scope__": "cifarresnetv21:stage1:", 
        "__shape__": "(16,)", 
        "__storage_type__": "0", 
        "__wd_mult__": "1.0"
      }, 
      "inputs": []
    }, 
    {
      "op": "null", 
      "name": "cifarresnetv21_stage1_batchnorm8_beta", 
      "attrs": {
        "__dtype__": "0", 
        "__init__": "zeros", 
        "__lr_mult__": "1.0", 
        "__profiler_scope__": "cifarresnetv21:stage1:", 
        "__shape__": "(16,)", 
        "__storage_type__": "0", 
        "__wd_mult__": "1.0"
      }, 
      "inputs": []
    }, 
    {
      "op": "null", 
      "name": "cifarresnetv21_stage1_batchnorm8_running_mean", 
      "attrs": {
        "__dtype__": "0", 
        "__init__": "zeros", 
        "__lr_mult__": "1.0", 
        "__profiler_scope__": "cifarresnetv21:stage1:", 
        "__shape__": "(16,)", 
        "__storage_type__": "0", 
        "__wd_mult__": "1.0"
      }, 
      "inputs": []
    }, 
    {
      "op": "null", 
      "name": "cifarresnetv21_stage1_batchnorm8_running_var", 
      "attrs": {
        "__dtype__": "0", 
        "__init__": "ones", 
        "__lr_mult__": "1.0", 
        "__profiler_scope__": "cifarresnetv21:stage1:", 
        "__shape__": "(16,)", 
        "__storage_type__": "0", 
        "__wd_mult__": "1.0"
      }, 
      "inputs": []
    }, 
    {
      "op": "BatchNorm", 
      "name": "cifarresnetv21_stage1_batchnorm8_fwd", 
      "attrs": {
        "__profiler_scope__": "cifarresnetv21:stage1:batchnorm8:", 
        "axis": "1", 
        "eps": "1e-05", 
        "fix_gamma": "False", 
        "momentum": "0.9", 
        "use_global_stats": "False"
      }, 
      "inputs": [[75, 0, 0], [76, 0, 0], [77, 0, 0], [78, 0, 1], [79, 0, 1]]
    }, 
    {
      "op": "Activation", 
      "name": "cifarresnetv21_stage1_activation8", 
      "attrs": {
        "__profiler_scope__": "cifarresnetv21:stage1:", 
        "act_type": "relu"
      }, 
      "inputs": [[80, 0, 0]]
    }, 
    {
      "op": "null", 
      "name": "cifarresnetv21_stage1_conv8_weight", 
      "attrs": {
        "__dtype__": "0", 
        "__lr_mult__": "1.0", 
        "__profiler_scope__": "cifarresnetv21:stage1:", 
        "__shape__": "(16, 16, 3, 3)", 
        "__storage_type__": "0", 
        "__wd_mult__": "1.0"
      }, 
      "inputs": []
    }, 
    {
      "op": "Convolution", 
      "name": "cifarresnetv21_stage1_conv8_fwd", 
      "attrs": {
        "__profiler_scope__": "cifarresnetv21:stage1:conv8:", 
        "dilate": "(1, 1)", 
        "kernel": "(3, 3)", 
        "layout": "NCHW", 
        "no_bias": "True", 
        "num_filter": "16", 
        "num_group": "1", 
        "pad": "(1, 1)", 
        "stride": "(1, 1)"
      }, 
      "inputs": [[81, 0, 0], [82, 0, 0]]
    }, 
    {
      "op": "null", 
      "name": "cifarresnetv21_stage1_batchnorm9_gamma", 
      "attrs": {
        "__dtype__": "0", 
        "__init__": "ones", 
        "__lr_mult__": "1.0", 
        "__profiler_scope__": "cifarresnetv21:stage1:", 
        "__shape__": "(16,)", 
        "__storage_type__": "0", 
        "__wd_mult__": "1.0"
      }, 
      "inputs": []
    }, 
    {
      "op": "null", 
      "name": "cifarresnetv21_stage1_batchnorm9_beta", 
      "attrs": {
        "__dtype__": "0", 
        "__init__": "zeros", 
        "__lr_mult__": "1.0", 
        "__profiler_scope__": "cifarresnetv21:stage1:", 
        "__shape__": "(16,)", 
        "__storage_type__": "0", 
        "__wd_mult__": "1.0"
      }, 
      "inputs": []
    }, 
    {
      "op": "null", 
      "name": "cifarresnetv21_stage1_batchnorm9_running_mean", 
      "attrs": {
        "__dtype__": "0", 
        "__init__": "zeros", 
        "__lr_mult__": "1.0", 
        "__profiler_scope__": "cifarresnetv21:stage1:", 
        "__shape__": "(16,)", 
        "__storage_type__": "0", 
        "__wd_mult__": "1.0"
      }, 
      "inputs": []
    }, 
    {
      "op": "null", 
      "name": "cifarresnetv21_stage1_batchnorm9_running_var", 
      "attrs": {
        "__dtype__": "0", 
        "__init__": "ones", 
        "__lr_mult__": "1.0", 
        "__profiler_scope__": "cifarresnetv21:stage1:", 
        "__shape__": "(16,)", 
        "__storage_type__": "0", 
        "__wd_mult__": "1.0"
      }, 
      "inputs": []
    }, 
    {
      "op": "BatchNorm", 
      "name": "cifarresnetv21_stage1_batchnorm9_fwd", 
      "attrs": {
        "__profiler_scope__": "cifarresnetv21:stage1:batchnorm9:", 
        "axis": "1", 
        "eps": "1e-05", 
        "fix_gamma": "False", 
        "momentum": "0.9", 
        "use_global_stats": "False"
      }, 
      "inputs": [[83, 0, 0], [84, 0, 0], [85, 0, 0], [86, 0, 1], [87, 0, 1]]
    }, 
    {
      "op": "Activation", 
      "name": "cifarresnetv21_stage1_activation9", 
      "attrs": {
        "__profiler_scope__": "cifarresnetv21:stage1:", 
        "act_type": "relu"
      }, 
      "inputs": [[88, 0, 0]]
    }, 
    {
      "op": "null", 
      "name": "cifarresnetv21_stage1_conv9_weight", 
      "attrs": {
        "__dtype__": "0", 
        "__lr_mult__": "1.0", 
        "__profiler_scope__": "cifarresnetv21:stage1:", 
        "__shape__": "(16, 16, 3, 3)", 
        "__storage_type__": "0", 
        "__wd_mult__": "1.0"
      }, 
      "inputs": []
    }, 
    {
      "op": "Convolution", 
      "name": "cifarresnetv21_stage1_conv9_fwd", 
      "attrs": {
        "__profiler_scope__": "cifarresnetv21:stage1:conv9:", 
        "dilate": "(1, 1)", 
        "kernel": "(3, 3)", 
        "layout": "NCHW", 
        "no_bias": "True", 
        "num_filter": "16", 
        "num_group": "1", 
        "pad": "(1, 1)", 
        "stride": "(1, 1)"
      }, 
      "inputs": [[89, 0, 0], [90, 0, 0]]
    }, 
    {
      "op": "elemwise_add", 
      "name": "cifarresnetv21_stage1__plus4", 
      "attrs": {"__profiler_scope__": "cifarresnetv21:stage1:"}, 
      "inputs": [[91, 0, 0], [75, 0, 0]]
    }, 
    {
      "op": "null", 
      "name": "cifarresnetv21_stage1_batchnorm10_gamma", 
      "attrs": {
        "__dtype__": "0", 
        "__init__": "ones", 
        "__lr_mult__": "1.0", 
        "__profiler_scope__": "cifarresnetv21:stage1:", 
        "__shape__": "(16,)", 
        "__storage_type__": "0", 
        "__wd_mult__": "1.0"
      }, 
      "inputs": []
    }, 
    {
      "op": "null", 
      "name": "cifarresnetv21_stage1_batchnorm10_beta", 
      "attrs": {
        "__dtype__": "0", 
        "__init__": "zeros", 
        "__lr_mult__": "1.0", 
        "__profiler_scope__": "cifarresnetv21:stage1:", 
        "__shape__": "(16,)", 
        "__storage_type__": "0", 
        "__wd_mult__": "1.0"
      }, 
      "inputs": []
    }, 
    {
      "op": "null", 
      "name": "cifarresnetv21_stage1_batchnorm10_running_mean", 
      "attrs": {
        "__dtype__": "0", 
        "__init__": "zeros", 
        "__lr_mult__": "1.0", 
        "__profiler_scope__": "cifarresnetv21:stage1:", 
        "__shape__": "(16,)", 
        "__storage_type__": "0", 
        "__wd_mult__": "1.0"
      }, 
      "inputs": []
    }, 
    {
      "op": "null", 
      "name": "cifarresnetv21_stage1_batchnorm10_running_var", 
      "attrs": {
        "__dtype__": "0", 
        "__init__": "ones", 
        "__lr_mult__": "1.0", 
        "__profiler_scope__": "cifarresnetv21:stage1:", 
        "__shape__": "(16,)", 
        "__storage_type__": "0", 
        "__wd_mult__": "1.0"
      }, 
      "inputs": []
    }, 
    {
      "op": "BatchNorm", 
      "name": "cifarresnetv21_stage1_batchnorm10_fwd", 
      "attrs": {
        "__profiler_scope__": "cifarresnetv21:stage1:batchnorm10:", 
        "axis": "1", 
        "eps": "1e-05", 
        "fix_gamma": "False", 
        "momentum": "0.9", 
        "use_global_stats": "False"
      }, 
      "inputs": [[92, 0, 0], [93, 0, 0], [94, 0, 0], [95, 0, 1], [96, 0, 1]]
    }, 
    {
      "op": "Activation", 
      "name": "cifarresnetv21_stage1_activation10", 
      "attrs": {
        "__profiler_scope__": "cifarresnetv21:stage1:", 
        "act_type": "relu"
      }, 
      "inputs": [[97, 0, 0]]
    }, 
    {
      "op": "null", 
      "name": "cifarresnetv21_stage1_conv10_weight", 
      "attrs": {
        "__dtype__": "0", 
        "__lr_mult__": "1.0", 
        "__profiler_scope__": "cifarresnetv21:stage1:", 
        "__shape__": "(16, 16, 3, 3)", 
        "__storage_type__": "0", 
        "__wd_mult__": "1.0"
      }, 
      "inputs": []
    }, 
    {
      "op": "Convolution", 
      "name": "cifarresnetv21_stage1_conv10_fwd", 
      "attrs": {
        "__profiler_scope__": "cifarresnetv21:stage1:conv10:", 
        "dilate": "(1, 1)", 
        "kernel": "(3, 3)", 
        "layout": "NCHW", 
        "no_bias": "True", 
        "num_filter": "16", 
        "num_group": "1", 
        "pad": "(1, 1)", 
        "stride": "(1, 1)"
      }, 
      "inputs": [[98, 0, 0], [99, 0, 0]]
    }, 
    {
      "op": "null", 
      "name": "cifarresnetv21_stage1_batchnorm11_gamma", 
      "attrs": {
        "__dtype__": "0", 
        "__init__": "ones", 
        "__lr_mult__": "1.0", 
        "__profiler_scope__": "cifarresnetv21:stage1:", 
        "__shape__": "(16,)", 
        "__storage_type__": "0", 
        "__wd_mult__": "1.0"
      }, 
      "inputs": []
    }, 
    {
      "op": "null", 
      "name": "cifarresnetv21_stage1_batchnorm11_beta", 
      "attrs": {
        "__dtype__": "0", 
        "__init__": "zeros", 
        "__lr_mult__": "1.0", 
        "__profiler_scope__": "cifarresnetv21:stage1:", 
        "__shape__": "(16,)", 
        "__storage_type__": "0", 
        "__wd_mult__": "1.0"
      }, 
      "inputs": []
    }, 
    {
      "op": "null", 
      "name": "cifarresnetv21_stage1_batchnorm11_running_mean", 
      "attrs": {
        "__dtype__": "0", 
        "__init__": "zeros", 
        "__lr_mult__": "1.0", 
        "__profiler_scope__": "cifarresnetv21:stage1:", 
        "__shape__": "(16,)", 
        "__storage_type__": "0", 
        "__wd_mult__": "1.0"
      }, 
      "inputs": []
    }, 
    {
      "op": "null", 
      "name": "cifarresnetv21_stage1_batchnorm11_running_var", 
      "attrs": {
        "__dtype__": "0", 
        "__init__": "ones", 
        "__lr_mult__": "1.0", 
        "__profiler_scope__": "cifarresnetv21:stage1:", 
        "__shape__": "(16,)", 
        "__storage_type__": "0", 
        "__wd_mult__": "1.0"
      }, 
      "inputs": []
    }, 
    {
      "op": "BatchNorm", 
      "name": "cifarresnetv21_stage1_batchnorm11_fwd", 
      "attrs": {
        "__profiler_scope__": "cifarresnetv21:stage1:batchnorm11:", 
        "axis": "1", 
        "eps": "1e-05", 
        "fix_gamma": "False", 
        "momentum": "0.9", 
        "use_global_stats": "False"
      }, 
      "inputs": [[100, 0, 0], [101, 0, 0], [102, 0, 0], [103, 0, 1], [104, 0, 1]]
    }, 
    {
      "op": "Activation", 
      "name": "cifarresnetv21_stage1_activation11", 
      "attrs": {
        "__profiler_scope__": "cifarresnetv21:stage1:", 
        "act_type": "relu"
      }, 
      "inputs": [[105, 0, 0]]
    }, 
    {
      "op": "null", 
      "name": "cifarresnetv21_stage1_conv11_weight", 
      "attrs": {
        "__dtype__": "0", 
        "__lr_mult__": "1.0", 
        "__profiler_scope__": "cifarresnetv21:stage1:", 
        "__shape__": "(16, 16, 3, 3)", 
        "__storage_type__": "0", 
        "__wd_mult__": "1.0"
      }, 
      "inputs": []
    }, 
    {
      "op": "Convolution", 
      "name": "cifarresnetv21_stage1_conv11_fwd", 
      "attrs": {
        "__profiler_scope__": "cifarresnetv21:stage1:conv11:", 
        "dilate": "(1, 1)", 
        "kernel": "(3, 3)", 
        "layout": "NCHW", 
        "no_bias": "True", 
        "num_filter": "16", 
        "num_group": "1", 
        "pad": "(1, 1)", 
        "stride": "(1, 1)"
      }, 
      "inputs": [[106, 0, 0], [107, 0, 0]]
    }, 
    {
      "op": "elemwise_add", 
      "name": "cifarresnetv21_stage1__plus5", 
      "attrs": {"__profiler_scope__": "cifarresnetv21:stage1:"}, 
      "inputs": [[108, 0, 0], [92, 0, 0]]
    }, 
    {
      "op": "null", 
      "name": "cifarresnetv21_stage1_batchnorm12_gamma", 
      "attrs": {
        "__dtype__": "0", 
        "__init__": "ones", 
        "__lr_mult__": "1.0", 
        "__profiler_scope__": "cifarresnetv21:stage1:", 
        "__shape__": "(16,)", 
        "__storage_type__": "0", 
        "__wd_mult__": "1.0"
      }, 
      "inputs": []
    }, 
    {
      "op": "null", 
      "name": "cifarresnetv21_stage1_batchnorm12_beta", 
      "attrs": {
        "__dtype__": "0", 
        "__init__": "zeros", 
        "__lr_mult__": "1.0", 
        "__profiler_scope__": "cifarresnetv21:stage1:", 
        "__shape__": "(16,)", 
        "__storage_type__": "0", 
        "__wd_mult__": "1.0"
      }, 
      "inputs": []
    }, 
    {
      "op": "null", 
      "name": "cifarresnetv21_stage1_batchnorm12_running_mean", 
      "attrs": {
        "__dtype__": "0", 
        "__init__": "zeros", 
        "__lr_mult__": "1.0", 
        "__profiler_scope__": "cifarresnetv21:stage1:", 
        "__shape__": "(16,)", 
        "__storage_type__": "0", 
        "__wd_mult__": "1.0"
      }, 
      "inputs": []
    }, 
    {
      "op": "null", 
      "name": "cifarresnetv21_stage1_batchnorm12_running_var", 
      "attrs": {
        "__dtype__": "0", 
        "__init__": "ones", 
        "__lr_mult__": "1.0", 
        "__profiler_scope__": "cifarresnetv21:stage1:", 
        "__shape__": "(16,)", 
        "__storage_type__": "0", 
        "__wd_mult__": "1.0"
      }, 
      "inputs": []
    }, 
    {
      "op": "BatchNorm", 
      "name": "cifarresnetv21_stage1_batchnorm12_fwd", 
      "attrs": {
        "__profiler_scope__": "cifarresnetv21:stage1:batchnorm12:", 
        "axis": "1", 
        "eps": "1e-05", 
        "fix_gamma": "False", 
        "momentum": "0.9", 
        "use_global_stats": "False"
      }, 
      "inputs": [[109, 0, 0], [110, 0, 0], [111, 0, 0], [112, 0, 1], [113, 0, 1]]
    }, 
    {
      "op": "Activation", 
      "name": "cifarresnetv21_stage1_activation12", 
      "attrs": {
        "__profiler_scope__": "cifarresnetv21:stage1:", 
        "act_type": "relu"
      }, 
      "inputs": [[114, 0, 0]]
    }, 
    {
      "op": "null", 
      "name": "cifarresnetv21_stage1_conv12_weight", 
      "attrs": {
        "__dtype__": "0", 
        "__lr_mult__": "1.0", 
        "__profiler_scope__": "cifarresnetv21:stage1:", 
        "__shape__": "(16, 16, 3, 3)", 
        "__storage_type__": "0", 
        "__wd_mult__": "1.0"
      }, 
      "inputs": []
    }, 
    {
      "op": "Convolution", 
      "name": "cifarresnetv21_stage1_conv12_fwd", 
      "attrs": {
        "__profiler_scope__": "cifarresnetv21:stage1:conv12:", 
        "dilate": "(1, 1)", 
        "kernel": "(3, 3)", 
        "layout": "NCHW", 
        "no_bias": "True", 
        "num_filter": "16", 
        "num_group": "1", 
        "pad": "(1, 1)", 
        "stride": "(1, 1)"
      }, 
      "inputs": [[115, 0, 0], [116, 0, 0]]
    }, 
    {
      "op": "null", 
      "name": "cifarresnetv21_stage1_batchnorm13_gamma", 
      "attrs": {
        "__dtype__": "0", 
        "__init__": "ones", 
        "__lr_mult__": "1.0", 
        "__profiler_scope__": "cifarresnetv21:stage1:", 
        "__shape__": "(16,)", 
        "__storage_type__": "0", 
        "__wd_mult__": "1.0"
      }, 
      "inputs": []
    }, 
    {
      "op": "null", 
      "name": "cifarresnetv21_stage1_batchnorm13_beta", 
      "attrs": {
        "__dtype__": "0", 
        "__init__": "zeros", 
        "__lr_mult__": "1.0", 
        "__profiler_scope__": "cifarresnetv21:stage1:", 
        "__shape__": "(16,)", 
        "__storage_type__": "0", 
        "__wd_mult__": "1.0"
      }, 
      "inputs": []
    }, 
    {
      "op": "null", 
      "name": "cifarresnetv21_stage1_batchnorm13_running_mean", 
      "attrs": {
        "__dtype__": "0", 
        "__init__": "zeros", 
        "__lr_mult__": "1.0", 
        "__profiler_scope__": "cifarresnetv21:stage1:", 
        "__shape__": "(16,)", 
        "__storage_type__": "0", 
        "__wd_mult__": "1.0"
      }, 
      "inputs": []
    }, 
    {
      "op": "null", 
      "name": "cifarresnetv21_stage1_batchnorm13_running_var", 
      "attrs": {
        "__dtype__": "0", 
        "__init__": "ones", 
        "__lr_mult__": "1.0", 
        "__profiler_scope__": "cifarresnetv21:stage1:", 
        "__shape__": "(16,)", 
        "__storage_type__": "0", 
        "__wd_mult__": "1.0"
      }, 
      "inputs": []
    }, 
    {
      "op": "BatchNorm", 
      "name": "cifarresnetv21_stage1_batchnorm13_fwd", 
      "attrs": {
        "__profiler_scope__": "cifarresnetv21:stage1:batchnorm13:", 
        "axis": "1", 
        "eps": "1e-05", 
        "fix_gamma": "False", 
        "momentum": "0.9", 
        "use_global_stats": "False"
      }, 
      "inputs": [[117, 0, 0], [118, 0, 0], [119, 0, 0], [120, 0, 1], [121, 0, 1]]
    }, 
    {
      "op": "Activation", 
      "name": "cifarresnetv21_stage1_activation13", 
      "attrs": {
        "__profiler_scope__": "cifarresnetv21:stage1:", 
        "act_type": "relu"
      }, 
      "inputs": [[122, 0, 0]]
    }, 
    {
      "op": "null", 
      "name": "cifarresnetv21_stage1_conv13_weight", 
      "attrs": {
        "__dtype__": "0", 
        "__lr_mult__": "1.0", 
        "__profiler_scope__": "cifarresnetv21:stage1:", 
        "__shape__": "(16, 16, 3, 3)", 
        "__storage_type__": "0", 
        "__wd_mult__": "1.0"
      }, 
      "inputs": []
    }, 
    {
      "op": "Convolution", 
      "name": "cifarresnetv21_stage1_conv13_fwd", 
      "attrs": {
        "__profiler_scope__": "cifarresnetv21:stage1:conv13:", 
        "dilate": "(1, 1)", 
        "kernel": "(3, 3)", 
        "layout": "NCHW", 
        "no_bias": "True", 
        "num_filter": "16", 
        "num_group": "1", 
        "pad": "(1, 1)", 
        "stride": "(1, 1)"
      }, 
      "inputs": [[123, 0, 0], [124, 0, 0]]
    }, 
    {
      "op": "elemwise_add", 
      "name": "cifarresnetv21_stage1__plus6", 
      "attrs": {"__profiler_scope__": "cifarresnetv21:stage1:"}, 
      "inputs": [[125, 0, 0], [109, 0, 0]]
    }, 
    {
      "op": "null", 
      "name": "cifarresnetv21_stage1_batchnorm14_gamma", 
      "attrs": {
        "__dtype__": "0", 
        "__init__": "ones", 
        "__lr_mult__": "1.0", 
        "__profiler_scope__": "cifarresnetv21:stage1:", 
        "__shape__": "(16,)", 
        "__storage_type__": "0", 
        "__wd_mult__": "1.0"
      }, 
      "inputs": []
    }, 
    {
      "op": "null", 
      "name": "cifarresnetv21_stage1_batchnorm14_beta", 
      "attrs": {
        "__dtype__": "0", 
        "__init__": "zeros", 
        "__lr_mult__": "1.0", 
        "__profiler_scope__": "cifarresnetv21:stage1:", 
        "__shape__": "(16,)", 
        "__storage_type__": "0", 
        "__wd_mult__": "1.0"
      }, 
      "inputs": []
    }, 
    {
      "op": "null", 
      "name": "cifarresnetv21_stage1_batchnorm14_running_mean", 
      "attrs": {
        "__dtype__": "0", 
        "__init__": "zeros", 
        "__lr_mult__": "1.0", 
        "__profiler_scope__": "cifarresnetv21:stage1:", 
        "__shape__": "(16,)", 
        "__storage_type__": "0", 
        "__wd_mult__": "1.0"
      }, 
      "inputs": []
    }, 
    {
      "op": "null", 
      "name": "cifarresnetv21_stage1_batchnorm14_running_var", 
      "attrs": {
        "__dtype__": "0", 
        "__init__": "ones", 
        "__lr_mult__": "1.0", 
        "__profiler_scope__": "cifarresnetv21:stage1:", 
        "__shape__": "(16,)", 
        "__storage_type__": "0", 
        "__wd_mult__": "1.0"
      }, 
      "inputs": []
    }, 
    {
      "op": "BatchNorm", 
      "name": "cifarresnetv21_stage1_batchnorm14_fwd", 
      "attrs": {
        "__profiler_scope__": "cifarresnetv21:stage1:batchnorm14:", 
        "axis": "1", 
        "eps": "1e-05", 
        "fix_gamma": "False", 
        "momentum": "0.9", 
        "use_global_stats": "False"
      }, 
      "inputs": [[126, 0, 0], [127, 0, 0], [128, 0, 0], [129, 0, 1], [130, 0, 1]]
    }, 
    {
      "op": "Activation", 
      "name": "cifarresnetv21_stage1_activation14", 
      "attrs": {
        "__profiler_scope__": "cifarresnetv21:stage1:", 
        "act_type": "relu"
      }, 
      "inputs": [[131, 0, 0]]
    }, 
    {
      "op": "null", 
      "name": "cifarresnetv21_stage1_conv14_weight", 
      "attrs": {
        "__dtype__": "0", 
        "__lr_mult__": "1.0", 
        "__profiler_scope__": "cifarresnetv21:stage1:", 
        "__shape__": "(16, 16, 3, 3)", 
        "__storage_type__": "0", 
        "__wd_mult__": "1.0"
      }, 
      "inputs": []
    }, 
    {
      "op": "Convolution", 
      "name": "cifarresnetv21_stage1_conv14_fwd", 
      "attrs": {
        "__profiler_scope__": "cifarresnetv21:stage1:conv14:", 
        "dilate": "(1, 1)", 
        "kernel": "(3, 3)", 
        "layout": "NCHW", 
        "no_bias": "True", 
        "num_filter": "16", 
        "num_group": "1", 
        "pad": "(1, 1)", 
        "stride": "(1, 1)"
      }, 
      "inputs": [[132, 0, 0], [133, 0, 0]]
    }, 
    {
      "op": "null", 
      "name": "cifarresnetv21_stage1_batchnorm15_gamma", 
      "attrs": {
        "__dtype__": "0", 
        "__init__": "ones", 
        "__lr_mult__": "1.0", 
        "__profiler_scope__": "cifarresnetv21:stage1:", 
        "__shape__": "(16,)", 
        "__storage_type__": "0", 
        "__wd_mult__": "1.0"
      }, 
      "inputs": []
    }, 
    {
      "op": "null", 
      "name": "cifarresnetv21_stage1_batchnorm15_beta", 
      "attrs": {
        "__dtype__": "0", 
        "__init__": "zeros", 
        "__lr_mult__": "1.0", 
        "__profiler_scope__": "cifarresnetv21:stage1:", 
        "__shape__": "(16,)", 
        "__storage_type__": "0", 
        "__wd_mult__": "1.0"
      }, 
      "inputs": []
    }, 
    {
      "op": "null", 
      "name": "cifarresnetv21_stage1_batchnorm15_running_mean", 
      "attrs": {
        "__dtype__": "0", 
        "__init__": "zeros", 
        "__lr_mult__": "1.0", 
        "__profiler_scope__": "cifarresnetv21:stage1:", 
        "__shape__": "(16,)", 
        "__storage_type__": "0", 
        "__wd_mult__": "1.0"
      }, 
      "inputs": []
    }, 
    {
      "op": "null", 
      "name": "cifarresnetv21_stage1_batchnorm15_running_var", 
      "attrs": {
        "__dtype__": "0", 
        "__init__": "ones", 
        "__lr_mult__": "1.0", 
        "__profiler_scope__": "cifarresnetv21:stage1:", 
        "__shape__": "(16,)", 
        "__storage_type__": "0", 
        "__wd_mult__": "1.0"
      }, 
      "inputs": []
    }, 
    {
      "op": "BatchNorm", 
      "name": "cifarresnetv21_stage1_batchnorm15_fwd", 
      "attrs": {
        "__profiler_scope__": "cifarresnetv21:stage1:batchnorm15:", 
        "axis": "1", 
        "eps": "1e-05", 
        "fix_gamma": "False", 
        "momentum": "0.9", 
        "use_global_stats": "False"
      }, 
      "inputs": [[134, 0, 0], [135, 0, 0], [136, 0, 0], [137, 0, 1], [138, 0, 1]]
    }, 
    {
      "op": "Activation", 
      "name": "cifarresnetv21_stage1_activation15", 
      "attrs": {
        "__profiler_scope__": "cifarresnetv21:stage1:", 
        "act_type": "relu"
      }, 
      "inputs": [[139, 0, 0]]
    }, 
    {
      "op": "null", 
      "name": "cifarresnetv21_stage1_conv15_weight", 
      "attrs": {
        "__dtype__": "0", 
        "__lr_mult__": "1.0", 
        "__profiler_scope__": "cifarresnetv21:stage1:", 
        "__shape__": "(16, 16, 3, 3)", 
        "__storage_type__": "0", 
        "__wd_mult__": "1.0"
      }, 
      "inputs": []
    }, 
    {
      "op": "Convolution", 
      "name": "cifarresnetv21_stage1_conv15_fwd", 
      "attrs": {
        "__profiler_scope__": "cifarresnetv21:stage1:conv15:", 
        "dilate": "(1, 1)", 
        "kernel": "(3, 3)", 
        "layout": "NCHW", 
        "no_bias": "True", 
        "num_filter": "16", 
        "num_group": "1", 
        "pad": "(1, 1)", 
        "stride": "(1, 1)"
      }, 
      "inputs": [[140, 0, 0], [141, 0, 0]]
    }, 
    {
      "op": "elemwise_add", 
      "name": "cifarresnetv21_stage1__plus7", 
      "attrs": {"__profiler_scope__": "cifarresnetv21:stage1:"}, 
      "inputs": [[142, 0, 0], [126, 0, 0]]
    }, 
    {
      "op": "null", 
      "name": "cifarresnetv21_stage1_batchnorm16_gamma", 
      "attrs": {
        "__dtype__": "0", 
        "__init__": "ones", 
        "__lr_mult__": "1.0", 
        "__profiler_scope__": "cifarresnetv21:stage1:", 
        "__shape__": "(16,)", 
        "__storage_type__": "0", 
        "__wd_mult__": "1.0"
      }, 
      "inputs": []
    }, 
    {
      "op": "null", 
      "name": "cifarresnetv21_stage1_batchnorm16_beta", 
      "attrs": {
        "__dtype__": "0", 
        "__init__": "zeros", 
        "__lr_mult__": "1.0", 
        "__profiler_scope__": "cifarresnetv21:stage1:", 
        "__shape__": "(16,)", 
        "__storage_type__": "0", 
        "__wd_mult__": "1.0"
      }, 
      "inputs": []
    }, 
    {
      "op": "null", 
      "name": "cifarresnetv21_stage1_batchnorm16_running_mean", 
      "attrs": {
        "__dtype__": "0", 
        "__init__": "zeros", 
        "__lr_mult__": "1.0", 
        "__profiler_scope__": "cifarresnetv21:stage1:", 
        "__shape__": "(16,)", 
        "__storage_type__": "0", 
        "__wd_mult__": "1.0"
      }, 
      "inputs": []
    }, 
    {
      "op": "null", 
      "name": "cifarresnetv21_stage1_batchnorm16_running_var", 
      "attrs": {
        "__dtype__": "0", 
        "__init__": "ones", 
        "__lr_mult__": "1.0", 
        "__profiler_scope__": "cifarresnetv21:stage1:", 
        "__shape__": "(16,)", 
        "__storage_type__": "0", 
        "__wd_mult__": "1.0"
      }, 
      "inputs": []
    }, 
    {
      "op": "BatchNorm", 
      "name": "cifarresnetv21_stage1_batchnorm16_fwd", 
      "attrs": {
        "__profiler_scope__": "cifarresnetv21:stage1:batchnorm16:", 
        "axis": "1", 
        "eps": "1e-05", 
        "fix_gamma": "False", 
        "momentum": "0.9", 
        "use_global_stats": "False"
      }, 
      "inputs": [[143, 0, 0], [144, 0, 0], [145, 0, 0], [146, 0, 1], [147, 0, 1]]
    }, 
    {
      "op": "Activation", 
      "name": "cifarresnetv21_stage1_activation16", 
      "attrs": {
        "__profiler_scope__": "cifarresnetv21:stage1:", 
        "act_type": "relu"
      }, 
      "inputs": [[148, 0, 0]]
    }, 
    {
      "op": "null", 
      "name": "cifarresnetv21_stage1_conv16_weight", 
      "attrs": {
        "__dtype__": "0", 
        "__lr_mult__": "1.0", 
        "__profiler_scope__": "cifarresnetv21:stage1:", 
        "__shape__": "(16, 16, 3, 3)", 
        "__storage_type__": "0", 
        "__wd_mult__": "1.0"
      }, 
      "inputs": []
    }, 
    {
      "op": "Convolution", 
      "name": "cifarresnetv21_stage1_conv16_fwd", 
      "attrs": {
        "__profiler_scope__": "cifarresnetv21:stage1:conv16:", 
        "dilate": "(1, 1)", 
        "kernel": "(3, 3)", 
        "layout": "NCHW", 
        "no_bias": "True", 
        "num_filter": "16", 
        "num_group": "1", 
        "pad": "(1, 1)", 
        "stride": "(1, 1)"
      }, 
      "inputs": [[149, 0, 0], [150, 0, 0]]
    }, 
    {
      "op": "null", 
      "name": "cifarresnetv21_stage1_batchnorm17_gamma", 
      "attrs": {
        "__dtype__": "0", 
        "__init__": "ones", 
        "__lr_mult__": "1.0", 
        "__profiler_scope__": "cifarresnetv21:stage1:", 
        "__shape__": "(16,)", 
        "__storage_type__": "0", 
        "__wd_mult__": "1.0"
      }, 
      "inputs": []
    }, 
    {
      "op": "null", 
      "name": "cifarresnetv21_stage1_batchnorm17_beta", 
      "attrs": {
        "__dtype__": "0", 
        "__init__": "zeros", 
        "__lr_mult__": "1.0", 
        "__profiler_scope__": "cifarresnetv21:stage1:", 
        "__shape__": "(16,)", 
        "__storage_type__": "0", 
        "__wd_mult__": "1.0"
      }, 
      "inputs": []
    }, 
    {
      "op": "null", 
      "name": "cifarresnetv21_stage1_batchnorm17_running_mean", 
      "attrs": {
        "__dtype__": "0", 
        "__init__": "zeros", 
        "__lr_mult__": "1.0", 
        "__profiler_scope__": "cifarresnetv21:stage1:", 
        "__shape__": "(16,)", 
        "__storage_type__": "0", 
        "__wd_mult__": "1.0"
      }, 
      "inputs": []
    }, 
    {
      "op": "null", 
      "name": "cifarresnetv21_stage1_batchnorm17_running_var", 
      "attrs": {
        "__dtype__": "0", 
        "__init__": "ones", 
        "__lr_mult__": "1.0", 
        "__profiler_scope__": "cifarresnetv21:stage1:", 
        "__shape__": "(16,)", 
        "__storage_type__": "0", 
        "__wd_mult__": "1.0"
      }, 
      "inputs": []
    }, 
    {
      "op": "BatchNorm", 
      "name": "cifarresnetv21_stage1_batchnorm17_fwd", 
      "attrs": {
        "__profiler_scope__": "cifarresnetv21:stage1:batchnorm17:", 
        "axis": "1", 
        "eps": "1e-05", 
        "fix_gamma": "False", 
        "momentum": "0.9", 
        "use_global_stats": "False"
      }, 
      "inputs": [[151, 0, 0], [152, 0, 0], [153, 0, 0], [154, 0, 1], [155, 0, 1]]
    }, 
    {
      "op": "Activation", 
      "name": "cifarresnetv21_stage1_activation17", 
      "attrs": {
        "__profiler_scope__": "cifarresnetv21:stage1:", 
        "act_type": "relu"
      }, 
      "inputs": [[156, 0, 0]]
    }, 
    {
      "op": "null", 
      "name": "cifarresnetv21_stage1_conv17_weight", 
      "attrs": {
        "__dtype__": "0", 
        "__lr_mult__": "1.0", 
        "__profiler_scope__": "cifarresnetv21:stage1:", 
        "__shape__": "(16, 16, 3, 3)", 
        "__storage_type__": "0", 
        "__wd_mult__": "1.0"
      }, 
      "inputs": []
    }, 
    {
      "op": "Convolution", 
      "name": "cifarresnetv21_stage1_conv17_fwd", 
      "attrs": {
        "__profiler_scope__": "cifarresnetv21:stage1:conv17:", 
        "dilate": "(1, 1)", 
        "kernel": "(3, 3)", 
        "layout": "NCHW", 
        "no_bias": "True", 
        "num_filter": "16", 
        "num_group": "1", 
        "pad": "(1, 1)", 
        "stride": "(1, 1)"
      }, 
      "inputs": [[157, 0, 0], [158, 0, 0]]
    }, 
    {
      "op": "elemwise_add", 
      "name": "cifarresnetv21_stage1__plus8", 
      "attrs": {"__profiler_scope__": "cifarresnetv21:stage1:"}, 
      "inputs": [[159, 0, 0], [143, 0, 0]]
    }, 
    {
      "op": "null", 
      "name": "cifarresnetv21_stage2_batchnorm0_gamma", 
      "attrs": {
        "__dtype__": "0", 
        "__init__": "ones", 
        "__lr_mult__": "1.0", 
        "__profiler_scope__": "cifarresnetv21:stage2:", 
        "__shape__": "(16,)", 
        "__storage_type__": "0", 
        "__wd_mult__": "1.0"
      }, 
      "inputs": []
    }, 
    {
      "op": "null", 
      "name": "cifarresnetv21_stage2_batchnorm0_beta", 
      "attrs": {
        "__dtype__": "0", 
        "__init__": "zeros", 
        "__lr_mult__": "1.0", 
        "__profiler_scope__": "cifarresnetv21:stage2:", 
        "__shape__": "(16,)", 
        "__storage_type__": "0", 
        "__wd_mult__": "1.0"
      }, 
      "inputs": []
    }, 
    {
      "op": "null", 
      "name": "cifarresnetv21_stage2_batchnorm0_running_mean", 
      "attrs": {
        "__dtype__": "0", 
        "__init__": "zeros", 
        "__lr_mult__": "1.0", 
        "__profiler_scope__": "cifarresnetv21:stage2:", 
        "__shape__": "(16,)", 
        "__storage_type__": "0", 
        "__wd_mult__": "1.0"
      }, 
      "inputs": []
    }, 
    {
      "op": "null", 
      "name": "cifarresnetv21_stage2_batchnorm0_running_var", 
      "attrs": {
        "__dtype__": "0", 
        "__init__": "ones", 
        "__lr_mult__": "1.0", 
        "__profiler_scope__": "cifarresnetv21:stage2:", 
        "__shape__": "(16,)", 
        "__storage_type__": "0", 
        "__wd_mult__": "1.0"
      }, 
      "inputs": []
    }, 
    {
      "op": "BatchNorm", 
      "name": "cifarresnetv21_stage2_batchnorm0_fwd", 
      "attrs": {
        "__profiler_scope__": "cifarresnetv21:stage2:batchnorm0:", 
        "axis": "1", 
        "eps": "1e-05", 
        "fix_gamma": "False", 
        "momentum": "0.9", 
        "use_global_stats": "False"
      }, 
      "inputs": [[160, 0, 0], [161, 0, 0], [162, 0, 0], [163, 0, 1], [164, 0, 1]]
    }, 
    {
      "op": "Activation", 
      "name": "cifarresnetv21_stage2_activation0", 
      "attrs": {
        "__profiler_scope__": "cifarresnetv21:stage2:", 
        "act_type": "relu"
      }, 
      "inputs": [[165, 0, 0]]
    }, 
    {
      "op": "null", 
      "name": "cifarresnetv21_stage2_conv0_weight", 
      "attrs": {
        "__dtype__": "0", 
        "__lr_mult__": "1.0", 
        "__profiler_scope__": "cifarresnetv21:stage2:", 
        "__shape__": "(32, 16, 3, 3)", 
        "__storage_type__": "0", 
        "__wd_mult__": "1.0"
      }, 
      "inputs": []
    }, 
    {
      "op": "Convolution", 
      "name": "cifarresnetv21_stage2_conv0_fwd", 
      "attrs": {
        "__profiler_scope__": "cifarresnetv21:stage2:conv0:", 
        "dilate": "(1, 1)", 
        "kernel": "(3, 3)", 
        "layout": "NCHW", 
        "no_bias": "True", 
        "num_filter": "32", 
        "num_group": "1", 
        "pad": "(1, 1)", 
        "stride": "(2, 2)"
      }, 
      "inputs": [[166, 0, 0], [167, 0, 0]]
    }, 
    {
      "op": "null", 
      "name": "cifarresnetv21_stage2_batchnorm1_gamma", 
      "attrs": {
        "__dtype__": "0", 
        "__init__": "ones", 
        "__lr_mult__": "1.0", 
        "__profiler_scope__": "cifarresnetv21:stage2:", 
        "__shape__": "(32,)", 
        "__storage_type__": "0", 
        "__wd_mult__": "1.0"
      }, 
      "inputs": []
    }, 
    {
      "op": "null", 
      "name": "cifarresnetv21_stage2_batchnorm1_beta", 
      "attrs": {
        "__dtype__": "0", 
        "__init__": "zeros", 
        "__lr_mult__": "1.0", 
        "__profiler_scope__": "cifarresnetv21:stage2:", 
        "__shape__": "(32,)", 
        "__storage_type__": "0", 
        "__wd_mult__": "1.0"
      }, 
      "inputs": []
    }, 
    {
      "op": "null", 
      "name": "cifarresnetv21_stage2_batchnorm1_running_mean", 
      "attrs": {
        "__dtype__": "0", 
        "__init__": "zeros", 
        "__lr_mult__": "1.0", 
        "__profiler_scope__": "cifarresnetv21:stage2:", 
        "__shape__": "(32,)", 
        "__storage_type__": "0", 
        "__wd_mult__": "1.0"
      }, 
      "inputs": []
    }, 
    {
      "op": "null", 
      "name": "cifarresnetv21_stage2_batchnorm1_running_var", 
      "attrs": {
        "__dtype__": "0", 
        "__init__": "ones", 
        "__lr_mult__": "1.0", 
        "__profiler_scope__": "cifarresnetv21:stage2:", 
        "__shape__": "(32,)", 
        "__storage_type__": "0", 
        "__wd_mult__": "1.0"
      }, 
      "inputs": []
    }, 
    {
      "op": "BatchNorm", 
      "name": "cifarresnetv21_stage2_batchnorm1_fwd", 
      "attrs": {
        "__profiler_scope__": "cifarresnetv21:stage2:batchnorm1:", 
        "axis": "1", 
        "eps": "1e-05", 
        "fix_gamma": "False", 
        "momentum": "0.9", 
        "use_global_stats": "False"
      }, 
      "inputs": [[168, 0, 0], [169, 0, 0], [170, 0, 0], [171, 0, 1], [172, 0, 1]]
    }, 
    {
      "op": "Activation", 
      "name": "cifarresnetv21_stage2_activation1", 
      "attrs": {
        "__profiler_scope__": "cifarresnetv21:stage2:", 
        "act_type": "relu"
      }, 
      "inputs": [[173, 0, 0]]
    }, 
    {
      "op": "null", 
      "name": "cifarresnetv21_stage2_conv1_weight", 
      "attrs": {
        "__dtype__": "0", 
        "__lr_mult__": "1.0", 
        "__profiler_scope__": "cifarresnetv21:stage2:", 
        "__shape__": "(32, 32, 3, 3)", 
        "__storage_type__": "0", 
        "__wd_mult__": "1.0"
      }, 
      "inputs": []
    }, 
    {
      "op": "Convolution", 
      "name": "cifarresnetv21_stage2_conv1_fwd", 
      "attrs": {
        "__profiler_scope__": "cifarresnetv21:stage2:conv1:", 
        "dilate": "(1, 1)", 
        "kernel": "(3, 3)", 
        "layout": "NCHW", 
        "no_bias": "True", 
        "num_filter": "32", 
        "num_group": "1", 
        "pad": "(1, 1)", 
        "stride": "(1, 1)"
      }, 
      "inputs": [[174, 0, 0], [175, 0, 0]]
    }, 
    {
      "op": "null", 
      "name": "cifarresnetv21_stage2_conv2_weight", 
      "attrs": {
        "__dtype__": "0", 
        "__lr_mult__": "1.0", 
        "__profiler_scope__": "cifarresnetv21:stage2:", 
        "__shape__": "(32, 16, 1, 1)", 
        "__storage_type__": "0", 
        "__wd_mult__": "1.0"
      }, 
      "inputs": []
    }, 
    {
      "op": "Convolution", 
      "name": "cifarresnetv21_stage2_conv2_fwd", 
      "attrs": {
        "__profiler_scope__": "cifarresnetv21:stage2:conv2:", 
        "dilate": "(1, 1)", 
        "kernel": "(1, 1)", 
        "layout": "NCHW", 
        "no_bias": "True", 
        "num_filter": "32", 
        "num_group": "1", 
        "pad": "(0, 0)", 
        "stride": "(2, 2)"
      }, 
      "inputs": [[160, 0, 0], [177, 0, 0]]
    }, 
    {
      "op": "elemwise_add", 
      "name": "cifarresnetv21_stage2__plus0", 
      "attrs": {"__profiler_scope__": "cifarresnetv21:stage2:"}, 
      "inputs": [[176, 0, 0], [178, 0, 0]]
    }, 
    {
      "op": "null", 
      "name": "cifarresnetv21_stage2_batchnorm2_gamma", 
      "attrs": {
        "__dtype__": "0", 
        "__init__": "ones", 
        "__lr_mult__": "1.0", 
        "__profiler_scope__": "cifarresnetv21:stage2:", 
        "__shape__": "(32,)", 
        "__storage_type__": "0", 
        "__wd_mult__": "1.0"
      }, 
      "inputs": []
    }, 
    {
      "op": "null", 
      "name": "cifarresnetv21_stage2_batchnorm2_beta", 
      "attrs": {
        "__dtype__": "0", 
        "__init__": "zeros", 
        "__lr_mult__": "1.0", 
        "__profiler_scope__": "cifarresnetv21:stage2:", 
        "__shape__": "(32,)", 
        "__storage_type__": "0", 
        "__wd_mult__": "1.0"
      }, 
      "inputs": []
    }, 
    {
      "op": "null", 
      "name": "cifarresnetv21_stage2_batchnorm2_running_mean", 
      "attrs": {
        "__dtype__": "0", 
        "__init__": "zeros", 
        "__lr_mult__": "1.0", 
        "__profiler_scope__": "cifarresnetv21:stage2:", 
        "__shape__": "(32,)", 
        "__storage_type__": "0", 
        "__wd_mult__": "1.0"
      }, 
      "inputs": []
    }, 
    {
      "op": "null", 
      "name": "cifarresnetv21_stage2_batchnorm2_running_var", 
      "attrs": {
        "__dtype__": "0", 
        "__init__": "ones", 
        "__lr_mult__": "1.0", 
        "__profiler_scope__": "cifarresnetv21:stage2:", 
        "__shape__": "(32,)", 
        "__storage_type__": "0", 
        "__wd_mult__": "1.0"
      }, 
      "inputs": []
    }, 
    {
      "op": "BatchNorm", 
      "name": "cifarresnetv21_stage2_batchnorm2_fwd", 
      "attrs": {
        "__profiler_scope__": "cifarresnetv21:stage2:batchnorm2:", 
        "axis": "1", 
        "eps": "1e-05", 
        "fix_gamma": "False", 
        "momentum": "0.9", 
        "use_global_stats": "False"
      }, 
      "inputs": [[179, 0, 0], [180, 0, 0], [181, 0, 0], [182, 0, 1], [183, 0, 1]]
    }, 
    {
      "op": "Activation", 
      "name": "cifarresnetv21_stage2_activation2", 
      "attrs": {
        "__profiler_scope__": "cifarresnetv21:stage2:", 
        "act_type": "relu"
      }, 
      "inputs": [[184, 0, 0]]
    }, 
    {
      "op": "null", 
      "name": "cifarresnetv21_stage2_conv3_weight", 
      "attrs": {
        "__dtype__": "0", 
        "__lr_mult__": "1.0", 
        "__profiler_scope__": "cifarresnetv21:stage2:", 
        "__shape__": "(32, 32, 3, 3)", 
        "__storage_type__": "0", 
        "__wd_mult__": "1.0"
      }, 
      "inputs": []
    }, 
    {
      "op": "Convolution", 
      "name": "cifarresnetv21_stage2_conv3_fwd", 
      "attrs": {
        "__profiler_scope__": "cifarresnetv21:stage2:conv3:", 
        "dilate": "(1, 1)", 
        "kernel": "(3, 3)", 
        "layout": "NCHW", 
        "no_bias": "True", 
        "num_filter": "32", 
        "num_group": "1", 
        "pad": "(1, 1)", 
        "stride": "(1, 1)"
      }, 
      "inputs": [[185, 0, 0], [186, 0, 0]]
    }, 
    {
      "op": "null", 
      "name": "cifarresnetv21_stage2_batchnorm3_gamma", 
      "attrs": {
        "__dtype__": "0", 
        "__init__": "ones", 
        "__lr_mult__": "1.0", 
        "__profiler_scope__": "cifarresnetv21:stage2:", 
        "__shape__": "(32,)", 
        "__storage_type__": "0", 
        "__wd_mult__": "1.0"
      }, 
      "inputs": []
    }, 
    {
      "op": "null", 
      "name": "cifarresnetv21_stage2_batchnorm3_beta", 
      "attrs": {
        "__dtype__": "0", 
        "__init__": "zeros", 
        "__lr_mult__": "1.0", 
        "__profiler_scope__": "cifarresnetv21:stage2:", 
        "__shape__": "(32,)", 
        "__storage_type__": "0", 
        "__wd_mult__": "1.0"
      }, 
      "inputs": []
    }, 
    {
      "op": "null", 
      "name": "cifarresnetv21_stage2_batchnorm3_running_mean", 
      "attrs": {
        "__dtype__": "0", 
        "__init__": "zeros", 
        "__lr_mult__": "1.0", 
        "__profiler_scope__": "cifarresnetv21:stage2:", 
        "__shape__": "(32,)", 
        "__storage_type__": "0", 
        "__wd_mult__": "1.0"
      }, 
      "inputs": []
    }, 
    {
      "op": "null", 
      "name": "cifarresnetv21_stage2_batchnorm3_running_var", 
      "attrs": {
        "__dtype__": "0", 
        "__init__": "ones", 
        "__lr_mult__": "1.0", 
        "__profiler_scope__": "cifarresnetv21:stage2:", 
        "__shape__": "(32,)", 
        "__storage_type__": "0", 
        "__wd_mult__": "1.0"
      }, 
      "inputs": []
    }, 
    {
      "op": "BatchNorm", 
      "name": "cifarresnetv21_stage2_batchnorm3_fwd", 
      "attrs": {
        "__profiler_scope__": "cifarresnetv21:stage2:batchnorm3:", 
        "axis": "1", 
        "eps": "1e-05", 
        "fix_gamma": "False", 
        "momentum": "0.9", 
        "use_global_stats": "False"
      }, 
      "inputs": [[187, 0, 0], [188, 0, 0], [189, 0, 0], [190, 0, 1], [191, 0, 1]]
    }, 
    {
      "op": "Activation", 
      "name": "cifarresnetv21_stage2_activation3", 
      "attrs": {
        "__profiler_scope__": "cifarresnetv21:stage2:", 
        "act_type": "relu"
      }, 
      "inputs": [[192, 0, 0]]
    }, 
    {
      "op": "null", 
      "name": "cifarresnetv21_stage2_conv4_weight", 
      "attrs": {
        "__dtype__": "0", 
        "__lr_mult__": "1.0", 
        "__profiler_scope__": "cifarresnetv21:stage2:", 
        "__shape__": "(32, 32, 3, 3)", 
        "__storage_type__": "0", 
        "__wd_mult__": "1.0"
      }, 
      "inputs": []
    }, 
    {
      "op": "Convolution", 
      "name": "cifarresnetv21_stage2_conv4_fwd", 
      "attrs": {
        "__profiler_scope__": "cifarresnetv21:stage2:conv4:", 
        "dilate": "(1, 1)", 
        "kernel": "(3, 3)", 
        "layout": "NCHW", 
        "no_bias": "True", 
        "num_filter": "32", 
        "num_group": "1", 
        "pad": "(1, 1)", 
        "stride": "(1, 1)"
      }, 
      "inputs": [[193, 0, 0], [194, 0, 0]]
    }, 
    {
      "op": "elemwise_add", 
      "name": "cifarresnetv21_stage2__plus1", 
      "attrs": {"__profiler_scope__": "cifarresnetv21:stage2:"}, 
      "inputs": [[195, 0, 0], [179, 0, 0]]
    }, 
    {
      "op": "null", 
      "name": "cifarresnetv21_stage2_batchnorm4_gamma", 
      "attrs": {
        "__dtype__": "0", 
        "__init__": "ones", 
        "__lr_mult__": "1.0", 
        "__profiler_scope__": "cifarresnetv21:stage2:", 
        "__shape__": "(32,)", 
        "__storage_type__": "0", 
        "__wd_mult__": "1.0"
      }, 
      "inputs": []
    }, 
    {
      "op": "null", 
      "name": "cifarresnetv21_stage2_batchnorm4_beta", 
      "attrs": {
        "__dtype__": "0", 
        "__init__": "zeros", 
        "__lr_mult__": "1.0", 
        "__profiler_scope__": "cifarresnetv21:stage2:", 
        "__shape__": "(32,)", 
        "__storage_type__": "0", 
        "__wd_mult__": "1.0"
      }, 
      "inputs": []
    }, 
    {
      "op": "null", 
      "name": "cifarresnetv21_stage2_batchnorm4_running_mean", 
      "attrs": {
        "__dtype__": "0", 
        "__init__": "zeros", 
        "__lr_mult__": "1.0", 
        "__profiler_scope__": "cifarresnetv21:stage2:", 
        "__shape__": "(32,)", 
        "__storage_type__": "0", 
        "__wd_mult__": "1.0"
      }, 
      "inputs": []
    }, 
    {
      "op": "null", 
      "name": "cifarresnetv21_stage2_batchnorm4_running_var", 
      "attrs": {
        "__dtype__": "0", 
        "__init__": "ones", 
        "__lr_mult__": "1.0", 
        "__profiler_scope__": "cifarresnetv21:stage2:", 
        "__shape__": "(32,)", 
        "__storage_type__": "0", 
        "__wd_mult__": "1.0"
      }, 
      "inputs": []
    }, 
    {
      "op": "BatchNorm", 
      "name": "cifarresnetv21_stage2_batchnorm4_fwd", 
      "attrs": {
        "__profiler_scope__": "cifarresnetv21:stage2:batchnorm4:", 
        "axis": "1", 
        "eps": "1e-05", 
        "fix_gamma": "False", 
        "momentum": "0.9", 
        "use_global_stats": "False"
      }, 
      "inputs": [[196, 0, 0], [197, 0, 0], [198, 0, 0], [199, 0, 1], [200, 0, 1]]
    }, 
    {
      "op": "Activation", 
      "name": "cifarresnetv21_stage2_activation4", 
      "attrs": {
        "__profiler_scope__": "cifarresnetv21:stage2:", 
        "act_type": "relu"
      }, 
      "inputs": [[201, 0, 0]]
    }, 
    {
      "op": "null", 
      "name": "cifarresnetv21_stage2_conv5_weight", 
      "attrs": {
        "__dtype__": "0", 
        "__lr_mult__": "1.0", 
        "__profiler_scope__": "cifarresnetv21:stage2:", 
        "__shape__": "(32, 32, 3, 3)", 
        "__storage_type__": "0", 
        "__wd_mult__": "1.0"
      }, 
      "inputs": []
    }, 
    {
      "op": "Convolution", 
      "name": "cifarresnetv21_stage2_conv5_fwd", 
      "attrs": {
        "__profiler_scope__": "cifarresnetv21:stage2:conv5:", 
        "dilate": "(1, 1)", 
        "kernel": "(3, 3)", 
        "layout": "NCHW", 
        "no_bias": "True", 
        "num_filter": "32", 
        "num_group": "1", 
        "pad": "(1, 1)", 
        "stride": "(1, 1)"
      }, 
      "inputs": [[202, 0, 0], [203, 0, 0]]
    }, 
    {
      "op": "null", 
      "name": "cifarresnetv21_stage2_batchnorm5_gamma", 
      "attrs": {
        "__dtype__": "0", 
        "__init__": "ones", 
        "__lr_mult__": "1.0", 
        "__profiler_scope__": "cifarresnetv21:stage2:", 
        "__shape__": "(32,)", 
        "__storage_type__": "0", 
        "__wd_mult__": "1.0"
      }, 
      "inputs": []
    }, 
    {
      "op": "null", 
      "name": "cifarresnetv21_stage2_batchnorm5_beta", 
      "attrs": {
        "__dtype__": "0", 
        "__init__": "zeros", 
        "__lr_mult__": "1.0", 
        "__profiler_scope__": "cifarresnetv21:stage2:", 
        "__shape__": "(32,)", 
        "__storage_type__": "0", 
        "__wd_mult__": "1.0"
      }, 
      "inputs": []
    }, 
    {
      "op": "null", 
      "name": "cifarresnetv21_stage2_batchnorm5_running_mean", 
      "attrs": {
        "__dtype__": "0", 
        "__init__": "zeros", 
        "__lr_mult__": "1.0", 
        "__profiler_scope__": "cifarresnetv21:stage2:", 
        "__shape__": "(32,)", 
        "__storage_type__": "0", 
        "__wd_mult__": "1.0"
      }, 
      "inputs": []
    }, 
    {
      "op": "null", 
      "name": "cifarresnetv21_stage2_batchnorm5_running_var", 
      "attrs": {
        "__dtype__": "0", 
        "__init__": "ones", 
        "__lr_mult__": "1.0", 
        "__profiler_scope__": "cifarresnetv21:stage2:", 
        "__shape__": "(32,)", 
        "__storage_type__": "0", 
        "__wd_mult__": "1.0"
      }, 
      "inputs": []
    }, 
    {
      "op": "BatchNorm", 
      "name": "cifarresnetv21_stage2_batchnorm5_fwd", 
      "attrs": {
        "__profiler_scope__": "cifarresnetv21:stage2:batchnorm5:", 
        "axis": "1", 
        "eps": "1e-05", 
        "fix_gamma": "False", 
        "momentum": "0.9", 
        "use_global_stats": "False"
      }, 
      "inputs": [[204, 0, 0], [205, 0, 0], [206, 0, 0], [207, 0, 1], [208, 0, 1]]
    }, 
    {
      "op": "Activation", 
      "name": "cifarresnetv21_stage2_activation5", 
      "attrs": {
        "__profiler_scope__": "cifarresnetv21:stage2:", 
        "act_type": "relu"
      }, 
      "inputs": [[209, 0, 0]]
    }, 
    {
      "op": "null", 
      "name": "cifarresnetv21_stage2_conv6_weight", 
      "attrs": {
        "__dtype__": "0", 
        "__lr_mult__": "1.0", 
        "__profiler_scope__": "cifarresnetv21:stage2:", 
        "__shape__": "(32, 32, 3, 3)", 
        "__storage_type__": "0", 
        "__wd_mult__": "1.0"
      }, 
      "inputs": []
    }, 
    {
      "op": "Convolution", 
      "name": "cifarresnetv21_stage2_conv6_fwd", 
      "attrs": {
        "__profiler_scope__": "cifarresnetv21:stage2:conv6:", 
        "dilate": "(1, 1)", 
        "kernel": "(3, 3)", 
        "layout": "NCHW", 
        "no_bias": "True", 
        "num_filter": "32", 
        "num_group": "1", 
        "pad": "(1, 1)", 
        "stride": "(1, 1)"
      }, 
      "inputs": [[210, 0, 0], [211, 0, 0]]
    }, 
    {
      "op": "elemwise_add", 
      "name": "cifarresnetv21_stage2__plus2", 
      "attrs": {"__profiler_scope__": "cifarresnetv21:stage2:"}, 
      "inputs": [[212, 0, 0], [196, 0, 0]]
    }, 
    {
      "op": "null", 
      "name": "cifarresnetv21_stage2_batchnorm6_gamma", 
      "attrs": {
        "__dtype__": "0", 
        "__init__": "ones", 
        "__lr_mult__": "1.0", 
        "__profiler_scope__": "cifarresnetv21:stage2:", 
        "__shape__": "(32,)", 
        "__storage_type__": "0", 
        "__wd_mult__": "1.0"
      }, 
      "inputs": []
    }, 
    {
      "op": "null", 
      "name": "cifarresnetv21_stage2_batchnorm6_beta", 
      "attrs": {
        "__dtype__": "0", 
        "__init__": "zeros", 
        "__lr_mult__": "1.0", 
        "__profiler_scope__": "cifarresnetv21:stage2:", 
        "__shape__": "(32,)", 
        "__storage_type__": "0", 
        "__wd_mult__": "1.0"
      }, 
      "inputs": []
    }, 
    {
      "op": "null", 
      "name": "cifarresnetv21_stage2_batchnorm6_running_mean", 
      "attrs": {
        "__dtype__": "0", 
        "__init__": "zeros", 
        "__lr_mult__": "1.0", 
        "__profiler_scope__": "cifarresnetv21:stage2:", 
        "__shape__": "(32,)", 
        "__storage_type__": "0", 
        "__wd_mult__": "1.0"
      }, 
      "inputs": []
    }, 
    {
      "op": "null", 
      "name": "cifarresnetv21_stage2_batchnorm6_running_var", 
      "attrs": {
        "__dtype__": "0", 
        "__init__": "ones", 
        "__lr_mult__": "1.0", 
        "__profiler_scope__": "cifarresnetv21:stage2:", 
        "__shape__": "(32,)", 
        "__storage_type__": "0", 
        "__wd_mult__": "1.0"
      }, 
      "inputs": []
    }, 
    {
      "op": "BatchNorm", 
      "name": "cifarresnetv21_stage2_batchnorm6_fwd", 
      "attrs": {
        "__profiler_scope__": "cifarresnetv21:stage2:batchnorm6:", 
        "axis": "1", 
        "eps": "1e-05", 
        "fix_gamma": "False", 
        "momentum": "0.9", 
        "use_global_stats": "False"
      }, 
      "inputs": [[213, 0, 0], [214, 0, 0], [215, 0, 0], [216, 0, 1], [217, 0, 1]]
    }, 
    {
      "op": "Activation", 
      "name": "cifarresnetv21_stage2_activation6", 
      "attrs": {
        "__profiler_scope__": "cifarresnetv21:stage2:", 
        "act_type": "relu"
      }, 
      "inputs": [[218, 0, 0]]
    }, 
    {
      "op": "null", 
      "name": "cifarresnetv21_stage2_conv7_weight", 
      "attrs": {
        "__dtype__": "0", 
        "__lr_mult__": "1.0", 
        "__profiler_scope__": "cifarresnetv21:stage2:", 
        "__shape__": "(32, 32, 3, 3)", 
        "__storage_type__": "0", 
        "__wd_mult__": "1.0"
      }, 
      "inputs": []
    }, 
    {
      "op": "Convolution", 
      "name": "cifarresnetv21_stage2_conv7_fwd", 
      "attrs": {
        "__profiler_scope__": "cifarresnetv21:stage2:conv7:", 
        "dilate": "(1, 1)", 
        "kernel": "(3, 3)", 
        "layout": "NCHW", 
        "no_bias": "True", 
        "num_filter": "32", 
        "num_group": "1", 
        "pad": "(1, 1)", 
        "stride": "(1, 1)"
      }, 
      "inputs": [[219, 0, 0], [220, 0, 0]]
    }, 
    {
      "op": "null", 
      "name": "cifarresnetv21_stage2_batchnorm7_gamma", 
      "attrs": {
        "__dtype__": "0", 
        "__init__": "ones", 
        "__lr_mult__": "1.0", 
        "__profiler_scope__": "cifarresnetv21:stage2:", 
        "__shape__": "(32,)", 
        "__storage_type__": "0", 
        "__wd_mult__": "1.0"
      }, 
      "inputs": []
    }, 
    {
      "op": "null", 
      "name": "cifarresnetv21_stage2_batchnorm7_beta", 
      "attrs": {
        "__dtype__": "0", 
        "__init__": "zeros", 
        "__lr_mult__": "1.0", 
        "__profiler_scope__": "cifarresnetv21:stage2:", 
        "__shape__": "(32,)", 
        "__storage_type__": "0", 
        "__wd_mult__": "1.0"
      }, 
      "inputs": []
    }, 
    {
      "op": "null", 
      "name": "cifarresnetv21_stage2_batchnorm7_running_mean", 
      "attrs": {
        "__dtype__": "0", 
        "__init__": "zeros", 
        "__lr_mult__": "1.0", 
        "__profiler_scope__": "cifarresnetv21:stage2:", 
        "__shape__": "(32,)", 
        "__storage_type__": "0", 
        "__wd_mult__": "1.0"
      }, 
      "inputs": []
    }, 
    {
      "op": "null", 
      "name": "cifarresnetv21_stage2_batchnorm7_running_var", 
      "attrs": {
        "__dtype__": "0", 
        "__init__": "ones", 
        "__lr_mult__": "1.0", 
        "__profiler_scope__": "cifarresnetv21:stage2:", 
        "__shape__": "(32,)", 
        "__storage_type__": "0", 
        "__wd_mult__": "1.0"
      }, 
      "inputs": []
    }, 
    {
      "op": "BatchNorm", 
      "name": "cifarresnetv21_stage2_batchnorm7_fwd", 
      "attrs": {
        "__profiler_scope__": "cifarresnetv21:stage2:batchnorm7:", 
        "axis": "1", 
        "eps": "1e-05", 
        "fix_gamma": "False", 
        "momentum": "0.9", 
        "use_global_stats": "False"
      }, 
      "inputs": [[221, 0, 0], [222, 0, 0], [223, 0, 0], [224, 0, 1], [225, 0, 1]]
    }, 
    {
      "op": "Activation", 
      "name": "cifarresnetv21_stage2_activation7", 
      "attrs": {
        "__profiler_scope__": "cifarresnetv21:stage2:", 
        "act_type": "relu"
      }, 
      "inputs": [[226, 0, 0]]
    }, 
    {
      "op": "null", 
      "name": "cifarresnetv21_stage2_conv8_weight", 
      "attrs": {
        "__dtype__": "0", 
        "__lr_mult__": "1.0", 
        "__profiler_scope__": "cifarresnetv21:stage2:", 
        "__shape__": "(32, 32, 3, 3)", 
        "__storage_type__": "0", 
        "__wd_mult__": "1.0"
      }, 
      "inputs": []
    }, 
    {
      "op": "Convolution", 
      "name": "cifarresnetv21_stage2_conv8_fwd", 
      "attrs": {
        "__profiler_scope__": "cifarresnetv21:stage2:conv8:", 
        "dilate": "(1, 1)", 
        "kernel": "(3, 3)", 
        "layout": "NCHW", 
        "no_bias": "True", 
        "num_filter": "32", 
        "num_group": "1", 
        "pad": "(1, 1)", 
        "stride": "(1, 1)"
      }, 
      "inputs": [[227, 0, 0], [228, 0, 0]]
    }, 
    {
      "op": "elemwise_add", 
      "name": "cifarresnetv21_stage2__plus3", 
      "attrs": {"__profiler_scope__": "cifarresnetv21:stage2:"}, 
      "inputs": [[229, 0, 0], [213, 0, 0]]
    }, 
    {
      "op": "null", 
      "name": "cifarresnetv21_stage2_batchnorm8_gamma", 
      "attrs": {
        "__dtype__": "0", 
        "__init__": "ones", 
        "__lr_mult__": "1.0", 
        "__profiler_scope__": "cifarresnetv21:stage2:", 
        "__shape__": "(32,)", 
        "__storage_type__": "0", 
        "__wd_mult__": "1.0"
      }, 
      "inputs": []
    }, 
    {
      "op": "null", 
      "name": "cifarresnetv21_stage2_batchnorm8_beta", 
      "attrs": {
        "__dtype__": "0", 
        "__init__": "zeros", 
        "__lr_mult__": "1.0", 
        "__profiler_scope__": "cifarresnetv21:stage2:", 
        "__shape__": "(32,)", 
        "__storage_type__": "0", 
        "__wd_mult__": "1.0"
      }, 
      "inputs": []
    }, 
    {
      "op": "null", 
      "name": "cifarresnetv21_stage2_batchnorm8_running_mean", 
      "attrs": {
        "__dtype__": "0", 
        "__init__": "zeros", 
        "__lr_mult__": "1.0", 
        "__profiler_scope__": "cifarresnetv21:stage2:", 
        "__shape__": "(32,)", 
        "__storage_type__": "0", 
        "__wd_mult__": "1.0"
      }, 
      "inputs": []
    }, 
    {
      "op": "null", 
      "name": "cifarresnetv21_stage2_batchnorm8_running_var", 
      "attrs": {
        "__dtype__": "0", 
        "__init__": "ones", 
        "__lr_mult__": "1.0", 
        "__profiler_scope__": "cifarresnetv21:stage2:", 
        "__shape__": "(32,)", 
        "__storage_type__": "0", 
        "__wd_mult__": "1.0"
      }, 
      "inputs": []
    }, 
    {
      "op": "BatchNorm", 
      "name": "cifarresnetv21_stage2_batchnorm8_fwd", 
      "attrs": {
        "__profiler_scope__": "cifarresnetv21:stage2:batchnorm8:", 
        "axis": "1", 
        "eps": "1e-05", 
        "fix_gamma": "False", 
        "momentum": "0.9", 
        "use_global_stats": "False"
      }, 
      "inputs": [[230, 0, 0], [231, 0, 0], [232, 0, 0], [233, 0, 1], [234, 0, 1]]
    }, 
    {
      "op": "Activation", 
      "name": "cifarresnetv21_stage2_activation8", 
      "attrs": {
        "__profiler_scope__": "cifarresnetv21:stage2:", 
        "act_type": "relu"
      }, 
      "inputs": [[235, 0, 0]]
    }, 
    {
      "op": "null", 
      "name": "cifarresnetv21_stage2_conv9_weight", 
      "attrs": {
        "__dtype__": "0", 
        "__lr_mult__": "1.0", 
        "__profiler_scope__": "cifarresnetv21:stage2:", 
        "__shape__": "(32, 32, 3, 3)", 
        "__storage_type__": "0", 
        "__wd_mult__": "1.0"
      }, 
      "inputs": []
    }, 
    {
      "op": "Convolution", 
      "name": "cifarresnetv21_stage2_conv9_fwd", 
      "attrs": {
        "__profiler_scope__": "cifarresnetv21:stage2:conv9:", 
        "dilate": "(1, 1)", 
        "kernel": "(3, 3)", 
        "layout": "NCHW", 
        "no_bias": "True", 
        "num_filter": "32", 
        "num_group": "1", 
        "pad": "(1, 1)", 
        "stride": "(1, 1)"
      }, 
      "inputs": [[236, 0, 0], [237, 0, 0]]
    }, 
    {
      "op": "null", 
      "name": "cifarresnetv21_stage2_batchnorm9_gamma", 
      "attrs": {
        "__dtype__": "0", 
        "__init__": "ones", 
        "__lr_mult__": "1.0", 
        "__profiler_scope__": "cifarresnetv21:stage2:", 
        "__shape__": "(32,)", 
        "__storage_type__": "0", 
        "__wd_mult__": "1.0"
      }, 
      "inputs": []
    }, 
    {
      "op": "null", 
      "name": "cifarresnetv21_stage2_batchnorm9_beta", 
      "attrs": {
        "__dtype__": "0", 
        "__init__": "zeros", 
        "__lr_mult__": "1.0", 
        "__profiler_scope__": "cifarresnetv21:stage2:", 
        "__shape__": "(32,)", 
        "__storage_type__": "0", 
        "__wd_mult__": "1.0"
      }, 
      "inputs": []
    }, 
    {
      "op": "null", 
      "name": "cifarresnetv21_stage2_batchnorm9_running_mean", 
      "attrs": {
        "__dtype__": "0", 
        "__init__": "zeros", 
        "__lr_mult__": "1.0", 
        "__profiler_scope__": "cifarresnetv21:stage2:", 
        "__shape__": "(32,)", 
        "__storage_type__": "0", 
        "__wd_mult__": "1.0"
      }, 
      "inputs": []
    }, 
    {
      "op": "null", 
      "name": "cifarresnetv21_stage2_batchnorm9_running_var", 
      "attrs": {
        "__dtype__": "0", 
        "__init__": "ones", 
        "__lr_mult__": "1.0", 
        "__profiler_scope__": "cifarresnetv21:stage2:", 
        "__shape__": "(32,)", 
        "__storage_type__": "0", 
        "__wd_mult__": "1.0"
      }, 
      "inputs": []
    }, 
    {
      "op": "BatchNorm", 
      "name": "cifarresnetv21_stage2_batchnorm9_fwd", 
      "attrs": {
        "__profiler_scope__": "cifarresnetv21:stage2:batchnorm9:", 
        "axis": "1", 
        "eps": "1e-05", 
        "fix_gamma": "False", 
        "momentum": "0.9", 
        "use_global_stats": "False"
      }, 
      "inputs": [[238, 0, 0], [239, 0, 0], [240, 0, 0], [241, 0, 1], [242, 0, 1]]
    }, 
    {
      "op": "Activation", 
      "name": "cifarresnetv21_stage2_activation9", 
      "attrs": {
        "__profiler_scope__": "cifarresnetv21:stage2:", 
        "act_type": "relu"
      }, 
      "inputs": [[243, 0, 0]]
    }, 
    {
      "op": "null", 
      "name": "cifarresnetv21_stage2_conv10_weight", 
      "attrs": {
        "__dtype__": "0", 
        "__lr_mult__": "1.0", 
        "__profiler_scope__": "cifarresnetv21:stage2:", 
        "__shape__": "(32, 32, 3, 3)", 
        "__storage_type__": "0", 
        "__wd_mult__": "1.0"
      }, 
      "inputs": []
    }, 
    {
      "op": "Convolution", 
      "name": "cifarresnetv21_stage2_conv10_fwd", 
      "attrs": {
        "__profiler_scope__": "cifarresnetv21:stage2:conv10:", 
        "dilate": "(1, 1)", 
        "kernel": "(3, 3)", 
        "layout": "NCHW", 
        "no_bias": "True", 
        "num_filter": "32", 
        "num_group": "1", 
        "pad": "(1, 1)", 
        "stride": "(1, 1)"
      }, 
      "inputs": [[244, 0, 0], [245, 0, 0]]
    }, 
    {
      "op": "elemwise_add", 
      "name": "cifarresnetv21_stage2__plus4", 
      "attrs": {"__profiler_scope__": "cifarresnetv21:stage2:"}, 
      "inputs": [[246, 0, 0], [230, 0, 0]]
    }, 
    {
      "op": "null", 
      "name": "cifarresnetv21_stage2_batchnorm10_gamma", 
      "attrs": {
        "__dtype__": "0", 
        "__init__": "ones", 
        "__lr_mult__": "1.0", 
        "__profiler_scope__": "cifarresnetv21:stage2:", 
        "__shape__": "(32,)", 
        "__storage_type__": "0", 
        "__wd_mult__": "1.0"
      }, 
      "inputs": []
    }, 
    {
      "op": "null", 
      "name": "cifarresnetv21_stage2_batchnorm10_beta", 
      "attrs": {
        "__dtype__": "0", 
        "__init__": "zeros", 
        "__lr_mult__": "1.0", 
        "__profiler_scope__": "cifarresnetv21:stage2:", 
        "__shape__": "(32,)", 
        "__storage_type__": "0", 
        "__wd_mult__": "1.0"
      }, 
      "inputs": []
    }, 
    {
      "op": "null", 
      "name": "cifarresnetv21_stage2_batchnorm10_running_mean", 
      "attrs": {
        "__dtype__": "0", 
        "__init__": "zeros", 
        "__lr_mult__": "1.0", 
        "__profiler_scope__": "cifarresnetv21:stage2:", 
        "__shape__": "(32,)", 
        "__storage_type__": "0", 
        "__wd_mult__": "1.0"
      }, 
      "inputs": []
    }, 
    {
      "op": "null", 
      "name": "cifarresnetv21_stage2_batchnorm10_running_var", 
      "attrs": {
        "__dtype__": "0", 
        "__init__": "ones", 
        "__lr_mult__": "1.0", 
        "__profiler_scope__": "cifarresnetv21:stage2:", 
        "__shape__": "(32,)", 
        "__storage_type__": "0", 
        "__wd_mult__": "1.0"
      }, 
      "inputs": []
    }, 
    {
      "op": "BatchNorm", 
      "name": "cifarresnetv21_stage2_batchnorm10_fwd", 
      "attrs": {
        "__profiler_scope__": "cifarresnetv21:stage2:batchnorm10:", 
        "axis": "1", 
        "eps": "1e-05", 
        "fix_gamma": "False", 
        "momentum": "0.9", 
        "use_global_stats": "False"
      }, 
      "inputs": [[247, 0, 0], [248, 0, 0], [249, 0, 0], [250, 0, 1], [251, 0, 1]]
    }, 
    {
      "op": "Activation", 
      "name": "cifarresnetv21_stage2_activation10", 
      "attrs": {
        "__profiler_scope__": "cifarresnetv21:stage2:", 
        "act_type": "relu"
      }, 
      "inputs": [[252, 0, 0]]
    }, 
    {
      "op": "null", 
      "name": "cifarresnetv21_stage2_conv11_weight", 
      "attrs": {
        "__dtype__": "0", 
        "__lr_mult__": "1.0", 
        "__profiler_scope__": "cifarresnetv21:stage2:", 
        "__shape__": "(32, 32, 3, 3)", 
        "__storage_type__": "0", 
        "__wd_mult__": "1.0"
      }, 
      "inputs": []
    }, 
    {
      "op": "Convolution", 
      "name": "cifarresnetv21_stage2_conv11_fwd", 
      "attrs": {
        "__profiler_scope__": "cifarresnetv21:stage2:conv11:", 
        "dilate": "(1, 1)", 
        "kernel": "(3, 3)", 
        "layout": "NCHW", 
        "no_bias": "True", 
        "num_filter": "32", 
        "num_group": "1", 
        "pad": "(1, 1)", 
        "stride": "(1, 1)"
      }, 
      "inputs": [[253, 0, 0], [254, 0, 0]]
    }, 
    {
      "op": "null", 
      "name": "cifarresnetv21_stage2_batchnorm11_gamma", 
      "attrs": {
        "__dtype__": "0", 
        "__init__": "ones", 
        "__lr_mult__": "1.0", 
        "__profiler_scope__": "cifarresnetv21:stage2:", 
        "__shape__": "(32,)", 
        "__storage_type__": "0", 
        "__wd_mult__": "1.0"
      }, 
      "inputs": []
    }, 
    {
      "op": "null", 
      "name": "cifarresnetv21_stage2_batchnorm11_beta", 
      "attrs": {
        "__dtype__": "0", 
        "__init__": "zeros", 
        "__lr_mult__": "1.0", 
        "__profiler_scope__": "cifarresnetv21:stage2:", 
        "__shape__": "(32,)", 
        "__storage_type__": "0", 
        "__wd_mult__": "1.0"
      }, 
      "inputs": []
    }, 
    {
      "op": "null", 
      "name": "cifarresnetv21_stage2_batchnorm11_running_mean", 
      "attrs": {
        "__dtype__": "0", 
        "__init__": "zeros", 
        "__lr_mult__": "1.0", 
        "__profiler_scope__": "cifarresnetv21:stage2:", 
        "__shape__": "(32,)", 
        "__storage_type__": "0", 
        "__wd_mult__": "1.0"
      }, 
      "inputs": []
    }, 
    {
      "op": "null", 
      "name": "cifarresnetv21_stage2_batchnorm11_running_var", 
      "attrs": {
        "__dtype__": "0", 
        "__init__": "ones", 
        "__lr_mult__": "1.0", 
        "__profiler_scope__": "cifarresnetv21:stage2:", 
        "__shape__": "(32,)", 
        "__storage_type__": "0", 
        "__wd_mult__": "1.0"
      }, 
      "inputs": []
    }, 
    {
      "op": "BatchNorm", 
      "name": "cifarresnetv21_stage2_batchnorm11_fwd", 
      "attrs": {
        "__profiler_scope__": "cifarresnetv21:stage2:batchnorm11:", 
        "axis": "1", 
        "eps": "1e-05", 
        "fix_gamma": "False", 
        "momentum": "0.9", 
        "use_global_stats": "False"
      }, 
      "inputs": [[255, 0, 0], [256, 0, 0], [257, 0, 0], [258, 0, 1], [259, 0, 1]]
    }, 
    {
      "op": "Activation", 
      "name": "cifarresnetv21_stage2_activation11", 
      "attrs": {
        "__profiler_scope__": "cifarresnetv21:stage2:", 
        "act_type": "relu"
      }, 
      "inputs": [[260, 0, 0]]
    }, 
    {
      "op": "null", 
      "name": "cifarresnetv21_stage2_conv12_weight", 
      "attrs": {
        "__dtype__": "0", 
        "__lr_mult__": "1.0", 
        "__profiler_scope__": "cifarresnetv21:stage2:", 
        "__shape__": "(32, 32, 3, 3)", 
        "__storage_type__": "0", 
        "__wd_mult__": "1.0"
      }, 
      "inputs": []
    }, 
    {
      "op": "Convolution", 
      "name": "cifarresnetv21_stage2_conv12_fwd", 
      "attrs": {
        "__profiler_scope__": "cifarresnetv21:stage2:conv12:", 
        "dilate": "(1, 1)", 
        "kernel": "(3, 3)", 
        "layout": "NCHW", 
        "no_bias": "True", 
        "num_filter": "32", 
        "num_group": "1", 
        "pad": "(1, 1)", 
        "stride": "(1, 1)"
      }, 
      "inputs": [[261, 0, 0], [262, 0, 0]]
    }, 
    {
      "op": "elemwise_add", 
      "name": "cifarresnetv21_stage2__plus5", 
      "attrs": {"__profiler_scope__": "cifarresnetv21:stage2:"}, 
      "inputs": [[263, 0, 0], [247, 0, 0]]
    }, 
    {
      "op": "null", 
      "name": "cifarresnetv21_stage2_batchnorm12_gamma", 
      "attrs": {
        "__dtype__": "0", 
        "__init__": "ones", 
        "__lr_mult__": "1.0", 
        "__profiler_scope__": "cifarresnetv21:stage2:", 
        "__shape__": "(32,)", 
        "__storage_type__": "0", 
        "__wd_mult__": "1.0"
      }, 
      "inputs": []
    }, 
    {
      "op": "null", 
      "name": "cifarresnetv21_stage2_batchnorm12_beta", 
      "attrs": {
        "__dtype__": "0", 
        "__init__": "zeros", 
        "__lr_mult__": "1.0", 
        "__profiler_scope__": "cifarresnetv21:stage2:", 
        "__shape__": "(32,)", 
        "__storage_type__": "0", 
        "__wd_mult__": "1.0"
      }, 
      "inputs": []
    }, 
    {
      "op": "null", 
      "name": "cifarresnetv21_stage2_batchnorm12_running_mean", 
      "attrs": {
        "__dtype__": "0", 
        "__init__": "zeros", 
        "__lr_mult__": "1.0", 
        "__profiler_scope__": "cifarresnetv21:stage2:", 
        "__shape__": "(32,)", 
        "__storage_type__": "0", 
        "__wd_mult__": "1.0"
      }, 
      "inputs": []
    }, 
    {
      "op": "null", 
      "name": "cifarresnetv21_stage2_batchnorm12_running_var", 
      "attrs": {
        "__dtype__": "0", 
        "__init__": "ones", 
        "__lr_mult__": "1.0", 
        "__profiler_scope__": "cifarresnetv21:stage2:", 
        "__shape__": "(32,)", 
        "__storage_type__": "0", 
        "__wd_mult__": "1.0"
      }, 
      "inputs": []
    }, 
    {
      "op": "BatchNorm", 
      "name": "cifarresnetv21_stage2_batchnorm12_fwd", 
      "attrs": {
        "__profiler_scope__": "cifarresnetv21:stage2:batchnorm12:", 
        "axis": "1", 
        "eps": "1e-05", 
        "fix_gamma": "False", 
        "momentum": "0.9", 
        "use_global_stats": "False"
      }, 
      "inputs": [[264, 0, 0], [265, 0, 0], [266, 0, 0], [267, 0, 1], [268, 0, 1]]
    }, 
    {
      "op": "Activation", 
      "name": "cifarresnetv21_stage2_activation12", 
      "attrs": {
        "__profiler_scope__": "cifarresnetv21:stage2:", 
        "act_type": "relu"
      }, 
      "inputs": [[269, 0, 0]]
    }, 
    {
      "op": "null", 
      "name": "cifarresnetv21_stage2_conv13_weight", 
      "attrs": {
        "__dtype__": "0", 
        "__lr_mult__": "1.0", 
        "__profiler_scope__": "cifarresnetv21:stage2:", 
        "__shape__": "(32, 32, 3, 3)", 
        "__storage_type__": "0", 
        "__wd_mult__": "1.0"
      }, 
      "inputs": []
    }, 
    {
      "op": "Convolution", 
      "name": "cifarresnetv21_stage2_conv13_fwd", 
      "attrs": {
        "__profiler_scope__": "cifarresnetv21:stage2:conv13:", 
        "dilate": "(1, 1)", 
        "kernel": "(3, 3)", 
        "layout": "NCHW", 
        "no_bias": "True", 
        "num_filter": "32", 
        "num_group": "1", 
        "pad": "(1, 1)", 
        "stride": "(1, 1)"
      }, 
      "inputs": [[270, 0, 0], [271, 0, 0]]
    }, 
    {
      "op": "null", 
      "name": "cifarresnetv21_stage2_batchnorm13_gamma", 
      "attrs": {
        "__dtype__": "0", 
        "__init__": "ones", 
        "__lr_mult__": "1.0", 
        "__profiler_scope__": "cifarresnetv21:stage2:", 
        "__shape__": "(32,)", 
        "__storage_type__": "0", 
        "__wd_mult__": "1.0"
      }, 
      "inputs": []
    }, 
    {
      "op": "null", 
      "name": "cifarresnetv21_stage2_batchnorm13_beta", 
      "attrs": {
        "__dtype__": "0", 
        "__init__": "zeros", 
        "__lr_mult__": "1.0", 
        "__profiler_scope__": "cifarresnetv21:stage2:", 
        "__shape__": "(32,)", 
        "__storage_type__": "0", 
        "__wd_mult__": "1.0"
      }, 
      "inputs": []
    }, 
    {
      "op": "null", 
      "name": "cifarresnetv21_stage2_batchnorm13_running_mean", 
      "attrs": {
        "__dtype__": "0", 
        "__init__": "zeros", 
        "__lr_mult__": "1.0", 
        "__profiler_scope__": "cifarresnetv21:stage2:", 
        "__shape__": "(32,)", 
        "__storage_type__": "0", 
        "__wd_mult__": "1.0"
      }, 
      "inputs": []
    }, 
    {
      "op": "null", 
      "name": "cifarresnetv21_stage2_batchnorm13_running_var", 
      "attrs": {
        "__dtype__": "0", 
        "__init__": "ones", 
        "__lr_mult__": "1.0", 
        "__profiler_scope__": "cifarresnetv21:stage2:", 
        "__shape__": "(32,)", 
        "__storage_type__": "0", 
        "__wd_mult__": "1.0"
      }, 
      "inputs": []
    }, 
    {
      "op": "BatchNorm", 
      "name": "cifarresnetv21_stage2_batchnorm13_fwd", 
      "attrs": {
        "__profiler_scope__": "cifarresnetv21:stage2:batchnorm13:", 
        "axis": "1", 
        "eps": "1e-05", 
        "fix_gamma": "False", 
        "momentum": "0.9", 
        "use_global_stats": "False"
      }, 
      "inputs": [[272, 0, 0], [273, 0, 0], [274, 0, 0], [275, 0, 1], [276, 0, 1]]
    }, 
    {
      "op": "Activation", 
      "name": "cifarresnetv21_stage2_activation13", 
      "attrs": {
        "__profiler_scope__": "cifarresnetv21:stage2:", 
        "act_type": "relu"
      }, 
      "inputs": [[277, 0, 0]]
    }, 
    {
      "op": "null", 
      "name": "cifarresnetv21_stage2_conv14_weight", 
      "attrs": {
        "__dtype__": "0", 
        "__lr_mult__": "1.0", 
        "__profiler_scope__": "cifarresnetv21:stage2:", 
        "__shape__": "(32, 32, 3, 3)", 
        "__storage_type__": "0", 
        "__wd_mult__": "1.0"
      }, 
      "inputs": []
    }, 
    {
      "op": "Convolution", 
      "name": "cifarresnetv21_stage2_conv14_fwd", 
      "attrs": {
        "__profiler_scope__": "cifarresnetv21:stage2:conv14:", 
        "dilate": "(1, 1)", 
        "kernel": "(3, 3)", 
        "layout": "NCHW", 
        "no_bias": "True", 
        "num_filter": "32", 
        "num_group": "1", 
        "pad": "(1, 1)", 
        "stride": "(1, 1)"
      }, 
      "inputs": [[278, 0, 0], [279, 0, 0]]
    }, 
    {
      "op": "elemwise_add", 
      "name": "cifarresnetv21_stage2__plus6", 
      "attrs": {"__profiler_scope__": "cifarresnetv21:stage2:"}, 
      "inputs": [[280, 0, 0], [264, 0, 0]]
    }, 
    {
      "op": "null", 
      "name": "cifarresnetv21_stage2_batchnorm14_gamma", 
      "attrs": {
        "__dtype__": "0", 
        "__init__": "ones", 
        "__lr_mult__": "1.0", 
        "__profiler_scope__": "cifarresnetv21:stage2:", 
        "__shape__": "(32,)", 
        "__storage_type__": "0", 
        "__wd_mult__": "1.0"
      }, 
      "inputs": []
    }, 
    {
      "op": "null", 
      "name": "cifarresnetv21_stage2_batchnorm14_beta", 
      "attrs": {
        "__dtype__": "0", 
        "__init__": "zeros", 
        "__lr_mult__": "1.0", 
        "__profiler_scope__": "cifarresnetv21:stage2:", 
        "__shape__": "(32,)", 
        "__storage_type__": "0", 
        "__wd_mult__": "1.0"
      }, 
      "inputs": []
    }, 
    {
      "op": "null", 
      "name": "cifarresnetv21_stage2_batchnorm14_running_mean", 
      "attrs": {
        "__dtype__": "0", 
        "__init__": "zeros", 
        "__lr_mult__": "1.0", 
        "__profiler_scope__": "cifarresnetv21:stage2:", 
        "__shape__": "(32,)", 
        "__storage_type__": "0", 
        "__wd_mult__": "1.0"
      }, 
      "inputs": []
    }, 
    {
      "op": "null", 
      "name": "cifarresnetv21_stage2_batchnorm14_running_var", 
      "attrs": {
        "__dtype__": "0", 
        "__init__": "ones", 
        "__lr_mult__": "1.0", 
        "__profiler_scope__": "cifarresnetv21:stage2:", 
        "__shape__": "(32,)", 
        "__storage_type__": "0", 
        "__wd_mult__": "1.0"
      }, 
      "inputs": []
    }, 
    {
      "op": "BatchNorm", 
      "name": "cifarresnetv21_stage2_batchnorm14_fwd", 
      "attrs": {
        "__profiler_scope__": "cifarresnetv21:stage2:batchnorm14:", 
        "axis": "1", 
        "eps": "1e-05", 
        "fix_gamma": "False", 
        "momentum": "0.9", 
        "use_global_stats": "False"
      }, 
      "inputs": [[281, 0, 0], [282, 0, 0], [283, 0, 0], [284, 0, 1], [285, 0, 1]]
    }, 
    {
      "op": "Activation", 
      "name": "cifarresnetv21_stage2_activation14", 
      "attrs": {
        "__profiler_scope__": "cifarresnetv21:stage2:", 
        "act_type": "relu"
      }, 
      "inputs": [[286, 0, 0]]
    }, 
    {
      "op": "null", 
      "name": "cifarresnetv21_stage2_conv15_weight", 
      "attrs": {
        "__dtype__": "0", 
        "__lr_mult__": "1.0", 
        "__profiler_scope__": "cifarresnetv21:stage2:", 
        "__shape__": "(32, 32, 3, 3)", 
        "__storage_type__": "0", 
        "__wd_mult__": "1.0"
      }, 
      "inputs": []
    }, 
    {
      "op": "Convolution", 
      "name": "cifarresnetv21_stage2_conv15_fwd", 
      "attrs": {
        "__profiler_scope__": "cifarresnetv21:stage2:conv15:", 
        "dilate": "(1, 1)", 
        "kernel": "(3, 3)", 
        "layout": "NCHW", 
        "no_bias": "True", 
        "num_filter": "32", 
        "num_group": "1", 
        "pad": "(1, 1)", 
        "stride": "(1, 1)"
      }, 
      "inputs": [[287, 0, 0], [288, 0, 0]]
    }, 
    {
      "op": "null", 
      "name": "cifarresnetv21_stage2_batchnorm15_gamma", 
      "attrs": {
        "__dtype__": "0", 
        "__init__": "ones", 
        "__lr_mult__": "1.0", 
        "__profiler_scope__": "cifarresnetv21:stage2:", 
        "__shape__": "(32,)", 
        "__storage_type__": "0", 
        "__wd_mult__": "1.0"
      }, 
      "inputs": []
    }, 
    {
      "op": "null", 
      "name": "cifarresnetv21_stage2_batchnorm15_beta", 
      "attrs": {
        "__dtype__": "0", 
        "__init__": "zeros", 
        "__lr_mult__": "1.0", 
        "__profiler_scope__": "cifarresnetv21:stage2:", 
        "__shape__": "(32,)", 
        "__storage_type__": "0", 
        "__wd_mult__": "1.0"
      }, 
      "inputs": []
    }, 
    {
      "op": "null", 
      "name": "cifarresnetv21_stage2_batchnorm15_running_mean", 
      "attrs": {
        "__dtype__": "0", 
        "__init__": "zeros", 
        "__lr_mult__": "1.0", 
        "__profiler_scope__": "cifarresnetv21:stage2:", 
        "__shape__": "(32,)", 
        "__storage_type__": "0", 
        "__wd_mult__": "1.0"
      }, 
      "inputs": []
    }, 
    {
      "op": "null", 
      "name": "cifarresnetv21_stage2_batchnorm15_running_var", 
      "attrs": {
        "__dtype__": "0", 
        "__init__": "ones", 
        "__lr_mult__": "1.0", 
        "__profiler_scope__": "cifarresnetv21:stage2:", 
        "__shape__": "(32,)", 
        "__storage_type__": "0", 
        "__wd_mult__": "1.0"
      }, 
      "inputs": []
    }, 
    {
      "op": "BatchNorm", 
      "name": "cifarresnetv21_stage2_batchnorm15_fwd", 
      "attrs": {
        "__profiler_scope__": "cifarresnetv21:stage2:batchnorm15:", 
        "axis": "1", 
        "eps": "1e-05", 
        "fix_gamma": "False", 
        "momentum": "0.9", 
        "use_global_stats": "False"
      }, 
      "inputs": [[289, 0, 0], [290, 0, 0], [291, 0, 0], [292, 0, 1], [293, 0, 1]]
    }, 
    {
      "op": "Activation", 
      "name": "cifarresnetv21_stage2_activation15", 
      "attrs": {
        "__profiler_scope__": "cifarresnetv21:stage2:", 
        "act_type": "relu"
      }, 
      "inputs": [[294, 0, 0]]
    }, 
    {
      "op": "null", 
      "name": "cifarresnetv21_stage2_conv16_weight", 
      "attrs": {
        "__dtype__": "0", 
        "__lr_mult__": "1.0", 
        "__profiler_scope__": "cifarresnetv21:stage2:", 
        "__shape__": "(32, 32, 3, 3)", 
        "__storage_type__": "0", 
        "__wd_mult__": "1.0"
      }, 
      "inputs": []
    }, 
    {
      "op": "Convolution", 
      "name": "cifarresnetv21_stage2_conv16_fwd", 
      "attrs": {
        "__profiler_scope__": "cifarresnetv21:stage2:conv16:", 
        "dilate": "(1, 1)", 
        "kernel": "(3, 3)", 
        "layout": "NCHW", 
        "no_bias": "True", 
        "num_filter": "32", 
        "num_group": "1", 
        "pad": "(1, 1)", 
        "stride": "(1, 1)"
      }, 
      "inputs": [[295, 0, 0], [296, 0, 0]]
    }, 
    {
      "op": "elemwise_add", 
      "name": "cifarresnetv21_stage2__plus7", 
      "attrs": {"__profiler_scope__": "cifarresnetv21:stage2:"}, 
      "inputs": [[297, 0, 0], [281, 0, 0]]
    }, 
    {
      "op": "null", 
      "name": "cifarresnetv21_stage2_batchnorm16_gamma", 
      "attrs": {
        "__dtype__": "0", 
        "__init__": "ones", 
        "__lr_mult__": "1.0", 
        "__profiler_scope__": "cifarresnetv21:stage2:", 
        "__shape__": "(32,)", 
        "__storage_type__": "0", 
        "__wd_mult__": "1.0"
      }, 
      "inputs": []
    }, 
    {
      "op": "null", 
      "name": "cifarresnetv21_stage2_batchnorm16_beta", 
      "attrs": {
        "__dtype__": "0", 
        "__init__": "zeros", 
        "__lr_mult__": "1.0", 
        "__profiler_scope__": "cifarresnetv21:stage2:", 
        "__shape__": "(32,)", 
        "__storage_type__": "0", 
        "__wd_mult__": "1.0"
      }, 
      "inputs": []
    }, 
    {
      "op": "null", 
      "name": "cifarresnetv21_stage2_batchnorm16_running_mean", 
      "attrs": {
        "__dtype__": "0", 
        "__init__": "zeros", 
        "__lr_mult__": "1.0", 
        "__profiler_scope__": "cifarresnetv21:stage2:", 
        "__shape__": "(32,)", 
        "__storage_type__": "0", 
        "__wd_mult__": "1.0"
      }, 
      "inputs": []
    }, 
    {
      "op": "null", 
      "name": "cifarresnetv21_stage2_batchnorm16_running_var", 
      "attrs": {
        "__dtype__": "0", 
        "__init__": "ones", 
        "__lr_mult__": "1.0", 
        "__profiler_scope__": "cifarresnetv21:stage2:", 
        "__shape__": "(32,)", 
        "__storage_type__": "0", 
        "__wd_mult__": "1.0"
      }, 
      "inputs": []
    }, 
    {
      "op": "BatchNorm", 
      "name": "cifarresnetv21_stage2_batchnorm16_fwd", 
      "attrs": {
        "__profiler_scope__": "cifarresnetv21:stage2:batchnorm16:", 
        "axis": "1", 
        "eps": "1e-05", 
        "fix_gamma": "False", 
        "momentum": "0.9", 
        "use_global_stats": "False"
      }, 
      "inputs": [[298, 0, 0], [299, 0, 0], [300, 0, 0], [301, 0, 1], [302, 0, 1]]
    }, 
    {
      "op": "Activation", 
      "name": "cifarresnetv21_stage2_activation16", 
      "attrs": {
        "__profiler_scope__": "cifarresnetv21:stage2:", 
        "act_type": "relu"
      }, 
      "inputs": [[303, 0, 0]]
    }, 
    {
      "op": "null", 
      "name": "cifarresnetv21_stage2_conv17_weight", 
      "attrs": {
        "__dtype__": "0", 
        "__lr_mult__": "1.0", 
        "__profiler_scope__": "cifarresnetv21:stage2:", 
        "__shape__": "(32, 32, 3, 3)", 
        "__storage_type__": "0", 
        "__wd_mult__": "1.0"
      }, 
      "inputs": []
    }, 
    {
      "op": "Convolution", 
      "name": "cifarresnetv21_stage2_conv17_fwd", 
      "attrs": {
        "__profiler_scope__": "cifarresnetv21:stage2:conv17:", 
        "dilate": "(1, 1)", 
        "kernel": "(3, 3)", 
        "layout": "NCHW", 
        "no_bias": "True", 
        "num_filter": "32", 
        "num_group": "1", 
        "pad": "(1, 1)", 
        "stride": "(1, 1)"
      }, 
      "inputs": [[304, 0, 0], [305, 0, 0]]
    }, 
    {
      "op": "null", 
      "name": "cifarresnetv21_stage2_batchnorm17_gamma", 
      "attrs": {
        "__dtype__": "0", 
        "__init__": "ones", 
        "__lr_mult__": "1.0", 
        "__profiler_scope__": "cifarresnetv21:stage2:", 
        "__shape__": "(32,)", 
        "__storage_type__": "0", 
        "__wd_mult__": "1.0"
      }, 
      "inputs": []
    }, 
    {
      "op": "null", 
      "name": "cifarresnetv21_stage2_batchnorm17_beta", 
      "attrs": {
        "__dtype__": "0", 
        "__init__": "zeros", 
        "__lr_mult__": "1.0", 
        "__profiler_scope__": "cifarresnetv21:stage2:", 
        "__shape__": "(32,)", 
        "__storage_type__": "0", 
        "__wd_mult__": "1.0"
      }, 
      "inputs": []
    }, 
    {
      "op": "null", 
      "name": "cifarresnetv21_stage2_batchnorm17_running_mean", 
      "attrs": {
        "__dtype__": "0", 
        "__init__": "zeros", 
        "__lr_mult__": "1.0", 
        "__profiler_scope__": "cifarresnetv21:stage2:", 
        "__shape__": "(32,)", 
        "__storage_type__": "0", 
        "__wd_mult__": "1.0"
      }, 
      "inputs": []
    }, 
    {
      "op": "null", 
      "name": "cifarresnetv21_stage2_batchnorm17_running_var", 
      "attrs": {
        "__dtype__": "0", 
        "__init__": "ones", 
        "__lr_mult__": "1.0", 
        "__profiler_scope__": "cifarresnetv21:stage2:", 
        "__shape__": "(32,)", 
        "__storage_type__": "0", 
        "__wd_mult__": "1.0"
      }, 
      "inputs": []
    }, 
    {
      "op": "BatchNorm", 
      "name": "cifarresnetv21_stage2_batchnorm17_fwd", 
      "attrs": {
        "__profiler_scope__": "cifarresnetv21:stage2:batchnorm17:", 
        "axis": "1", 
        "eps": "1e-05", 
        "fix_gamma": "False", 
        "momentum": "0.9", 
        "use_global_stats": "False"
      }, 
      "inputs": [[306, 0, 0], [307, 0, 0], [308, 0, 0], [309, 0, 1], [310, 0, 1]]
    }, 
    {
      "op": "Activation", 
      "name": "cifarresnetv21_stage2_activation17", 
      "attrs": {
        "__profiler_scope__": "cifarresnetv21:stage2:", 
        "act_type": "relu"
      }, 
      "inputs": [[311, 0, 0]]
    }, 
    {
      "op": "null", 
      "name": "cifarresnetv21_stage2_conv18_weight", 
      "attrs": {
        "__dtype__": "0", 
        "__lr_mult__": "1.0", 
        "__profiler_scope__": "cifarresnetv21:stage2:", 
        "__shape__": "(32, 32, 3, 3)", 
        "__storage_type__": "0", 
        "__wd_mult__": "1.0"
      }, 
      "inputs": []
    }, 
    {
      "op": "Convolution", 
      "name": "cifarresnetv21_stage2_conv18_fwd", 
      "attrs": {
        "__profiler_scope__": "cifarresnetv21:stage2:conv18:", 
        "dilate": "(1, 1)", 
        "kernel": "(3, 3)", 
        "layout": "NCHW", 
        "no_bias": "True", 
        "num_filter": "32", 
        "num_group": "1", 
        "pad": "(1, 1)", 
        "stride": "(1, 1)"
      }, 
      "inputs": [[312, 0, 0], [313, 0, 0]]
    }, 
    {
      "op": "elemwise_add", 
      "name": "cifarresnetv21_stage2__plus8", 
      "attrs": {"__profiler_scope__": "cifarresnetv21:stage2:"}, 
      "inputs": [[314, 0, 0], [298, 0, 0]]
    }, 
    {
      "op": "null", 
      "name": "cifarresnetv21_stage3_batchnorm0_gamma", 
      "attrs": {
        "__dtype__": "0", 
        "__init__": "ones", 
        "__lr_mult__": "1.0", 
        "__profiler_scope__": "cifarresnetv21:stage3:", 
        "__shape__": "(32,)", 
        "__storage_type__": "0", 
        "__wd_mult__": "1.0"
      }, 
      "inputs": []
    }, 
    {
      "op": "null", 
      "name": "cifarresnetv21_stage3_batchnorm0_beta", 
      "attrs": {
        "__dtype__": "0", 
        "__init__": "zeros", 
        "__lr_mult__": "1.0", 
        "__profiler_scope__": "cifarresnetv21:stage3:", 
        "__shape__": "(32,)", 
        "__storage_type__": "0", 
        "__wd_mult__": "1.0"
      }, 
      "inputs": []
    }, 
    {
      "op": "null", 
      "name": "cifarresnetv21_stage3_batchnorm0_running_mean", 
      "attrs": {
        "__dtype__": "0", 
        "__init__": "zeros", 
        "__lr_mult__": "1.0", 
        "__profiler_scope__": "cifarresnetv21:stage3:", 
        "__shape__": "(32,)", 
        "__storage_type__": "0", 
        "__wd_mult__": "1.0"
      }, 
      "inputs": []
    }, 
    {
      "op": "null", 
      "name": "cifarresnetv21_stage3_batchnorm0_running_var", 
      "attrs": {
        "__dtype__": "0", 
        "__init__": "ones", 
        "__lr_mult__": "1.0", 
        "__profiler_scope__": "cifarresnetv21:stage3:", 
        "__shape__": "(32,)", 
        "__storage_type__": "0", 
        "__wd_mult__": "1.0"
      }, 
      "inputs": []
    }, 
    {
      "op": "BatchNorm", 
      "name": "cifarresnetv21_stage3_batchnorm0_fwd", 
      "attrs": {
        "__profiler_scope__": "cifarresnetv21:stage3:batchnorm0:", 
        "axis": "1", 
        "eps": "1e-05", 
        "fix_gamma": "False", 
        "momentum": "0.9", 
        "use_global_stats": "False"
      }, 
      "inputs": [[315, 0, 0], [316, 0, 0], [317, 0, 0], [318, 0, 1], [319, 0, 1]]
    }, 
    {
      "op": "Activation", 
      "name": "cifarresnetv21_stage3_activation0", 
      "attrs": {
        "__profiler_scope__": "cifarresnetv21:stage3:", 
        "act_type": "relu"
      }, 
      "inputs": [[320, 0, 0]]
    }, 
    {
      "op": "null", 
      "name": "cifarresnetv21_stage3_conv0_weight", 
      "attrs": {
        "__dtype__": "0", 
        "__lr_mult__": "1.0", 
        "__profiler_scope__": "cifarresnetv21:stage3:", 
        "__shape__": "(64, 32, 3, 3)", 
        "__storage_type__": "0", 
        "__wd_mult__": "1.0"
      }, 
      "inputs": []
    }, 
    {
      "op": "Convolution", 
      "name": "cifarresnetv21_stage3_conv0_fwd", 
      "attrs": {
        "__profiler_scope__": "cifarresnetv21:stage3:conv0:", 
        "dilate": "(1, 1)", 
        "kernel": "(3, 3)", 
        "layout": "NCHW", 
        "no_bias": "True", 
        "num_filter": "64", 
        "num_group": "1", 
        "pad": "(1, 1)", 
        "stride": "(2, 2)"
      }, 
      "inputs": [[321, 0, 0], [322, 0, 0]]
    }, 
    {
      "op": "null", 
      "name": "cifarresnetv21_stage3_batchnorm1_gamma", 
      "attrs": {
        "__dtype__": "0", 
        "__init__": "ones", 
        "__lr_mult__": "1.0", 
        "__profiler_scope__": "cifarresnetv21:stage3:", 
        "__shape__": "(64,)", 
        "__storage_type__": "0", 
        "__wd_mult__": "1.0"
      }, 
      "inputs": []
    }, 
    {
      "op": "null", 
      "name": "cifarresnetv21_stage3_batchnorm1_beta", 
      "attrs": {
        "__dtype__": "0", 
        "__init__": "zeros", 
        "__lr_mult__": "1.0", 
        "__profiler_scope__": "cifarresnetv21:stage3:", 
        "__shape__": "(64,)", 
        "__storage_type__": "0", 
        "__wd_mult__": "1.0"
      }, 
      "inputs": []
    }, 
    {
      "op": "null", 
      "name": "cifarresnetv21_stage3_batchnorm1_running_mean", 
      "attrs": {
        "__dtype__": "0", 
        "__init__": "zeros", 
        "__lr_mult__": "1.0", 
        "__profiler_scope__": "cifarresnetv21:stage3:", 
        "__shape__": "(64,)", 
        "__storage_type__": "0", 
        "__wd_mult__": "1.0"
      }, 
      "inputs": []
    }, 
    {
      "op": "null", 
      "name": "cifarresnetv21_stage3_batchnorm1_running_var", 
      "attrs": {
        "__dtype__": "0", 
        "__init__": "ones", 
        "__lr_mult__": "1.0", 
        "__profiler_scope__": "cifarresnetv21:stage3:", 
        "__shape__": "(64,)", 
        "__storage_type__": "0", 
        "__wd_mult__": "1.0"
      }, 
      "inputs": []
    }, 
    {
      "op": "BatchNorm", 
      "name": "cifarresnetv21_stage3_batchnorm1_fwd", 
      "attrs": {
        "__profiler_scope__": "cifarresnetv21:stage3:batchnorm1:", 
        "axis": "1", 
        "eps": "1e-05", 
        "fix_gamma": "False", 
        "momentum": "0.9", 
        "use_global_stats": "False"
      }, 
      "inputs": [[323, 0, 0], [324, 0, 0], [325, 0, 0], [326, 0, 1], [327, 0, 1]]
    }, 
    {
      "op": "Activation", 
      "name": "cifarresnetv21_stage3_activation1", 
      "attrs": {
        "__profiler_scope__": "cifarresnetv21:stage3:", 
        "act_type": "relu"
      }, 
      "inputs": [[328, 0, 0]]
    }, 
    {
      "op": "null", 
      "name": "cifarresnetv21_stage3_conv1_weight", 
      "attrs": {
        "__dtype__": "0", 
        "__lr_mult__": "1.0", 
        "__profiler_scope__": "cifarresnetv21:stage3:", 
        "__shape__": "(64, 64, 3, 3)", 
        "__storage_type__": "0", 
        "__wd_mult__": "1.0"
      }, 
      "inputs": []
    }, 
    {
      "op": "Convolution", 
      "name": "cifarresnetv21_stage3_conv1_fwd", 
      "attrs": {
        "__profiler_scope__": "cifarresnetv21:stage3:conv1:", 
        "dilate": "(1, 1)", 
        "kernel": "(3, 3)", 
        "layout": "NCHW", 
        "no_bias": "True", 
        "num_filter": "64", 
        "num_group": "1", 
        "pad": "(1, 1)", 
        "stride": "(1, 1)"
      }, 
      "inputs": [[329, 0, 0], [330, 0, 0]]
    }, 
    {
      "op": "null", 
      "name": "cifarresnetv21_stage3_conv2_weight", 
      "attrs": {
        "__dtype__": "0", 
        "__lr_mult__": "1.0", 
        "__profiler_scope__": "cifarresnetv21:stage3:", 
        "__shape__": "(64, 32, 1, 1)", 
        "__storage_type__": "0", 
        "__wd_mult__": "1.0"
      }, 
      "inputs": []
    }, 
    {
      "op": "Convolution", 
      "name": "cifarresnetv21_stage3_conv2_fwd", 
      "attrs": {
        "__profiler_scope__": "cifarresnetv21:stage3:conv2:", 
        "dilate": "(1, 1)", 
        "kernel": "(1, 1)", 
        "layout": "NCHW", 
        "no_bias": "True", 
        "num_filter": "64", 
        "num_group": "1", 
        "pad": "(0, 0)", 
        "stride": "(2, 2)"
      }, 
      "inputs": [[315, 0, 0], [332, 0, 0]]
    }, 
    {
      "op": "elemwise_add", 
      "name": "cifarresnetv21_stage3__plus0", 
      "attrs": {"__profiler_scope__": "cifarresnetv21:stage3:"}, 
      "inputs": [[331, 0, 0], [333, 0, 0]]
    }, 
    {
      "op": "null", 
      "name": "cifarresnetv21_stage3_batchnorm2_gamma", 
      "attrs": {
        "__dtype__": "0", 
        "__init__": "ones", 
        "__lr_mult__": "1.0", 
        "__profiler_scope__": "cifarresnetv21:stage3:", 
        "__shape__": "(64,)", 
        "__storage_type__": "0", 
        "__wd_mult__": "1.0"
      }, 
      "inputs": []
    }, 
    {
      "op": "null", 
      "name": "cifarresnetv21_stage3_batchnorm2_beta", 
      "attrs": {
        "__dtype__": "0", 
        "__init__": "zeros", 
        "__lr_mult__": "1.0", 
        "__profiler_scope__": "cifarresnetv21:stage3:", 
        "__shape__": "(64,)", 
        "__storage_type__": "0", 
        "__wd_mult__": "1.0"
      }, 
      "inputs": []
    }, 
    {
      "op": "null", 
      "name": "cifarresnetv21_stage3_batchnorm2_running_mean", 
      "attrs": {
        "__dtype__": "0", 
        "__init__": "zeros", 
        "__lr_mult__": "1.0", 
        "__profiler_scope__": "cifarresnetv21:stage3:", 
        "__shape__": "(64,)", 
        "__storage_type__": "0", 
        "__wd_mult__": "1.0"
      }, 
      "inputs": []
    }, 
    {
      "op": "null", 
      "name": "cifarresnetv21_stage3_batchnorm2_running_var", 
      "attrs": {
        "__dtype__": "0", 
        "__init__": "ones", 
        "__lr_mult__": "1.0", 
        "__profiler_scope__": "cifarresnetv21:stage3:", 
        "__shape__": "(64,)", 
        "__storage_type__": "0", 
        "__wd_mult__": "1.0"
      }, 
      "inputs": []
    }, 
    {
      "op": "BatchNorm", 
      "name": "cifarresnetv21_stage3_batchnorm2_fwd", 
      "attrs": {
        "__profiler_scope__": "cifarresnetv21:stage3:batchnorm2:", 
        "axis": "1", 
        "eps": "1e-05", 
        "fix_gamma": "False", 
        "momentum": "0.9", 
        "use_global_stats": "False"
      }, 
      "inputs": [[334, 0, 0], [335, 0, 0], [336, 0, 0], [337, 0, 1], [338, 0, 1]]
    }, 
    {
      "op": "Activation", 
      "name": "cifarresnetv21_stage3_activation2", 
      "attrs": {
        "__profiler_scope__": "cifarresnetv21:stage3:", 
        "act_type": "relu"
      }, 
      "inputs": [[339, 0, 0]]
    }, 
    {
      "op": "null", 
      "name": "cifarresnetv21_stage3_conv3_weight", 
      "attrs": {
        "__dtype__": "0", 
        "__lr_mult__": "1.0", 
        "__profiler_scope__": "cifarresnetv21:stage3:", 
        "__shape__": "(64, 64, 3, 3)", 
        "__storage_type__": "0", 
        "__wd_mult__": "1.0"
      }, 
      "inputs": []
    }, 
    {
      "op": "Convolution", 
      "name": "cifarresnetv21_stage3_conv3_fwd", 
      "attrs": {
        "__profiler_scope__": "cifarresnetv21:stage3:conv3:", 
        "dilate": "(1, 1)", 
        "kernel": "(3, 3)", 
        "layout": "NCHW", 
        "no_bias": "True", 
        "num_filter": "64", 
        "num_group": "1", 
        "pad": "(1, 1)", 
        "stride": "(1, 1)"
      }, 
      "inputs": [[340, 0, 0], [341, 0, 0]]
    }, 
    {
      "op": "null", 
      "name": "cifarresnetv21_stage3_batchnorm3_gamma", 
      "attrs": {
        "__dtype__": "0", 
        "__init__": "ones", 
        "__lr_mult__": "1.0", 
        "__profiler_scope__": "cifarresnetv21:stage3:", 
        "__shape__": "(64,)", 
        "__storage_type__": "0", 
        "__wd_mult__": "1.0"
      }, 
      "inputs": []
    }, 
    {
      "op": "null", 
      "name": "cifarresnetv21_stage3_batchnorm3_beta", 
      "attrs": {
        "__dtype__": "0", 
        "__init__": "zeros", 
        "__lr_mult__": "1.0", 
        "__profiler_scope__": "cifarresnetv21:stage3:", 
        "__shape__": "(64,)", 
        "__storage_type__": "0", 
        "__wd_mult__": "1.0"
      }, 
      "inputs": []
    }, 
    {
      "op": "null", 
      "name": "cifarresnetv21_stage3_batchnorm3_running_mean", 
      "attrs": {
        "__dtype__": "0", 
        "__init__": "zeros", 
        "__lr_mult__": "1.0", 
        "__profiler_scope__": "cifarresnetv21:stage3:", 
        "__shape__": "(64,)", 
        "__storage_type__": "0", 
        "__wd_mult__": "1.0"
      }, 
      "inputs": []
    }, 
    {
      "op": "null", 
      "name": "cifarresnetv21_stage3_batchnorm3_running_var", 
      "attrs": {
        "__dtype__": "0", 
        "__init__": "ones", 
        "__lr_mult__": "1.0", 
        "__profiler_scope__": "cifarresnetv21:stage3:", 
        "__shape__": "(64,)", 
        "__storage_type__": "0", 
        "__wd_mult__": "1.0"
      }, 
      "inputs": []
    }, 
    {
      "op": "BatchNorm", 
      "name": "cifarresnetv21_stage3_batchnorm3_fwd", 
      "attrs": {
        "__profiler_scope__": "cifarresnetv21:stage3:batchnorm3:", 
        "axis": "1", 
        "eps": "1e-05", 
        "fix_gamma": "False", 
        "momentum": "0.9", 
        "use_global_stats": "False"
      }, 
      "inputs": [[342, 0, 0], [343, 0, 0], [344, 0, 0], [345, 0, 1], [346, 0, 1]]
    }, 
    {
      "op": "Activation", 
      "name": "cifarresnetv21_stage3_activation3", 
      "attrs": {
        "__profiler_scope__": "cifarresnetv21:stage3:", 
        "act_type": "relu"
      }, 
      "inputs": [[347, 0, 0]]
    }, 
    {
      "op": "null", 
      "name": "cifarresnetv21_stage3_conv4_weight", 
      "attrs": {
        "__dtype__": "0", 
        "__lr_mult__": "1.0", 
        "__profiler_scope__": "cifarresnetv21:stage3:", 
        "__shape__": "(64, 64, 3, 3)", 
        "__storage_type__": "0", 
        "__wd_mult__": "1.0"
      }, 
      "inputs": []
    }, 
    {
      "op": "Convolution", 
      "name": "cifarresnetv21_stage3_conv4_fwd", 
      "attrs": {
        "__profiler_scope__": "cifarresnetv21:stage3:conv4:", 
        "dilate": "(1, 1)", 
        "kernel": "(3, 3)", 
        "layout": "NCHW", 
        "no_bias": "True", 
        "num_filter": "64", 
        "num_group": "1", 
        "pad": "(1, 1)", 
        "stride": "(1, 1)"
      }, 
      "inputs": [[348, 0, 0], [349, 0, 0]]
    }, 
    {
      "op": "elemwise_add", 
      "name": "cifarresnetv21_stage3__plus1", 
      "attrs": {"__profiler_scope__": "cifarresnetv21:stage3:"}, 
      "inputs": [[350, 0, 0], [334, 0, 0]]
    }, 
    {
      "op": "null", 
      "name": "cifarresnetv21_stage3_batchnorm4_gamma", 
      "attrs": {
        "__dtype__": "0", 
        "__init__": "ones", 
        "__lr_mult__": "1.0", 
        "__profiler_scope__": "cifarresnetv21:stage3:", 
        "__shape__": "(64,)", 
        "__storage_type__": "0", 
        "__wd_mult__": "1.0"
      }, 
      "inputs": []
    }, 
    {
      "op": "null", 
      "name": "cifarresnetv21_stage3_batchnorm4_beta", 
      "attrs": {
        "__dtype__": "0", 
        "__init__": "zeros", 
        "__lr_mult__": "1.0", 
        "__profiler_scope__": "cifarresnetv21:stage3:", 
        "__shape__": "(64,)", 
        "__storage_type__": "0", 
        "__wd_mult__": "1.0"
      }, 
      "inputs": []
    }, 
    {
      "op": "null", 
      "name": "cifarresnetv21_stage3_batchnorm4_running_mean", 
      "attrs": {
        "__dtype__": "0", 
        "__init__": "zeros", 
        "__lr_mult__": "1.0", 
        "__profiler_scope__": "cifarresnetv21:stage3:", 
        "__shape__": "(64,)", 
        "__storage_type__": "0", 
        "__wd_mult__": "1.0"
      }, 
      "inputs": []
    }, 
    {
      "op": "null", 
      "name": "cifarresnetv21_stage3_batchnorm4_running_var", 
      "attrs": {
        "__dtype__": "0", 
        "__init__": "ones", 
        "__lr_mult__": "1.0", 
        "__profiler_scope__": "cifarresnetv21:stage3:", 
        "__shape__": "(64,)", 
        "__storage_type__": "0", 
        "__wd_mult__": "1.0"
      }, 
      "inputs": []
    }, 
    {
      "op": "BatchNorm", 
      "name": "cifarresnetv21_stage3_batchnorm4_fwd", 
      "attrs": {
        "__profiler_scope__": "cifarresnetv21:stage3:batchnorm4:", 
        "axis": "1", 
        "eps": "1e-05", 
        "fix_gamma": "False", 
        "momentum": "0.9", 
        "use_global_stats": "False"
      }, 
      "inputs": [[351, 0, 0], [352, 0, 0], [353, 0, 0], [354, 0, 1], [355, 0, 1]]
    }, 
    {
      "op": "Activation", 
      "name": "cifarresnetv21_stage3_activation4", 
      "attrs": {
        "__profiler_scope__": "cifarresnetv21:stage3:", 
        "act_type": "relu"
      }, 
      "inputs": [[356, 0, 0]]
    }, 
    {
      "op": "null", 
      "name": "cifarresnetv21_stage3_conv5_weight", 
      "attrs": {
        "__dtype__": "0", 
        "__lr_mult__": "1.0", 
        "__profiler_scope__": "cifarresnetv21:stage3:", 
        "__shape__": "(64, 64, 3, 3)", 
        "__storage_type__": "0", 
        "__wd_mult__": "1.0"
      }, 
      "inputs": []
    }, 
    {
      "op": "Convolution", 
      "name": "cifarresnetv21_stage3_conv5_fwd", 
      "attrs": {
        "__profiler_scope__": "cifarresnetv21:stage3:conv5:", 
        "dilate": "(1, 1)", 
        "kernel": "(3, 3)", 
        "layout": "NCHW", 
        "no_bias": "True", 
        "num_filter": "64", 
        "num_group": "1", 
        "pad": "(1, 1)", 
        "stride": "(1, 1)"
      }, 
      "inputs": [[357, 0, 0], [358, 0, 0]]
    }, 
    {
      "op": "null", 
      "name": "cifarresnetv21_stage3_batchnorm5_gamma", 
      "attrs": {
        "__dtype__": "0", 
        "__init__": "ones", 
        "__lr_mult__": "1.0", 
        "__profiler_scope__": "cifarresnetv21:stage3:", 
        "__shape__": "(64,)", 
        "__storage_type__": "0", 
        "__wd_mult__": "1.0"
      }, 
      "inputs": []
    }, 
    {
      "op": "null", 
      "name": "cifarresnetv21_stage3_batchnorm5_beta", 
      "attrs": {
        "__dtype__": "0", 
        "__init__": "zeros", 
        "__lr_mult__": "1.0", 
        "__profiler_scope__": "cifarresnetv21:stage3:", 
        "__shape__": "(64,)", 
        "__storage_type__": "0", 
        "__wd_mult__": "1.0"
      }, 
      "inputs": []
    }, 
    {
      "op": "null", 
      "name": "cifarresnetv21_stage3_batchnorm5_running_mean", 
      "attrs": {
        "__dtype__": "0", 
        "__init__": "zeros", 
        "__lr_mult__": "1.0", 
        "__profiler_scope__": "cifarresnetv21:stage3:", 
        "__shape__": "(64,)", 
        "__storage_type__": "0", 
        "__wd_mult__": "1.0"
      }, 
      "inputs": []
    }, 
    {
      "op": "null", 
      "name": "cifarresnetv21_stage3_batchnorm5_running_var", 
      "attrs": {
        "__dtype__": "0", 
        "__init__": "ones", 
        "__lr_mult__": "1.0", 
        "__profiler_scope__": "cifarresnetv21:stage3:", 
        "__shape__": "(64,)", 
        "__storage_type__": "0", 
        "__wd_mult__": "1.0"
      }, 
      "inputs": []
    }, 
    {
      "op": "BatchNorm", 
      "name": "cifarresnetv21_stage3_batchnorm5_fwd", 
      "attrs": {
        "__profiler_scope__": "cifarresnetv21:stage3:batchnorm5:", 
        "axis": "1", 
        "eps": "1e-05", 
        "fix_gamma": "False", 
        "momentum": "0.9", 
        "use_global_stats": "False"
      }, 
      "inputs": [[359, 0, 0], [360, 0, 0], [361, 0, 0], [362, 0, 1], [363, 0, 1]]
    }, 
    {
      "op": "Activation", 
      "name": "cifarresnetv21_stage3_activation5", 
      "attrs": {
        "__profiler_scope__": "cifarresnetv21:stage3:", 
        "act_type": "relu"
      }, 
      "inputs": [[364, 0, 0]]
    }, 
    {
      "op": "null", 
      "name": "cifarresnetv21_stage3_conv6_weight", 
      "attrs": {
        "__dtype__": "0", 
        "__lr_mult__": "1.0", 
        "__profiler_scope__": "cifarresnetv21:stage3:", 
        "__shape__": "(64, 64, 3, 3)", 
        "__storage_type__": "0", 
        "__wd_mult__": "1.0"
      }, 
      "inputs": []
    }, 
    {
      "op": "Convolution", 
      "name": "cifarresnetv21_stage3_conv6_fwd", 
      "attrs": {
        "__profiler_scope__": "cifarresnetv21:stage3:conv6:", 
        "dilate": "(1, 1)", 
        "kernel": "(3, 3)", 
        "layout": "NCHW", 
        "no_bias": "True", 
        "num_filter": "64", 
        "num_group": "1", 
        "pad": "(1, 1)", 
        "stride": "(1, 1)"
      }, 
      "inputs": [[365, 0, 0], [366, 0, 0]]
    }, 
    {
      "op": "elemwise_add", 
      "name": "cifarresnetv21_stage3__plus2", 
      "attrs": {"__profiler_scope__": "cifarresnetv21:stage3:"}, 
      "inputs": [[367, 0, 0], [351, 0, 0]]
    }, 
    {
      "op": "null", 
      "name": "cifarresnetv21_stage3_batchnorm6_gamma", 
      "attrs": {
        "__dtype__": "0", 
        "__init__": "ones", 
        "__lr_mult__": "1.0", 
        "__profiler_scope__": "cifarresnetv21:stage3:", 
        "__shape__": "(64,)", 
        "__storage_type__": "0", 
        "__wd_mult__": "1.0"
      }, 
      "inputs": []
    }, 
    {
      "op": "null", 
      "name": "cifarresnetv21_stage3_batchnorm6_beta", 
      "attrs": {
        "__dtype__": "0", 
        "__init__": "zeros", 
        "__lr_mult__": "1.0", 
        "__profiler_scope__": "cifarresnetv21:stage3:", 
        "__shape__": "(64,)", 
        "__storage_type__": "0", 
        "__wd_mult__": "1.0"
      }, 
      "inputs": []
    }, 
    {
      "op": "null", 
      "name": "cifarresnetv21_stage3_batchnorm6_running_mean", 
      "attrs": {
        "__dtype__": "0", 
        "__init__": "zeros", 
        "__lr_mult__": "1.0", 
        "__profiler_scope__": "cifarresnetv21:stage3:", 
        "__shape__": "(64,)", 
        "__storage_type__": "0", 
        "__wd_mult__": "1.0"
      }, 
      "inputs": []
    }, 
    {
      "op": "null", 
      "name": "cifarresnetv21_stage3_batchnorm6_running_var", 
      "attrs": {
        "__dtype__": "0", 
        "__init__": "ones", 
        "__lr_mult__": "1.0", 
        "__profiler_scope__": "cifarresnetv21:stage3:", 
        "__shape__": "(64,)", 
        "__storage_type__": "0", 
        "__wd_mult__": "1.0"
      }, 
      "inputs": []
    }, 
    {
      "op": "BatchNorm", 
      "name": "cifarresnetv21_stage3_batchnorm6_fwd", 
      "attrs": {
        "__profiler_scope__": "cifarresnetv21:stage3:batchnorm6:", 
        "axis": "1", 
        "eps": "1e-05", 
        "fix_gamma": "False", 
        "momentum": "0.9", 
        "use_global_stats": "False"
      }, 
      "inputs": [[368, 0, 0], [369, 0, 0], [370, 0, 0], [371, 0, 1], [372, 0, 1]]
    }, 
    {
      "op": "Activation", 
      "name": "cifarresnetv21_stage3_activation6", 
      "attrs": {
        "__profiler_scope__": "cifarresnetv21:stage3:", 
        "act_type": "relu"
      }, 
      "inputs": [[373, 0, 0]]
    }, 
    {
      "op": "null", 
      "name": "cifarresnetv21_stage3_conv7_weight", 
      "attrs": {
        "__dtype__": "0", 
        "__lr_mult__": "1.0", 
        "__profiler_scope__": "cifarresnetv21:stage3:", 
        "__shape__": "(64, 64, 3, 3)", 
        "__storage_type__": "0", 
        "__wd_mult__": "1.0"
      }, 
      "inputs": []
    }, 
    {
      "op": "Convolution", 
      "name": "cifarresnetv21_stage3_conv7_fwd", 
      "attrs": {
        "__profiler_scope__": "cifarresnetv21:stage3:conv7:", 
        "dilate": "(1, 1)", 
        "kernel": "(3, 3)", 
        "layout": "NCHW", 
        "no_bias": "True", 
        "num_filter": "64", 
        "num_group": "1", 
        "pad": "(1, 1)", 
        "stride": "(1, 1)"
      }, 
      "inputs": [[374, 0, 0], [375, 0, 0]]
    }, 
    {
      "op": "null", 
      "name": "cifarresnetv21_stage3_batchnorm7_gamma", 
      "attrs": {
        "__dtype__": "0", 
        "__init__": "ones", 
        "__lr_mult__": "1.0", 
        "__profiler_scope__": "cifarresnetv21:stage3:", 
        "__shape__": "(64,)", 
        "__storage_type__": "0", 
        "__wd_mult__": "1.0"
      }, 
      "inputs": []
    }, 
    {
      "op": "null", 
      "name": "cifarresnetv21_stage3_batchnorm7_beta", 
      "attrs": {
        "__dtype__": "0", 
        "__init__": "zeros", 
        "__lr_mult__": "1.0", 
        "__profiler_scope__": "cifarresnetv21:stage3:", 
        "__shape__": "(64,)", 
        "__storage_type__": "0", 
        "__wd_mult__": "1.0"
      }, 
      "inputs": []
    }, 
    {
      "op": "null", 
      "name": "cifarresnetv21_stage3_batchnorm7_running_mean", 
      "attrs": {
        "__dtype__": "0", 
        "__init__": "zeros", 
        "__lr_mult__": "1.0", 
        "__profiler_scope__": "cifarresnetv21:stage3:", 
        "__shape__": "(64,)", 
        "__storage_type__": "0", 
        "__wd_mult__": "1.0"
      }, 
      "inputs": []
    }, 
    {
      "op": "null", 
      "name": "cifarresnetv21_stage3_batchnorm7_running_var", 
      "attrs": {
        "__dtype__": "0", 
        "__init__": "ones", 
        "__lr_mult__": "1.0", 
        "__profiler_scope__": "cifarresnetv21:stage3:", 
        "__shape__": "(64,)", 
        "__storage_type__": "0", 
        "__wd_mult__": "1.0"
      }, 
      "inputs": []
    }, 
    {
      "op": "BatchNorm", 
      "name": "cifarresnetv21_stage3_batchnorm7_fwd", 
      "attrs": {
        "__profiler_scope__": "cifarresnetv21:stage3:batchnorm7:", 
        "axis": "1", 
        "eps": "1e-05", 
        "fix_gamma": "False", 
        "momentum": "0.9", 
        "use_global_stats": "False"
      }, 
      "inputs": [[376, 0, 0], [377, 0, 0], [378, 0, 0], [379, 0, 1], [380, 0, 1]]
    }, 
    {
      "op": "Activation", 
      "name": "cifarresnetv21_stage3_activation7", 
      "attrs": {
        "__profiler_scope__": "cifarresnetv21:stage3:", 
        "act_type": "relu"
      }, 
      "inputs": [[381, 0, 0]]
    }, 
    {
      "op": "null", 
      "name": "cifarresnetv21_stage3_conv8_weight", 
      "attrs": {
        "__dtype__": "0", 
        "__lr_mult__": "1.0", 
        "__profiler_scope__": "cifarresnetv21:stage3:", 
        "__shape__": "(64, 64, 3, 3)", 
        "__storage_type__": "0", 
        "__wd_mult__": "1.0"
      }, 
      "inputs": []
    }, 
    {
      "op": "Convolution", 
      "name": "cifarresnetv21_stage3_conv8_fwd", 
      "attrs": {
        "__profiler_scope__": "cifarresnetv21:stage3:conv8:", 
        "dilate": "(1, 1)", 
        "kernel": "(3, 3)", 
        "layout": "NCHW", 
        "no_bias": "True", 
        "num_filter": "64", 
        "num_group": "1", 
        "pad": "(1, 1)", 
        "stride": "(1, 1)"
      }, 
      "inputs": [[382, 0, 0], [383, 0, 0]]
    }, 
    {
      "op": "elemwise_add", 
      "name": "cifarresnetv21_stage3__plus3", 
      "attrs": {"__profiler_scope__": "cifarresnetv21:stage3:"}, 
      "inputs": [[384, 0, 0], [368, 0, 0]]
    }, 
    {
      "op": "null", 
      "name": "cifarresnetv21_stage3_batchnorm8_gamma", 
      "attrs": {
        "__dtype__": "0", 
        "__init__": "ones", 
        "__lr_mult__": "1.0", 
        "__profiler_scope__": "cifarresnetv21:stage3:", 
        "__shape__": "(64,)", 
        "__storage_type__": "0", 
        "__wd_mult__": "1.0"
      }, 
      "inputs": []
    }, 
    {
      "op": "null", 
      "name": "cifarresnetv21_stage3_batchnorm8_beta", 
      "attrs": {
        "__dtype__": "0", 
        "__init__": "zeros", 
        "__lr_mult__": "1.0", 
        "__profiler_scope__": "cifarresnetv21:stage3:", 
        "__shape__": "(64,)", 
        "__storage_type__": "0", 
        "__wd_mult__": "1.0"
      }, 
      "inputs": []
    }, 
    {
      "op": "null", 
      "name": "cifarresnetv21_stage3_batchnorm8_running_mean", 
      "attrs": {
        "__dtype__": "0", 
        "__init__": "zeros", 
        "__lr_mult__": "1.0", 
        "__profiler_scope__": "cifarresnetv21:stage3:", 
        "__shape__": "(64,)", 
        "__storage_type__": "0", 
        "__wd_mult__": "1.0"
      }, 
      "inputs": []
    }, 
    {
      "op": "null", 
      "name": "cifarresnetv21_stage3_batchnorm8_running_var", 
      "attrs": {
        "__dtype__": "0", 
        "__init__": "ones", 
        "__lr_mult__": "1.0", 
        "__profiler_scope__": "cifarresnetv21:stage3:", 
        "__shape__": "(64,)", 
        "__storage_type__": "0", 
        "__wd_mult__": "1.0"
      }, 
      "inputs": []
    }, 
    {
      "op": "BatchNorm", 
      "name": "cifarresnetv21_stage3_batchnorm8_fwd", 
      "attrs": {
        "__profiler_scope__": "cifarresnetv21:stage3:batchnorm8:", 
        "axis": "1", 
        "eps": "1e-05", 
        "fix_gamma": "False", 
        "momentum": "0.9", 
        "use_global_stats": "False"
      }, 
      "inputs": [[385, 0, 0], [386, 0, 0], [387, 0, 0], [388, 0, 1], [389, 0, 1]]
    }, 
    {
      "op": "Activation", 
      "name": "cifarresnetv21_stage3_activation8", 
      "attrs": {
        "__profiler_scope__": "cifarresnetv21:stage3:", 
        "act_type": "relu"
      }, 
      "inputs": [[390, 0, 0]]
    }, 
    {
      "op": "null", 
      "name": "cifarresnetv21_stage3_conv9_weight", 
      "attrs": {
        "__dtype__": "0", 
        "__lr_mult__": "1.0", 
        "__profiler_scope__": "cifarresnetv21:stage3:", 
        "__shape__": "(64, 64, 3, 3)", 
        "__storage_type__": "0", 
        "__wd_mult__": "1.0"
      }, 
      "inputs": []
    }, 
    {
      "op": "Convolution", 
      "name": "cifarresnetv21_stage3_conv9_fwd", 
      "attrs": {
        "__profiler_scope__": "cifarresnetv21:stage3:conv9:", 
        "dilate": "(1, 1)", 
        "kernel": "(3, 3)", 
        "layout": "NCHW", 
        "no_bias": "True", 
        "num_filter": "64", 
        "num_group": "1", 
        "pad": "(1, 1)", 
        "stride": "(1, 1)"
      }, 
      "inputs": [[391, 0, 0], [392, 0, 0]]
    }, 
    {
      "op": "null", 
      "name": "cifarresnetv21_stage3_batchnorm9_gamma", 
      "attrs": {
        "__dtype__": "0", 
        "__init__": "ones", 
        "__lr_mult__": "1.0", 
        "__profiler_scope__": "cifarresnetv21:stage3:", 
        "__shape__": "(64,)", 
        "__storage_type__": "0", 
        "__wd_mult__": "1.0"
      }, 
      "inputs": []
    }, 
    {
      "op": "null", 
      "name": "cifarresnetv21_stage3_batchnorm9_beta", 
      "attrs": {
        "__dtype__": "0", 
        "__init__": "zeros", 
        "__lr_mult__": "1.0", 
        "__profiler_scope__": "cifarresnetv21:stage3:", 
        "__shape__": "(64,)", 
        "__storage_type__": "0", 
        "__wd_mult__": "1.0"
      }, 
      "inputs": []
    }, 
    {
      "op": "null", 
      "name": "cifarresnetv21_stage3_batchnorm9_running_mean", 
      "attrs": {
        "__dtype__": "0", 
        "__init__": "zeros", 
        "__lr_mult__": "1.0", 
        "__profiler_scope__": "cifarresnetv21:stage3:", 
        "__shape__": "(64,)", 
        "__storage_type__": "0", 
        "__wd_mult__": "1.0"
      }, 
      "inputs": []
    }, 
    {
      "op": "null", 
      "name": "cifarresnetv21_stage3_batchnorm9_running_var", 
      "attrs": {
        "__dtype__": "0", 
        "__init__": "ones", 
        "__lr_mult__": "1.0", 
        "__profiler_scope__": "cifarresnetv21:stage3:", 
        "__shape__": "(64,)", 
        "__storage_type__": "0", 
        "__wd_mult__": "1.0"
      }, 
      "inputs": []
    }, 
    {
      "op": "BatchNorm", 
      "name": "cifarresnetv21_stage3_batchnorm9_fwd", 
      "attrs": {
        "__profiler_scope__": "cifarresnetv21:stage3:batchnorm9:", 
        "axis": "1", 
        "eps": "1e-05", 
        "fix_gamma": "False", 
        "momentum": "0.9", 
        "use_global_stats": "False"
      }, 
      "inputs": [[393, 0, 0], [394, 0, 0], [395, 0, 0], [396, 0, 1], [397, 0, 1]]
    }, 
    {
      "op": "Activation", 
      "name": "cifarresnetv21_stage3_activation9", 
      "attrs": {
        "__profiler_scope__": "cifarresnetv21:stage3:", 
        "act_type": "relu"
      }, 
      "inputs": [[398, 0, 0]]
    }, 
    {
      "op": "null", 
      "name": "cifarresnetv21_stage3_conv10_weight", 
      "attrs": {
        "__dtype__": "0", 
        "__lr_mult__": "1.0", 
        "__profiler_scope__": "cifarresnetv21:stage3:", 
        "__shape__": "(64, 64, 3, 3)", 
        "__storage_type__": "0", 
        "__wd_mult__": "1.0"
      }, 
      "inputs": []
    }, 
    {
      "op": "Convolution", 
      "name": "cifarresnetv21_stage3_conv10_fwd", 
      "attrs": {
        "__profiler_scope__": "cifarresnetv21:stage3:conv10:", 
        "dilate": "(1, 1)", 
        "kernel": "(3, 3)", 
        "layout": "NCHW", 
        "no_bias": "True", 
        "num_filter": "64", 
        "num_group": "1", 
        "pad": "(1, 1)", 
        "stride": "(1, 1)"
      }, 
      "inputs": [[399, 0, 0], [400, 0, 0]]
    }, 
    {
      "op": "elemwise_add", 
      "name": "cifarresnetv21_stage3__plus4", 
      "attrs": {"__profiler_scope__": "cifarresnetv21:stage3:"}, 
      "inputs": [[401, 0, 0], [385, 0, 0]]
    }, 
    {
      "op": "null", 
      "name": "cifarresnetv21_stage3_batchnorm10_gamma", 
      "attrs": {
        "__dtype__": "0", 
        "__init__": "ones", 
        "__lr_mult__": "1.0", 
        "__profiler_scope__": "cifarresnetv21:stage3:", 
        "__shape__": "(64,)", 
        "__storage_type__": "0", 
        "__wd_mult__": "1.0"
      }, 
      "inputs": []
    }, 
    {
      "op": "null", 
      "name": "cifarresnetv21_stage3_batchnorm10_beta", 
      "attrs": {
        "__dtype__": "0", 
        "__init__": "zeros", 
        "__lr_mult__": "1.0", 
        "__profiler_scope__": "cifarresnetv21:stage3:", 
        "__shape__": "(64,)", 
        "__storage_type__": "0", 
        "__wd_mult__": "1.0"
      }, 
      "inputs": []
    }, 
    {
      "op": "null", 
      "name": "cifarresnetv21_stage3_batchnorm10_running_mean", 
      "attrs": {
        "__dtype__": "0", 
        "__init__": "zeros", 
        "__lr_mult__": "1.0", 
        "__profiler_scope__": "cifarresnetv21:stage3:", 
        "__shape__": "(64,)", 
        "__storage_type__": "0", 
        "__wd_mult__": "1.0"
      }, 
      "inputs": []
    }, 
    {
      "op": "null", 
      "name": "cifarresnetv21_stage3_batchnorm10_running_var", 
      "attrs": {
        "__dtype__": "0", 
        "__init__": "ones", 
        "__lr_mult__": "1.0", 
        "__profiler_scope__": "cifarresnetv21:stage3:", 
        "__shape__": "(64,)", 
        "__storage_type__": "0", 
        "__wd_mult__": "1.0"
      }, 
      "inputs": []
    }, 
    {
      "op": "BatchNorm", 
      "name": "cifarresnetv21_stage3_batchnorm10_fwd", 
      "attrs": {
        "__profiler_scope__": "cifarresnetv21:stage3:batchnorm10:", 
        "axis": "1", 
        "eps": "1e-05", 
        "fix_gamma": "False", 
        "momentum": "0.9", 
        "use_global_stats": "False"
      }, 
      "inputs": [[402, 0, 0], [403, 0, 0], [404, 0, 0], [405, 0, 1], [406, 0, 1]]
    }, 
    {
      "op": "Activation", 
      "name": "cifarresnetv21_stage3_activation10", 
      "attrs": {
        "__profiler_scope__": "cifarresnetv21:stage3:", 
        "act_type": "relu"
      }, 
      "inputs": [[407, 0, 0]]
    }, 
    {
      "op": "null", 
      "name": "cifarresnetv21_stage3_conv11_weight", 
      "attrs": {
        "__dtype__": "0", 
        "__lr_mult__": "1.0", 
        "__profiler_scope__": "cifarresnetv21:stage3:", 
        "__shape__": "(64, 64, 3, 3)", 
        "__storage_type__": "0", 
        "__wd_mult__": "1.0"
      }, 
      "inputs": []
    }, 
    {
      "op": "Convolution", 
      "name": "cifarresnetv21_stage3_conv11_fwd", 
      "attrs": {
        "__profiler_scope__": "cifarresnetv21:stage3:conv11:", 
        "dilate": "(1, 1)", 
        "kernel": "(3, 3)", 
        "layout": "NCHW", 
        "no_bias": "True", 
        "num_filter": "64", 
        "num_group": "1", 
        "pad": "(1, 1)", 
        "stride": "(1, 1)"
      }, 
      "inputs": [[408, 0, 0], [409, 0, 0]]
    }, 
    {
      "op": "null", 
      "name": "cifarresnetv21_stage3_batchnorm11_gamma", 
      "attrs": {
        "__dtype__": "0", 
        "__init__": "ones", 
        "__lr_mult__": "1.0", 
        "__profiler_scope__": "cifarresnetv21:stage3:", 
        "__shape__": "(64,)", 
        "__storage_type__": "0", 
        "__wd_mult__": "1.0"
      }, 
      "inputs": []
    }, 
    {
      "op": "null", 
      "name": "cifarresnetv21_stage3_batchnorm11_beta", 
      "attrs": {
        "__dtype__": "0", 
        "__init__": "zeros", 
        "__lr_mult__": "1.0", 
        "__profiler_scope__": "cifarresnetv21:stage3:", 
        "__shape__": "(64,)", 
        "__storage_type__": "0", 
        "__wd_mult__": "1.0"
      }, 
      "inputs": []
    }, 
    {
      "op": "null", 
      "name": "cifarresnetv21_stage3_batchnorm11_running_mean", 
      "attrs": {
        "__dtype__": "0", 
        "__init__": "zeros", 
        "__lr_mult__": "1.0", 
        "__profiler_scope__": "cifarresnetv21:stage3:", 
        "__shape__": "(64,)", 
        "__storage_type__": "0", 
        "__wd_mult__": "1.0"
      }, 
      "inputs": []
    }, 
    {
      "op": "null", 
      "name": "cifarresnetv21_stage3_batchnorm11_running_var", 
      "attrs": {
        "__dtype__": "0", 
        "__init__": "ones", 
        "__lr_mult__": "1.0", 
        "__profiler_scope__": "cifarresnetv21:stage3:", 
        "__shape__": "(64,)", 
        "__storage_type__": "0", 
        "__wd_mult__": "1.0"
      }, 
      "inputs": []
    }, 
    {
      "op": "BatchNorm", 
      "name": "cifarresnetv21_stage3_batchnorm11_fwd", 
      "attrs": {
        "__profiler_scope__": "cifarresnetv21:stage3:batchnorm11:", 
        "axis": "1", 
        "eps": "1e-05", 
        "fix_gamma": "False", 
        "momentum": "0.9", 
        "use_global_stats": "False"
      }, 
      "inputs": [[410, 0, 0], [411, 0, 0], [412, 0, 0], [413, 0, 1], [414, 0, 1]]
    }, 
    {
      "op": "Activation", 
      "name": "cifarresnetv21_stage3_activation11", 
      "attrs": {
        "__profiler_scope__": "cifarresnetv21:stage3:", 
        "act_type": "relu"
      }, 
      "inputs": [[415, 0, 0]]
    }, 
    {
      "op": "null", 
      "name": "cifarresnetv21_stage3_conv12_weight", 
      "attrs": {
        "__dtype__": "0", 
        "__lr_mult__": "1.0", 
        "__profiler_scope__": "cifarresnetv21:stage3:", 
        "__shape__": "(64, 64, 3, 3)", 
        "__storage_type__": "0", 
        "__wd_mult__": "1.0"
      }, 
      "inputs": []
    }, 
    {
      "op": "Convolution", 
      "name": "cifarresnetv21_stage3_conv12_fwd", 
      "attrs": {
        "__profiler_scope__": "cifarresnetv21:stage3:conv12:", 
        "dilate": "(1, 1)", 
        "kernel": "(3, 3)", 
        "layout": "NCHW", 
        "no_bias": "True", 
        "num_filter": "64", 
        "num_group": "1", 
        "pad": "(1, 1)", 
        "stride": "(1, 1)"
      }, 
      "inputs": [[416, 0, 0], [417, 0, 0]]
    }, 
    {
      "op": "elemwise_add", 
      "name": "cifarresnetv21_stage3__plus5", 
      "attrs": {"__profiler_scope__": "cifarresnetv21:stage3:"}, 
      "inputs": [[418, 0, 0], [402, 0, 0]]
    }, 
    {
      "op": "null", 
      "name": "cifarresnetv21_stage3_batchnorm12_gamma", 
      "attrs": {
        "__dtype__": "0", 
        "__init__": "ones", 
        "__lr_mult__": "1.0", 
        "__profiler_scope__": "cifarresnetv21:stage3:", 
        "__shape__": "(64,)", 
        "__storage_type__": "0", 
        "__wd_mult__": "1.0"
      }, 
      "inputs": []
    }, 
    {
      "op": "null", 
      "name": "cifarresnetv21_stage3_batchnorm12_beta", 
      "attrs": {
        "__dtype__": "0", 
        "__init__": "zeros", 
        "__lr_mult__": "1.0", 
        "__profiler_scope__": "cifarresnetv21:stage3:", 
        "__shape__": "(64,)", 
        "__storage_type__": "0", 
        "__wd_mult__": "1.0"
      }, 
      "inputs": []
    }, 
    {
      "op": "null", 
      "name": "cifarresnetv21_stage3_batchnorm12_running_mean", 
      "attrs": {
        "__dtype__": "0", 
        "__init__": "zeros", 
        "__lr_mult__": "1.0", 
        "__profiler_scope__": "cifarresnetv21:stage3:", 
        "__shape__": "(64,)", 
        "__storage_type__": "0", 
        "__wd_mult__": "1.0"
      }, 
      "inputs": []
    }, 
    {
      "op": "null", 
      "name": "cifarresnetv21_stage3_batchnorm12_running_var", 
      "attrs": {
        "__dtype__": "0", 
        "__init__": "ones", 
        "__lr_mult__": "1.0", 
        "__profiler_scope__": "cifarresnetv21:stage3:", 
        "__shape__": "(64,)", 
        "__storage_type__": "0", 
        "__wd_mult__": "1.0"
      }, 
      "inputs": []
    }, 
    {
      "op": "BatchNorm", 
      "name": "cifarresnetv21_stage3_batchnorm12_fwd", 
      "attrs": {
        "__profiler_scope__": "cifarresnetv21:stage3:batchnorm12:", 
        "axis": "1", 
        "eps": "1e-05", 
        "fix_gamma": "False", 
        "momentum": "0.9", 
        "use_global_stats": "False"
      }, 
      "inputs": [[419, 0, 0], [420, 0, 0], [421, 0, 0], [422, 0, 1], [423, 0, 1]]
    }, 
    {
      "op": "Activation", 
      "name": "cifarresnetv21_stage3_activation12", 
      "attrs": {
        "__profiler_scope__": "cifarresnetv21:stage3:", 
        "act_type": "relu"
      }, 
      "inputs": [[424, 0, 0]]
    }, 
    {
      "op": "null", 
      "name": "cifarresnetv21_stage3_conv13_weight", 
      "attrs": {
        "__dtype__": "0", 
        "__lr_mult__": "1.0", 
        "__profiler_scope__": "cifarresnetv21:stage3:", 
        "__shape__": "(64, 64, 3, 3)", 
        "__storage_type__": "0", 
        "__wd_mult__": "1.0"
      }, 
      "inputs": []
    }, 
    {
      "op": "Convolution", 
      "name": "cifarresnetv21_stage3_conv13_fwd", 
      "attrs": {
        "__profiler_scope__": "cifarresnetv21:stage3:conv13:", 
        "dilate": "(1, 1)", 
        "kernel": "(3, 3)", 
        "layout": "NCHW", 
        "no_bias": "True", 
        "num_filter": "64", 
        "num_group": "1", 
        "pad": "(1, 1)", 
        "stride": "(1, 1)"
      }, 
      "inputs": [[425, 0, 0], [426, 0, 0]]
    }, 
    {
      "op": "null", 
      "name": "cifarresnetv21_stage3_batchnorm13_gamma", 
      "attrs": {
        "__dtype__": "0", 
        "__init__": "ones", 
        "__lr_mult__": "1.0", 
        "__profiler_scope__": "cifarresnetv21:stage3:", 
        "__shape__": "(64,)", 
        "__storage_type__": "0", 
        "__wd_mult__": "1.0"
      }, 
      "inputs": []
    }, 
    {
      "op": "null", 
      "name": "cifarresnetv21_stage3_batchnorm13_beta", 
      "attrs": {
        "__dtype__": "0", 
        "__init__": "zeros", 
        "__lr_mult__": "1.0", 
        "__profiler_scope__": "cifarresnetv21:stage3:", 
        "__shape__": "(64,)", 
        "__storage_type__": "0", 
        "__wd_mult__": "1.0"
      }, 
      "inputs": []
    }, 
    {
      "op": "null", 
      "name": "cifarresnetv21_stage3_batchnorm13_running_mean", 
      "attrs": {
        "__dtype__": "0", 
        "__init__": "zeros", 
        "__lr_mult__": "1.0", 
        "__profiler_scope__": "cifarresnetv21:stage3:", 
        "__shape__": "(64,)", 
        "__storage_type__": "0", 
        "__wd_mult__": "1.0"
      }, 
      "inputs": []
    }, 
    {
      "op": "null", 
      "name": "cifarresnetv21_stage3_batchnorm13_running_var", 
      "attrs": {
        "__dtype__": "0", 
        "__init__": "ones", 
        "__lr_mult__": "1.0", 
        "__profiler_scope__": "cifarresnetv21:stage3:", 
        "__shape__": "(64,)", 
        "__storage_type__": "0", 
        "__wd_mult__": "1.0"
      }, 
      "inputs": []
    }, 
    {
      "op": "BatchNorm", 
      "name": "cifarresnetv21_stage3_batchnorm13_fwd", 
      "attrs": {
        "__profiler_scope__": "cifarresnetv21:stage3:batchnorm13:", 
        "axis": "1", 
        "eps": "1e-05", 
        "fix_gamma": "False", 
        "momentum": "0.9", 
        "use_global_stats": "False"
      }, 
      "inputs": [[427, 0, 0], [428, 0, 0], [429, 0, 0], [430, 0, 1], [431, 0, 1]]
    }, 
    {
      "op": "Activation", 
      "name": "cifarresnetv21_stage3_activation13", 
      "attrs": {
        "__profiler_scope__": "cifarresnetv21:stage3:", 
        "act_type": "relu"
      }, 
      "inputs": [[432, 0, 0]]
    }, 
    {
      "op": "null", 
      "name": "cifarresnetv21_stage3_conv14_weight", 
      "attrs": {
        "__dtype__": "0", 
        "__lr_mult__": "1.0", 
        "__profiler_scope__": "cifarresnetv21:stage3:", 
        "__shape__": "(64, 64, 3, 3)", 
        "__storage_type__": "0", 
        "__wd_mult__": "1.0"
      }, 
      "inputs": []
    }, 
    {
      "op": "Convolution", 
      "name": "cifarresnetv21_stage3_conv14_fwd", 
      "attrs": {
        "__profiler_scope__": "cifarresnetv21:stage3:conv14:", 
        "dilate": "(1, 1)", 
        "kernel": "(3, 3)", 
        "layout": "NCHW", 
        "no_bias": "True", 
        "num_filter": "64", 
        "num_group": "1", 
        "pad": "(1, 1)", 
        "stride": "(1, 1)"
      }, 
      "inputs": [[433, 0, 0], [434, 0, 0]]
    }, 
    {
      "op": "elemwise_add", 
      "name": "cifarresnetv21_stage3__plus6", 
      "attrs": {"__profiler_scope__": "cifarresnetv21:stage3:"}, 
      "inputs": [[435, 0, 0], [419, 0, 0]]
    }, 
    {
      "op": "null", 
      "name": "cifarresnetv21_stage3_batchnorm14_gamma", 
      "attrs": {
        "__dtype__": "0", 
        "__init__": "ones", 
        "__lr_mult__": "1.0", 
        "__profiler_scope__": "cifarresnetv21:stage3:", 
        "__shape__": "(64,)", 
        "__storage_type__": "0", 
        "__wd_mult__": "1.0"
      }, 
      "inputs": []
    }, 
    {
      "op": "null", 
      "name": "cifarresnetv21_stage3_batchnorm14_beta", 
      "attrs": {
        "__dtype__": "0", 
        "__init__": "zeros", 
        "__lr_mult__": "1.0", 
        "__profiler_scope__": "cifarresnetv21:stage3:", 
        "__shape__": "(64,)", 
        "__storage_type__": "0", 
        "__wd_mult__": "1.0"
      }, 
      "inputs": []
    }, 
    {
      "op": "null", 
      "name": "cifarresnetv21_stage3_batchnorm14_running_mean", 
      "attrs": {
        "__dtype__": "0", 
        "__init__": "zeros", 
        "__lr_mult__": "1.0", 
        "__profiler_scope__": "cifarresnetv21:stage3:", 
        "__shape__": "(64,)", 
        "__storage_type__": "0", 
        "__wd_mult__": "1.0"
      }, 
      "inputs": []
    }, 
    {
      "op": "null", 
      "name": "cifarresnetv21_stage3_batchnorm14_running_var", 
      "attrs": {
        "__dtype__": "0", 
        "__init__": "ones", 
        "__lr_mult__": "1.0", 
        "__profiler_scope__": "cifarresnetv21:stage3:", 
        "__shape__": "(64,)", 
        "__storage_type__": "0", 
        "__wd_mult__": "1.0"
      }, 
      "inputs": []
    }, 
    {
      "op": "BatchNorm", 
      "name": "cifarresnetv21_stage3_batchnorm14_fwd", 
      "attrs": {
        "__profiler_scope__": "cifarresnetv21:stage3:batchnorm14:", 
        "axis": "1", 
        "eps": "1e-05", 
        "fix_gamma": "False", 
        "momentum": "0.9", 
        "use_global_stats": "False"
      }, 
      "inputs": [[436, 0, 0], [437, 0, 0], [438, 0, 0], [439, 0, 1], [440, 0, 1]]
    }, 
    {
      "op": "Activation", 
      "name": "cifarresnetv21_stage3_activation14", 
      "attrs": {
        "__profiler_scope__": "cifarresnetv21:stage3:", 
        "act_type": "relu"
      }, 
      "inputs": [[441, 0, 0]]
    }, 
    {
      "op": "null", 
      "name": "cifarresnetv21_stage3_conv15_weight", 
      "attrs": {
        "__dtype__": "0", 
        "__lr_mult__": "1.0", 
        "__profiler_scope__": "cifarresnetv21:stage3:", 
        "__shape__": "(64, 64, 3, 3)", 
        "__storage_type__": "0", 
        "__wd_mult__": "1.0"
      }, 
      "inputs": []
    }, 
    {
      "op": "Convolution", 
      "name": "cifarresnetv21_stage3_conv15_fwd", 
      "attrs": {
        "__profiler_scope__": "cifarresnetv21:stage3:conv15:", 
        "dilate": "(1, 1)", 
        "kernel": "(3, 3)", 
        "layout": "NCHW", 
        "no_bias": "True", 
        "num_filter": "64", 
        "num_group": "1", 
        "pad": "(1, 1)", 
        "stride": "(1, 1)"
      }, 
      "inputs": [[442, 0, 0], [443, 0, 0]]
    }, 
    {
      "op": "null", 
      "name": "cifarresnetv21_stage3_batchnorm15_gamma", 
      "attrs": {
        "__dtype__": "0", 
        "__init__": "ones", 
        "__lr_mult__": "1.0", 
        "__profiler_scope__": "cifarresnetv21:stage3:", 
        "__shape__": "(64,)", 
        "__storage_type__": "0", 
        "__wd_mult__": "1.0"
      }, 
      "inputs": []
    }, 
    {
      "op": "null", 
      "name": "cifarresnetv21_stage3_batchnorm15_beta", 
      "attrs": {
        "__dtype__": "0", 
        "__init__": "zeros", 
        "__lr_mult__": "1.0", 
        "__profiler_scope__": "cifarresnetv21:stage3:", 
        "__shape__": "(64,)", 
        "__storage_type__": "0", 
        "__wd_mult__": "1.0"
      }, 
      "inputs": []
    }, 
    {
      "op": "null", 
      "name": "cifarresnetv21_stage3_batchnorm15_running_mean", 
      "attrs": {
        "__dtype__": "0", 
        "__init__": "zeros", 
        "__lr_mult__": "1.0", 
        "__profiler_scope__": "cifarresnetv21:stage3:", 
        "__shape__": "(64,)", 
        "__storage_type__": "0", 
        "__wd_mult__": "1.0"
      }, 
      "inputs": []
    }, 
    {
      "op": "null", 
      "name": "cifarresnetv21_stage3_batchnorm15_running_var", 
      "attrs": {
        "__dtype__": "0", 
        "__init__": "ones", 
        "__lr_mult__": "1.0", 
        "__profiler_scope__": "cifarresnetv21:stage3:", 
        "__shape__": "(64,)", 
        "__storage_type__": "0", 
        "__wd_mult__": "1.0"
      }, 
      "inputs": []
    }, 
    {
      "op": "BatchNorm", 
      "name": "cifarresnetv21_stage3_batchnorm15_fwd", 
      "attrs": {
        "__profiler_scope__": "cifarresnetv21:stage3:batchnorm15:", 
        "axis": "1", 
        "eps": "1e-05", 
        "fix_gamma": "False", 
        "momentum": "0.9", 
        "use_global_stats": "False"
      }, 
      "inputs": [[444, 0, 0], [445, 0, 0], [446, 0, 0], [447, 0, 1], [448, 0, 1]]
    }, 
    {
      "op": "Activation", 
      "name": "cifarresnetv21_stage3_activation15", 
      "attrs": {
        "__profiler_scope__": "cifarresnetv21:stage3:", 
        "act_type": "relu"
      }, 
      "inputs": [[449, 0, 0]]
    }, 
    {
      "op": "null", 
      "name": "cifarresnetv21_stage3_conv16_weight", 
      "attrs": {
        "__dtype__": "0", 
        "__lr_mult__": "1.0", 
        "__profiler_scope__": "cifarresnetv21:stage3:", 
        "__shape__": "(64, 64, 3, 3)", 
        "__storage_type__": "0", 
        "__wd_mult__": "1.0"
      }, 
      "inputs": []
    }, 
    {
      "op": "Convolution", 
      "name": "cifarresnetv21_stage3_conv16_fwd", 
      "attrs": {
        "__profiler_scope__": "cifarresnetv21:stage3:conv16:", 
        "dilate": "(1, 1)", 
        "kernel": "(3, 3)", 
        "layout": "NCHW", 
        "no_bias": "True", 
        "num_filter": "64", 
        "num_group": "1", 
        "pad": "(1, 1)", 
        "stride": "(1, 1)"
      }, 
      "inputs": [[450, 0, 0], [451, 0, 0]]
    }, 
    {
      "op": "elemwise_add", 
      "name": "cifarresnetv21_stage3__plus7", 
      "attrs": {"__profiler_scope__": "cifarresnetv21:stage3:"}, 
      "inputs": [[452, 0, 0], [436, 0, 0]]
    }, 
    {
      "op": "null", 
      "name": "cifarresnetv21_stage3_batchnorm16_gamma", 
      "attrs": {
        "__dtype__": "0", 
        "__init__": "ones", 
        "__lr_mult__": "1.0", 
        "__profiler_scope__": "cifarresnetv21:stage3:", 
        "__shape__": "(64,)", 
        "__storage_type__": "0", 
        "__wd_mult__": "1.0"
      }, 
      "inputs": []
    }, 
    {
      "op": "null", 
      "name": "cifarresnetv21_stage3_batchnorm16_beta", 
      "attrs": {
        "__dtype__": "0", 
        "__init__": "zeros", 
        "__lr_mult__": "1.0", 
        "__profiler_scope__": "cifarresnetv21:stage3:", 
        "__shape__": "(64,)", 
        "__storage_type__": "0", 
        "__wd_mult__": "1.0"
      }, 
      "inputs": []
    }, 
    {
      "op": "null", 
      "name": "cifarresnetv21_stage3_batchnorm16_running_mean", 
      "attrs": {
        "__dtype__": "0", 
        "__init__": "zeros", 
        "__lr_mult__": "1.0", 
        "__profiler_scope__": "cifarresnetv21:stage3:", 
        "__shape__": "(64,)", 
        "__storage_type__": "0", 
        "__wd_mult__": "1.0"
      }, 
      "inputs": []
    }, 
    {
      "op": "null", 
      "name": "cifarresnetv21_stage3_batchnorm16_running_var", 
      "attrs": {
        "__dtype__": "0", 
        "__init__": "ones", 
        "__lr_mult__": "1.0", 
        "__profiler_scope__": "cifarresnetv21:stage3:", 
        "__shape__": "(64,)", 
        "__storage_type__": "0", 
        "__wd_mult__": "1.0"
      }, 
      "inputs": []
    }, 
    {
      "op": "BatchNorm", 
      "name": "cifarresnetv21_stage3_batchnorm16_fwd", 
      "attrs": {
        "__profiler_scope__": "cifarresnetv21:stage3:batchnorm16:", 
        "axis": "1", 
        "eps": "1e-05", 
        "fix_gamma": "False", 
        "momentum": "0.9", 
        "use_global_stats": "False"
      }, 
      "inputs": [[453, 0, 0], [454, 0, 0], [455, 0, 0], [456, 0, 1], [457, 0, 1]]
    }, 
    {
      "op": "Activation", 
      "name": "cifarresnetv21_stage3_activation16", 
      "attrs": {
        "__profiler_scope__": "cifarresnetv21:stage3:", 
        "act_type": "relu"
      }, 
      "inputs": [[458, 0, 0]]
    }, 
    {
      "op": "null", 
      "name": "cifarresnetv21_stage3_conv17_weight", 
      "attrs": {
        "__dtype__": "0", 
        "__lr_mult__": "1.0", 
        "__profiler_scope__": "cifarresnetv21:stage3:", 
        "__shape__": "(64, 64, 3, 3)", 
        "__storage_type__": "0", 
        "__wd_mult__": "1.0"
      }, 
      "inputs": []
    }, 
    {
      "op": "Convolution", 
      "name": "cifarresnetv21_stage3_conv17_fwd", 
      "attrs": {
        "__profiler_scope__": "cifarresnetv21:stage3:conv17:", 
        "dilate": "(1, 1)", 
        "kernel": "(3, 3)", 
        "layout": "NCHW", 
        "no_bias": "True", 
        "num_filter": "64", 
        "num_group": "1", 
        "pad": "(1, 1)", 
        "stride": "(1, 1)"
      }, 
      "inputs": [[459, 0, 0], [460, 0, 0]]
    }, 
    {
      "op": "null", 
      "name": "cifarresnetv21_stage3_batchnorm17_gamma", 
      "attrs": {
        "__dtype__": "0", 
        "__init__": "ones", 
        "__lr_mult__": "1.0", 
        "__profiler_scope__": "cifarresnetv21:stage3:", 
        "__shape__": "(64,)", 
        "__storage_type__": "0", 
        "__wd_mult__": "1.0"
      }, 
      "inputs": []
    }, 
    {
      "op": "null", 
      "name": "cifarresnetv21_stage3_batchnorm17_beta", 
      "attrs": {
        "__dtype__": "0", 
        "__init__": "zeros", 
        "__lr_mult__": "1.0", 
        "__profiler_scope__": "cifarresnetv21:stage3:", 
        "__shape__": "(64,)", 
        "__storage_type__": "0", 
        "__wd_mult__": "1.0"
      }, 
      "inputs": []
    }, 
    {
      "op": "null", 
      "name": "cifarresnetv21_stage3_batchnorm17_running_mean", 
      "attrs": {
        "__dtype__": "0", 
        "__init__": "zeros", 
        "__lr_mult__": "1.0", 
        "__profiler_scope__": "cifarresnetv21:stage3:", 
        "__shape__": "(64,)", 
        "__storage_type__": "0", 
        "__wd_mult__": "1.0"
      }, 
      "inputs": []
    }, 
    {
      "op": "null", 
      "name": "cifarresnetv21_stage3_batchnorm17_running_var", 
      "attrs": {
        "__dtype__": "0", 
        "__init__": "ones", 
        "__lr_mult__": "1.0", 
        "__profiler_scope__": "cifarresnetv21:stage3:", 
        "__shape__": "(64,)", 
        "__storage_type__": "0", 
        "__wd_mult__": "1.0"
      }, 
      "inputs": []
    }, 
    {
      "op": "BatchNorm", 
      "name": "cifarresnetv21_stage3_batchnorm17_fwd", 
      "attrs": {
        "__profiler_scope__": "cifarresnetv21:stage3:batchnorm17:", 
        "axis": "1", 
        "eps": "1e-05", 
        "fix_gamma": "False", 
        "momentum": "0.9", 
        "use_global_stats": "False"
      }, 
      "inputs": [[461, 0, 0], [462, 0, 0], [463, 0, 0], [464, 0, 1], [465, 0, 1]]
    }, 
    {
      "op": "Activation", 
      "name": "cifarresnetv21_stage3_activation17", 
      "attrs": {
        "__profiler_scope__": "cifarresnetv21:stage3:", 
        "act_type": "relu"
      }, 
      "inputs": [[466, 0, 0]]
    }, 
    {
      "op": "null", 
      "name": "cifarresnetv21_stage3_conv18_weight", 
      "attrs": {
        "__dtype__": "0", 
        "__lr_mult__": "1.0", 
        "__profiler_scope__": "cifarresnetv21:stage3:", 
        "__shape__": "(64, 64, 3, 3)", 
        "__storage_type__": "0", 
        "__wd_mult__": "1.0"
      }, 
      "inputs": []
    }, 
    {
      "op": "Convolution", 
      "name": "cifarresnetv21_stage3_conv18_fwd", 
      "attrs": {
        "__profiler_scope__": "cifarresnetv21:stage3:conv18:", 
        "dilate": "(1, 1)", 
        "kernel": "(3, 3)", 
        "layout": "NCHW", 
        "no_bias": "True", 
        "num_filter": "64", 
        "num_group": "1", 
        "pad": "(1, 1)", 
        "stride": "(1, 1)"
      }, 
      "inputs": [[467, 0, 0], [468, 0, 0]]
    }, 
    {
      "op": "elemwise_add", 
      "name": "cifarresnetv21_stage3__plus8", 
      "attrs": {"__profiler_scope__": "cifarresnetv21:stage3:"}, 
      "inputs": [[469, 0, 0], [453, 0, 0]]
    }, 
    {
      "op": "null", 
      "name": "cifarresnetv21_batchnorm1_gamma", 
      "attrs": {
        "__dtype__": "0", 
        "__init__": "ones", 
        "__lr_mult__": "1.0", 
        "__profiler_scope__": "cifarresnetv21:", 
        "__shape__": "(64,)", 
        "__storage_type__": "0", 
        "__wd_mult__": "1.0"
      }, 
      "inputs": []
    }, 
    {
      "op": "null", 
      "name": "cifarresnetv21_batchnorm1_beta", 
      "attrs": {
        "__dtype__": "0", 
        "__init__": "zeros", 
        "__lr_mult__": "1.0", 
        "__profiler_scope__": "cifarresnetv21:", 
        "__shape__": "(64,)", 
        "__storage_type__": "0", 
        "__wd_mult__": "1.0"
      }, 
      "inputs": []
    }, 
    {
      "op": "null", 
      "name": "cifarresnetv21_batchnorm1_running_mean", 
      "attrs": {
        "__dtype__": "0", 
        "__init__": "zeros", 
        "__lr_mult__": "1.0", 
        "__profiler_scope__": "cifarresnetv21:", 
        "__shape__": "(64,)", 
        "__storage_type__": "0", 
        "__wd_mult__": "1.0"
      }, 
      "inputs": []
    }, 
    {
      "op": "null", 
      "name": "cifarresnetv21_batchnorm1_running_var", 
      "attrs": {
        "__dtype__": "0", 
        "__init__": "ones", 
        "__lr_mult__": "1.0", 
        "__profiler_scope__": "cifarresnetv21:", 
        "__shape__": "(64,)", 
        "__storage_type__": "0", 
        "__wd_mult__": "1.0"
      }, 
      "inputs": []
    }, 
    {
      "op": "BatchNorm", 
      "name": "cifarresnetv21_batchnorm1_fwd", 
      "attrs": {
        "__profiler_scope__": "cifarresnetv21:batchnorm1:", 
        "axis": "1", 
        "eps": "1e-05", 
        "fix_gamma": "False", 
        "momentum": "0.9", 
        "use_global_stats": "False"
      }, 
      "inputs": [[470, 0, 0], [471, 0, 0], [472, 0, 0], [473, 0, 1], [474, 0, 1]]
    }, 
    {
      "op": "Activation", 
      "name": "cifarresnetv21_relu0_fwd", 
      "attrs": {
        "__profiler_scope__": "cifarresnetv21:relu0:", 
        "act_type": "relu"
      }, 
      "inputs": [[475, 0, 0]]
    }, 
    {
      "op": "Pooling", 
      "name": "cifarresnetv21_pool0_fwd", 
      "attrs": {
        "__profiler_scope__": "cifarresnetv21:pool0:", 
        "global_pool": "True", 
        "kernel": "(1, 1)", 
        "layout": "NCHW", 
        "pad": "(0, 0)", 
        "pool_type": "avg", 
        "pooling_convention": "full", 
        "stride": "(1, 1)"
      }, 
      "inputs": [[476, 0, 0]]
    }, 
    {
      "op": "Flatten", 
      "name": "cifarresnetv21_flatten0_flatten0", 
      "attrs": {"__profiler_scope__": "cifarresnetv21:flatten0:"}, 
      "inputs": [[477, 0, 0]]
    }, 
    {
      "op": "null", 
      "name": "cifarresnetv21_dense0_weight", 
      "attrs": {
        "__dtype__": "0", 
        "__lr_mult__": "1.0", 
        "__profiler_scope__": "cifarresnetv21:", 
        "__shape__": "(10, 64)", 
        "__storage_type__": "0", 
        "__wd_mult__": "1.0"
      }, 
      "inputs": []
    }, 
    {
      "op": "null", 
      "name": "cifarresnetv21_dense0_bias", 
      "attrs": {
        "__dtype__": "0", 
        "__init__": "zeros", 
        "__lr_mult__": "1.0", 
        "__profiler_scope__": "cifarresnetv21:", 
        "__shape__": "(10,)", 
        "__storage_type__": "0", 
        "__wd_mult__": "1.0"
      }, 
      "inputs": []
    }, 
    {
      "op": "FullyConnected", 
      "name": "cifarresnetv21_dense0_fwd", 
      "attrs": {
        "__profiler_scope__": "cifarresnetv21:dense0:", 
        "flatten": "True", 
        "no_bias": "False", 
        "num_hidden": "10"
      }, 
      "inputs": [[478, 0, 0], [479, 0, 0], [480, 0, 0]]
    }
  ], 
  "arg_nodes": [
    0, 
    1, 
    2, 
    3, 
    4, 
    6, 
    8, 
    9, 
    10, 
    11, 
    14, 
    16, 
    17, 
    18, 
    19, 
    22, 
    25, 
    26, 
    27, 
    28, 
    31, 
    33, 
    34, 
    35, 
    36, 
    39, 
    42, 
    43, 
    44, 
    45, 
    48, 
    50, 
    51, 
    52, 
    53, 
    56, 
    59, 
    60, 
    61, 
    62, 
    65, 
    67, 
    68, 
    69, 
    70, 
    73, 
    76, 
    77, 
    78, 
    79, 
    82, 
    84, 
    85, 
    86, 
    87, 
    90, 
    93, 
    94, 
    95, 
    96, 
    99, 
    101, 
    102, 
    103, 
    104, 
    107, 
    110, 
    111, 
    112, 
    113, 
    116, 
    118, 
    119, 
    120, 
    121, 
    124, 
    127, 
    128, 
    129, 
    130, 
    133, 
    135, 
    136, 
    137, 
    138, 
    141, 
    144, 
    145, 
    146, 
    147, 
    150, 
    152, 
    153, 
    154, 
    155, 
    158, 
    161, 
    162, 
    163, 
    164, 
    167, 
    169, 
    170, 
    171, 
    172, 
    175, 
    177, 
    180, 
    181, 
    182, 
    183, 
    186, 
    188, 
    189, 
    190, 
    191, 
    194, 
    197, 
    198, 
    199, 
    200, 
    203, 
    205, 
    206, 
    207, 
    208, 
    211, 
    214, 
    215, 
    216, 
    217, 
    220, 
    222, 
    223, 
    224, 
    225, 
    228, 
    231, 
    232, 
    233, 
    234, 
    237, 
    239, 
    240, 
    241, 
    242, 
    245, 
    248, 
    249, 
    250, 
    251, 
    254, 
    256, 
    257, 
    258, 
    259, 
    262, 
    265, 
    266, 
    267, 
    268, 
    271, 
    273, 
    274, 
    275, 
    276, 
    279, 
    282, 
    283, 
    284, 
    285, 
    288, 
    290, 
    291, 
    292, 
    293, 
    296, 
    299, 
    300, 
    301, 
    302, 
    305, 
    307, 
    308, 
    309, 
    310, 
    313, 
    316, 
    317, 
    318, 
    319, 
    322, 
    324, 
    325, 
    326, 
    327, 
    330, 
    332, 
    335, 
    336, 
    337, 
    338, 
    341, 
    343, 
    344, 
    345, 
    346, 
    349, 
    352, 
    353, 
    354, 
    355, 
    358, 
    360, 
    361, 
    362, 
    363, 
    366, 
    369, 
    370, 
    371, 
    372, 
    375, 
    377, 
    378, 
    379, 
    380, 
    383, 
    386, 
    387, 
    388, 
    389, 
    392, 
    394, 
    395, 
    396, 
    397, 
    400, 
    403, 
    404, 
    405, 
    406, 
    409, 
    411, 
    412, 
    413, 
    414, 
    417, 
    420, 
    421, 
    422, 
    423, 
    426, 
    428, 
    429, 
    430, 
    431, 
    434, 
    437, 
    438, 
    439, 
    440, 
    443, 
    445, 
    446, 
    447, 
    448, 
    451, 
    454, 
    455, 
    456, 
    457, 
    460, 
    462, 
    463, 
    464, 
    465, 
    468, 
    471, 
    472, 
    473, 
    474, 
    479, 
    480
  ], 
  "node_row_ptr": [
    0, 
    1, 
    2, 
    3, 
    4, 
    5, 
    8, 
    9, 
    10, 
    11, 
    12, 
    13, 
    14, 
    17, 
    18, 
    19, 
    20, 
    21, 
    22, 
    23, 
    24, 
    27, 
    28, 
    29, 
    30, 
    31, 
    32, 
    33, 
    34, 
    35, 
    38, 
    39, 
    40, 
    41, 
    42, 
    43, 
    44, 
    45, 
    48, 
    49, 
    50, 
    51, 
    52, 
    53, 
    54, 
    55, 
    56, 
    59, 
    60, 
    61, 
    62, 
    63, 
    64, 
    65, 
    66, 
    69, 
    70, 
    71, 
    72, 
    73, 
    74, 
    75, 
    76, 
    77, 
    80, 
    81, 
    82, 
    83, 
    84, 
    85, 
    86, 
    87, 
    90, 
    91, 
    92, 
    93, 
    94, 
    95, 
    96, 
    97, 
    98, 
    101, 
    102, 
    103, 
    104, 
    105, 
    106, 
    107, 
    108, 
    111, 
    112, 
    113, 
    114, 
    115, 
    116, 
    117, 
    118, 
    119, 
    122, 
    123, 
    124, 
    125, 
    126, 
    127, 
    128, 
    129, 
    132, 
    133, 
    134, 
    135, 
    136, 
    137, 
    138, 
    139, 
    140, 
    143, 
    144, 
    145, 
    146, 
    147, 
    148, 
    149, 
    150, 
    153, 
    154, 
    155, 
    156, 
    157, 
    158, 
    159, 
    160, 
    161, 
    164, 
    165, 
    166, 
    167, 
    168, 
    169, 
    170, 
    171, 
    174, 
    175, 
    176, 
    177, 
    178, 
    179, 
    180, 
    181, 
    182, 
    185, 
    186, 
    187, 
    188, 
    189, 
    190, 
    191, 
    192, 
    195, 
    196, 
    197, 
    198, 
    199, 
    200, 
    201, 
    202, 
    203, 
    206, 
    207, 
    208, 
    209, 
    210, 
    211, 
    212, 
    213, 
    216, 
    217, 
    218, 
    219, 
    220, 
    221, 
    222, 
    223, 
    224, 
    225, 
    226, 
    229, 
    230, 
    231, 
    232, 
    233, 
    234, 
    235, 
    236, 
    239, 
    240, 
    241, 
    242, 
    243, 
    244, 
    245, 
    246, 
    247, 
    250, 
    251, 
    252, 
    253, 
    254, 
    255, 
    256, 
    257, 
    260, 
    261, 
    262, 
    263, 
    264, 
    265, 
    266, 
    267, 
    268, 
    271, 
    272, 
    273, 
    274, 
    275, 
    276, 
    277, 
    278, 
    281, 
    282, 
    283, 
    284, 
    285, 
    286, 
    287, 
    288, 
    289, 
    292, 
    293, 
    294, 
    295, 
    296, 
    297, 
    298, 
    299, 
    302, 
    303, 
    304, 
    305, 
    306, 
    307, 
    308, 
    309, 
    310, 
    313, 
    314, 
    315, 
    316, 
    317, 
    318, 
    319, 
    320, 
    323, 
    324, 
    325, 
    326, 
    327, 
    328, 
    329, 
    330, 
    331, 
    334, 
    335, 
    336, 
    337, 
    338, 
    339, 
    340, 
    341, 
    344, 
    345, 
    346, 
    347, 
    348, 
    349, 
    350, 
    351, 
    352, 
    355, 
    356, 
    357, 
    358, 
    359, 
    360, 
    361, 
    362, 
    365, 
    366, 
    367, 
    368, 
    369, 
    370, 
    371, 
    372, 
    373, 
    376, 
    377, 
    378, 
    379, 
    380, 
    381, 
    382, 
    383, 
    386, 
    387, 
    388, 
    389, 
    390, 
    391, 
    392, 
    393, 
    394, 
    397, 
    398, 
    399, 
    400, 
    401, 
    402, 
    403, 
    404, 
    407, 
    408, 
    409, 
    410, 
    411, 
    412, 
    413, 
    414, 
    415, 
    416, 
    417, 
    420, 
    421, 
    422, 
    423, 
    424, 
    425, 
    426, 
    427, 
    430, 
    431, 
    432, 
    433, 
    434, 
    435, 
    436, 
    437, 
    438, 
    441, 
    442, 
    443, 
    444, 
    445, 
    446, 
    447, 
    448, 
    451, 
    452, 
    453, 
    454, 
    455, 
    456, 
    457, 
    458, 
    459, 
    462, 
    463, 
    464, 
    465, 
    466, 
    467, 
    468, 
    469, 
    472, 
    473, 
    474, 
    475, 
    476, 
    477, 
    478, 
    479, 
    480, 
    483, 
    484, 
    485, 
    486, 
    487, 
    488, 
    489, 
    490, 
    493, 
    494, 
    495, 
    496, 
    497, 
    498, 
    499, 
    500, 
    501, 
    504, 
    505, 
    506, 
    507, 
    508, 
    509, 
    510, 
    511, 
    514, 
    515, 
    516, 
    517, 
    518, 
    519, 
    520, 
    521, 
    522, 
    525, 
    526, 
    527, 
    528, 
    529, 
    530, 
    531, 
    532, 
    535, 
    536, 
    537, 
    538, 
    539, 
    540, 
    541, 
    542, 
    543, 
    546, 
    547, 
    548, 
    549, 
    550, 
    551, 
    552, 
    553, 
    556, 
    557, 
    558, 
    559, 
    560, 
    561, 
    562, 
    563, 
    564, 
    567, 
    568, 
    569, 
    570, 
    571, 
    572, 
    573, 
    574, 
    577, 
    578, 
    579, 
    580, 
    581, 
    582, 
    583, 
    584, 
    585, 
    588, 
    589, 
    590, 
    591, 
    592, 
    593, 
    594
  ], 
  "heads": [[481, 0, 0]], 
  "attrs": {"mxnet_version": ["int", 20000]}
}